param/gnns/ba3_net.pt (torch_old, 138000 bytes, 17 tensors)

weight f4 [64, 4]
00000000: 5c50 8a3c 3b76 9a3e bfb5 e5be 4971 d6be
00000010: 89cb 5bbe 570f 2e3e ecd2 1d3d c9ec f73e
00000020: 8c1d 173b c371 28bc 70e2 3abe c5a9 35be
00000030: 1c01 e6be 66ac febe 5dea 4fbe 4e80 d6ba
00000040: 2287 3c3e 57e0 ac3e 1381 c5be 4511 8dbe
00000050: 539b 2e3e d9be 093f 7eb6 b7bd 54b9 d93e
00000060: 97a1 e9bd 3b2f 583e 5796 e43e 564c dfbe
00000070: 8000 b5be 875c 293d 5b27 1cbe 1510 f73e
00000080: 9068 a9be bf7d 6ebe 536a d2be 3b12 05bf
00000090: 1eda d0be 5b22 063f f503 1f3e 4b96 3b3e
000000a0: baba 393d d4c8 c3be 5a8f 2d3d 6335 0dbf
000000b0: 6d18 bfbe a796 bcbe 7c6a 953e 5bf0 883e
000000c0: f4d6 6bbe 9730 1b3c 47ca b13e e05c 103f
000000d0: a288 373e 5474 b33d cc60 c73e 6d04 7dbe
000000e0: 157a f13d 5344 0fbf 0c0d b5be eadd 9dbe
000000f0: 60bf 653e fa65 923e d5c1 9fbe 65fa ea3d
00000100: b309 a33e 5276 8cbe 2a05 3e3d d246 273c
00000110: a5a0 973e 58cc 0a3f f96a dbbe 4149 4fbe
00000120: 3a99 643e cb6e 0d3f dad2 103f 36f4 1f3f
00000130: fc6b 3a3e 28e7 1abf 1e1d 7f3d 1064 adbe
00000140: b54a 06bf 145e 023f 0aa1 a03e 68bb 08bf
00000150: 4e20 083e 6cf7 74be 5152 23be 5322 a6be
00000160: 0aa1 563e 30e6 c8be e499 5b3e 2037 873e
00000170: f634 b23e 3b28 7c3e 203e 04bf 9a93 b1be
00000180: 7f03 8d3e 2c2c 503e 59ab c1be 6ab7 8dbe
00000190: cf91 f23e 95f8 c73e f4f6 77be 7535 13be
000001a0: 03a8 fabe 80b0 07be c80c d6be 3788 02bf
000001b0: 5303 31bd 630a 2e3e 9a89 4ebe 5067 a33e
000001c0: 82ff d4be 812a 0c3f 19f8 543e 9581 fbbe
000001d0: 3976 1ebe 5d94 863d b543 d83d 18f9 463e
000001e0: 602a ae3e 8757 e23d 0191 81be 7cde 873e
000001f0: 1a1b f6be cb7f e1be 0cee 17be dc3e a8be
00000200: f6c8 85bd 7805 ffbe 3969 aebc 44b4 343e
00000210: 34d3 c0be 5927 25be 76a7 a33e 0f62 e1bd
00000220: 8839 61bd 7f30 60be 33e8 523d 0735 373e
00000230: 03ec e93e 3e77 d93e 5dfd 083f d1e1 763d
00000240: e2aa e5be 2a73 a8be ab06 b83e 0d3b 483c
00000250: 4d31 68be 0311 ffbe 6ad2 0cbf acd5 0abf
00000260: 1ea1 f9bd 23a4 ab3e cd6c 713e f744 01bf
00000270: aad7 ad3e 5213 efbe 67e7 9abd 109c 44be
00000280: 4cef b4bd 615c f53c 9829 e8be b9cb d9be
00000290: d34e 46bd cfba 16bd f520 48be 38aa 273e
000002a0: 5e81 05bf 6ad4 5cbd 6eda e93e 28cf 48be
000002b0: 6bb6 f53e 3fb2 8e3e 9056 dcbe f1e4 b13e
000002c0: bca5 b6bc 3715 d6be 7933 af3e 768a ffbe
000002d0: e6b6 903d dc45 17be 4d8c d23e 4c4d 4f3e
000002e0: 1c58 643e 1fb4 3c3e cbc3 33be 69e0 24be
000002f0: d0de d0be f912 bd3e 83a7 df3e 76ba fe3e
00000300: 0416 cebe b104 2b3d 7bd8 d2be 6f73 b8be
00000310: ddfc 8fbe a825 893e 78d5 90be 24f0 fdbc
00000320: 1694 59bc f1cf d63e 8d69 c8be edd0 b9be
00000330: 1dcd a8be aa6a e83e 9694 4cbe 5cb9 dc3e
00000340: d508 553e 4325 bd3d 570e 433d 020f 833c
00000350: f939 163e fb14 3ebe 382f 8f3d 0443 fd3d
00000360: 0e7c bebe 740d d3be 4f29 c73e c414 e8be
00000370: b5b3 98bd 43d9 143f 0705 243e df44 7f3c
00000380: c9d8 e4be d713 b13e fe2e c2be eb8c 2dbe
00000390: bdda efbd 8cf1 6cbe 314c 423d f49e d73e
000003a0: 32ec 06bd d330 123f a1e1 763e 41aa c8be
000003b0: 0dad 6c3e 29de efbe c4d4 33be 9740 2f3e
000003c0: b882 193e 65e6 e53e ea4d 40be 9891 b8bc
000003d0: 30a4 aa3e fe02 12bf 5800 cd3e c9da b4be
000003e0: 28af eb3c 3622 d4bb 9641 8ebe 4bc2 073e
000003f0: adac 233f b112 a2be 7925 79be 2bb8 0fbe
0.016884021 0.30168328 -0.44865224 -0.41883305 -0.21464361 0.16998039 0.03853123 0.4842284
0.0023058383 -0.010281029 -0.18250442 -0.17740543 -0.4492272 -0.49740905 -0.20304246 -0.0016365142
0.18410924 0.33764908 -0.38575038 -0.27552238 0.17051439 0.53806835 -0.089703545 0.42524207
-0.11407774 0.21111767 0.4464595 -0.43612927 -0.35351944 0.041348007 -0.15249388 0.48254457
-0.33087587 -0.23290156 -0.41096744 -0.5198094 -0.4079141 0.5239617 0.15528853 0.18319051
0.045344092 -0.38239157 0.04237304 -0.55159587 -0.37323323 -0.3683369 0.29182804 0.26745877
-0.23031217 0.009472034 0.34724638 0.56391716 0.17923215 0.08762422 0.38941038 -0.2470872
0.117908634 -0.5596363 -0.35361516 -0.3083337 0.22436285 0.28593427 -0.3120257 0.1147354
0.31843337 -0.2743402 0.046391644 0.010209756 0.2961475 0.54218054 -0.4285505 -0.20242788
0.22324076 0.5524718 0.56571734 0.6248201 0.18205255 -0.60508966 0.062283628 -0.33865404
-0.52457744 0.509248 0.31372863 -0.5341096 0.13293573 -0.23922509 -0.1594937 -0.32448062
0.20959869 -0.3923812 0.21445423 0.26409245 0.3480603 0.24624722 -0.51657295 -0.34682924
0.2754173 0.2032935 -0.3782604 -0.27678996 0.47376868 0.3905684 -0.24215299 -0.14375861
-0.48956308 -0.13250923 -0.41806626 -0.509891 -0.04321606 0.1699615 -0.20169678 0.3191476
-0.41601187 0.54752356 0.20797767 -0.491223 -0.15474786 0.06571267 0.10559789 0.19430959
0.34016705 0.11051851 -0.25305942 0.2653693 -0.48067552 -0.4404281 -0.14836901 -0.32860458
-0.06532471 -0.4980886 -0.021290408 0.17646891 -0.37661135 -0.16128291 0.319637 -0.11005031
-0.054986507 -0.218935 0.051490974 0.17891322 0.45687875 0.42473787 0.535116 0.06027395
-0.44856936 -0.32900363 0.35942587 0.01222111 -0.22675057 -0.49817666 -0.55008566 -0.5423229
-0.12188934 0.33523664 0.2357666 -0.50495857 0.339536 -0.46694428 -0.07563668 -0.19200158
-0.08834705 0.029951276 -0.45344234 -0.4253824 -0.048415016 -0.03679925 -0.19543822 0.16373527
-0.52150524 -0.05391351 0.4567446 -0.19610274 0.47990736 0.27870366 -0.43034792 0.3474498
-0.022295825 -0.4181306 0.34218958 -0.49910325 0.07066135 -0.14772743 0.41122666 0.2024433
0.22299236 0.18428086 -0.17555158 -0.1610123 -0.40794992 0.36928537 0.4368249 0.49751633
-0.40251172 0.04175252 -0.41180786 -0.3602557 -0.28122607 0.26786542 -0.28287864 -0.030998297
-0.013279935 0.41955522 -0.3914303 -0.3629221 -0.3296899 0.45393878 -0.19978556 0.43110168
0.2080415 0.09235623 0.047621097 0.015998367 0.14670552 -0.18562691 0.06991428 0.12366298
-0.3720402 -0.412212 0.38898703 -0.45328343 -0.074561514 0.58144015 0.16017543 0.015580385
-0.44696644 0.3458545 -0.37926477 -0.16948287 -0.11711643 -0.23139018 0.047435943 0.4211346
-0.032940097 0.5710575 0.24109508 -0.39192393 0.23112889 -0.46849182 -0.17561632 0.17114483
0.14991271 0.4490234 -0.18779722 -0.022530362 0.3332839 -0.57035816 0.40039325 -0.3532317
0.028770044 -0.006473805 -0.27784413 0.1325771 0.6393536 -0.31654885 -0.24330701 -0.14035098

bias f4 [64]
00000000: 4121 09bf 364f 9b3e ba8f a8be 7a17 dbbe
00000010: c70b a4be 3c29 b93e 7fae b13e ab23 003f
00000020: 9955 053e c189 36be be2d 75be ebe3 d23d
00000030: e119 f43e 158d 373e af17 b3be a3e2 6abe
00000040: ebb7 19bf 5917 e63d 1bf2 e0bd 5fda 06bf
00000050: d42d dd3e b3e6 e5be 5022 82bd 54f6 123e
00000060: 7752 5b3d cffe adbe ca1c 08bf 8b4a f03e
00000070: 88d4 0a3d 3bf5 fe3e 58aa f0bd 66bb 2d3d
00000080: 82f3 c4bd a020 dbbd 6bd9 e3be 005c 8d3e
00000090: 5891 0a3e ff32 0bbe f8db febd 6c59 a6be
000000a0: f74b c73e 62fa cebe 2ede 533e 1ae1 e9bd
000000b0: f27c bfbe 9c7b 093e 35cc 9ebe 824a 753e
000000c0: 50c8 323d 474c b6be d5e9 c43d 601f 803e
000000d0: 0007 923e 48da fabc 53ac ffbe a1d3 4ebd
000000e0: 40e7 3f3e 631f 66be 14e7 423e 6ead a23e
000000f0: 1cb0 86be c727 5b3b 0398 8c3e 41d7 103d
-0.53566366 0.3033387 -0.32922155 -0.4279135 -0.32040235 0.36164272 0.34703442 0.50054425
0.13020934 -0.17825986 -0.2394323 0.10297378 0.47675994 0.17924912 -0.34979007 -0.22938018
-0.6004626 0.11234922 -0.10983678 -0.5267696 0.43199027 -0.44902572 -0.06354201 0.14351779
0.05354544 -0.33983466 -0.5316893 0.46931872 0.03389409 0.4979647 -0.117512405 0.042415045
-0.09616758 -0.10699582 -0.44501814 0.27609253 0.13532007 -0.13593672 -0.124442995 -0.32490098
0.38925144 -0.40425402 0.20690224 -0.11419888 -0.37400013 0.1342606 -0.31015173 0.23954204
0.043648064 -0.3560507 0.096149124 0.25023937 0.28520966 -0.030621663 -0.4993616 -0.050494794
0.18740559 -0.2247291 0.19033462 0.3177294 -0.26306236 0.0033440457 0.27459726 0.035361532

weight f4 [64, 64]
00000000: b7f4 debd 43cb 083e bbc2 4cbd 420d cfbd
00000010: 804f b13d d182 91bb c82f ab3a b6c8 5f3d
00000020: b5b4 31bd 60c4 433c acf5 4b3d 3ac8 423d
00000030: 60c3 0abd 8971 353d 3bd5 06bd 3c01 c4ba
00000040: e9a3 6c3d 9507 ef3d 6e6b 8ebc 8d97 93bd
00000050: 5a5d 913d 99d3 e1bd 0f24 1fbe aaec ee3c
00000060: 3703 d0bb 2bf7 3abd f98f 173d e5cf 713d
00000070: 632f d33d 25d7 233d ecae f1bb e7ed 703d
00000080: 6718 b73c bcfc 0ebe f499 743d 2210 983d
00000090: 2d17 c63c e35b 923d 72c4 0bbd a42b 9ebc
000000a0: 0371 793d db92 01be 586a 88bd c071 83bd
000000b0: 4281 813a 9073 1c3d 5804 a23d 4c8d f1bd
000000c0: 7ab4 693d 84db 3a3d 55fc 6f3d 041b cfbd
000000d0: 1f9e c63c 8828 debd a294 9bbd d20a 0f3b
000000e0: 1210 ecbc 9b38 bfbd 507e 933c 31b6 8ebd
000000f0: bbb5 ca3d ee79 c3bd 81fb bebd 850a 6b3c
00000100: 8150 5ebd f538 94bd d11a 893d 1bd3 cabd
00000110: cfb9 763d fc31 2a3d 7eaa 8bbd 687b debc
00000120: 3aeb 74bd 0d8b 7f3d 5b28 9e3d de19 4b3e
00000130: ad89 133e 27de cd3d e2bb 073c 3077 05bb
00000140: bd50 d73c c7e9 b43c 99d1 503d 4784 5cbc
00000150: 5f80 dcbc 81d4 f03c 33e3 2d3e 32db 803c
00000160: 2287 abbc 311f 54bc 6909 833c c818 fa3a
00000170: 1a16 40bd f898 b43d c429 16be 4f14 b1bd
00000180: 5eab c6bd 2d8d a3bd 71d6 a03d b4d8 793d
00000190: b5dc c33d 4338 e0bd 528e bcbd a06a 83bc
000001a0: c1f9 f2bc 8583 03be c9ed 213e 2523 ffbb
000001b0: 3741 03be 67d8 fe3d 16f8 a1bd ecf2 56bd
000001c0: 4a6a febd 3ecf 40bd d3a0 40be f5ed 46bd
000001d0: 0aef a73d 0bce 1d3e 7803 e3bd 486c 963c
000001e0: 0d66 21be 3d3a d53d bb8d ccbd 3c56 793c
000001f0: dabb 3cbe 8e3b cdbd dd8d 91bc 8721 02be
00000200: f73f f0bc c7c2 24bc b5fa be3d b9f4 04bd
00000210: a1e3 933d 48ff 99bd 7d2b 683d 7880 5ebd
00000220: 24fc 9d3d a797 833c 5494 d13a a667 073c
00000230: c3e3 333c db7d 333d d5f7 553d 9988 933d
00000240: 5d6c 673d 4d35 ab3d 9caf b9bd 1f28 d1bb
00000250: 14c9 44bd 43b1 ce3d 2c6f 5cbe c6cb 593d
00000260: 9bd0 e43d 043e ba3d e156 d23d 11a9 93bd
00000270: f8e1 173d c6bd 573d 4c16 e3bd 93d1 483d
00000280: 9deb 05bc a1f5 da3d 53db 4b3d 5a64 cbbd
00000290: 0fd2 f73d 42bc cc3d 4fd5 8f3d eac9 0e3e
000002a0: 9ef1 f9bc 739e 733d 3fe0 e43c 39ce b3bc
000002b0: 3b29 b13d 0215 73bb e1b5 fd3d c6a1 a4bd
000002c0: c907 833d 4754 9b3d 860f 27bd fc34 86bd
000002d0: 0aaa ddbd e11a 44be 7b9e 873b 9dff 5d3d
000002e0: f605 333d 0052 573d 58cb a0bd 301a 8b3c
000002f0: 2fc8 723d 0fc4 3abd e8e1 afbd 9874 91bd
00000300: 023f c53c c166 e73d 98be 213d 6d61 5c3d
00000310: 7fc8 b7bd 8f9f 183c 7de2 433d 9fab f6bb
00000320: a3c7 f5bd 933e 06bd 7396 e9bd 8638 6fbc
00000330: 40d4 ca3c 449e 833d 8d10 9d3d e87d 65bd
00000340: 304b 563d f417 073e 7295 37bd a3e0 e4bd
00000350: 8828 45bd 8ceb 53bd 740b bebb bae0 1a3e
00000360: 0e51 2c3e bc95 ae3d faba c83b 41d3 3ebd
00000370: 2fa5 8c3d b70f 14bd cbbe c8bd 70f8 cebd
00000380: 823c fc3d 1372 f2bd aeac 20bd 8f2f 253d
00000390: a4c8 83bd dc21 e3bc 9344 44bd 51ff 633d
000003a0: bd18 303e 17c2 853d ceb6 dabb 2f89 9e3d
000003b0: deea e73d 15ea a63d c2ac 5dbd a17e 2c3d
000003c0: 4413 123d 57c6 cf3c a286 513e b8c7 44bd
000003d0: a2ce 9cbd cc47 90bd 4b2d 3a3d e012 3ebd
000003e0: 14eb 123e 94a5 51bd 8f9d d13d e74b eebd
000003f0: 3de1 8c3b d483 363d d11b a7bd 7893 afbc
-0.108865194 0.13358788 -0.049990397 -0.101099506 0.086577415 -0.0044406434 0.0013060505 0.054634772
-0.043385226 0.011948675 0.049794838 0.047554232 -0.03387773 0.04429773 -0.032918196 -0.0014953981
0.057773504 0.11671368 -0.01738521 -0.072066404 0.070978835 -0.11026687 -0.15541099 0.029165585
-0.0063480395 -0.045645874 0.037002537 0.059036154 0.10311773 0.0400001 -0.0073755886 0.05882063
0.022350503 -0.13963598 0.059717134 0.07424952 0.024180973 0.07146432 -0.03412289 -0.019307919
0.060898792 -0.12653677 -0.066609085 -0.064181805 0.0009880441 0.038196146 0.07910985 -0.11794528
0.05705688 0.045619503 0.058590252 -0.10112575 0.02424532 -0.108475745 -0.07596709 0.0021826518
-0.028816257 -0.093369685 0.018004566 -0.06968344 0.098979436 -0.095447406 -0.09325314 0.01434577
-0.054275993 -0.07237426 0.06694568 -0.099035464 0.060235795 0.041551575 -0.06819628 -0.027158454
-0.059794642 0.06238847 0.07722541 0.19834086 0.14407988 0.10052138 0.008284541 -0.002036523
0.026283616 0.02208413 0.050981138 -0.013459272 -0.02691668 0.029398205 0.16981201 0.01572952
-0.02093846 -0.01294689 0.015995698 0.0019080872 -0.046896078 0.08818239 -0.1466437 -0.08646452
-0.097006544 -0.079859115 0.078534015 0.06099768 0.09563581 -0.10948231 -0.09206833 -0.016042054
-0.029660108 -0.1284314 0.15813364 -0.007786172 -0.12817846 0.12443619 -0.07908647 -0.052477762
-0.12422617 -0.04707264 -0.1881135 -0.048566777 0.0819989 0.1541063 -0.11084646 0.01836218
-0.15761586 0.10411499 -0.099879704 0.015218314 -0.18431035 -0.10021125 -0.017767841 -0.12708102
-0.029327376 -0.010056204 0.09325162 -0.03245995 0.07221151 -0.07519394 0.0566821 -0.054321736
0.07714108 0.016063524 0.001598964 0.008264458 0.010979596 0.043821197 0.052238304 0.07203788
0.056499828 0.08359776 -0.09066698 -0.0063829566 -0.048043326 0.10092404 -0.21526784 0.05317285
0.11172601 0.0909386 0.10270477 -0.07209981 0.037080735 0.052671216 -0.11088237 0.04902799
-0.00817385 0.10691381 0.04976971 -0.0993125 0.12100612 0.09996845 0.07023107 0.13944212
-0.03051072 0.05947728 0.02793896 -0.02194892 0.08650442 -0.003709138 0.12388206 -0.08038668
0.06397969 0.07584434 -0.04078629 -0.06553075 -0.10823448 -0.19150878 0.0041387654 0.05419885
0.043706857 0.052568436 -0.07851285 0.01698026 0.05927294 -0.045597132 -0.0858801 -0.071023166
0.024077896 0.112988956 0.039488405 0.05380385 -0.089737885 0.0093153855 0.047823418 -0.007527783
-0.12000968 -0.03277452 -0.11405649 -0.014600879 0.024759412 0.06426671 0.076691724 -0.056028277
0.0523178 0.13192731 -0.044820257 -0.111756586 -0.048134357 -0.051738307 -0.005799705 0.15124789
0.16827795 0.08524653 0.006125805 -0.046588186 0.06867444 -0.0361478 -0.09802016 -0.101059794
0.123162284 -0.11838164 -0.03922718 0.04032856 -0.064347535 -0.027726106 -0.04791696 0.05566341
0.17196937 0.0653116 -0.006674624 0.077410094 0.11324094 0.08150116 -0.054119833 0.04211295
0.035662904 0.02536313 0.20461515 -0.04804203 -0.076565996 -0.07044944 0.04545335 -0.04640472
0.14347488 -0.0511833 0.1023513 -0.11635571 0.0042993114 0.044559315 -0.081596024 -0.021432623

bias f4 [64]
00000000: 40cc e53d dd28 2a3d f902 6d3d 14cc 823d
00000010: c4e8 e3bc 701f c8bd 7312 a8bd daaa 60bd
00000020: cb8e 3cbb 8d53 3b3c 1886 6cbd b5b3 fdbc
00000030: fe91 ad3d 5edc 353c 7f67 c1bd c992 f93d
00000040: 8c08 d73d 4d80 053d 2209 4fbd af80 0f3d
00000050: 19a4 eb3b 60f3 8cbd 70cc afbd fa37 30bd
00000060: 31e4 193e 9538 5ebc 9a99 b4bc 6d55 f73d
00000070: 12b2 ffbc 6d64 51bd ca58 8a3d e851 bf3d
00000080: 5667 8fbc 4706 7f3d 7ed1 f3bd 7a26 86bd
00000090: 2255 993d 5268 963d ccfe 0d3e 2959 683d
000000a0: 4276 603e 6499 82bc 616b 1abd e96d 84bb
000000b0: 3d13 f3bb d0b0 2b3d 75a5 603b 6de6 04be
000000c0: 4ffb d839 9ea5 973c 2ff4 c23d 7f7f 663d
000000d0: a116 ce3c 523b 8fbd baa3 4d3c e2aa 9b3c
000000e0: 56b8 fbbd cc18 eb3d 926b 2b3e f50a 093e
000000f0: d546 c13d cf20 c1bd 1e58 22be 563c 37bd
0.11220598 0.041542877 0.057864163 0.06386581 -0.027820952 -0.09771621 -0.08206644 -0.054850437
-0.0028771635 0.011433494 -0.05774507 -0.03096948 0.084751114 0.011099903 -0.094435684 0.121862
0.10499677 0.03259306 -0.05054582 0.03503483 0.007191193 -0.068823576 -0.08583915 -0.043022133
0.15028454 -0.013563295 -0.0220459 0.120768405 -0.03121284 -0.051121164 0.067552164 0.09341794
-0.01750533 0.062261846 -0.11905192 -0.065503076 0.07486941 0.07344116 0.13866729 0.056725655
0.21920112 -0.015942283 -0.03770006 -0.0040414226 -0.007418065 0.04191667 0.0034278308 -0.12978525
0.0004138597 0.01851159 0.095192306 0.056273934 0.025157275 -0.06993736 0.0125512425 0.019002382
-0.12291019 0.11479339 0.16740254 0.13383086 0.09437338 -0.09430086 -0.15853927 -0.044735275

weight f4 [64, 64]
00000000: 3c23 1dbd 1735 01be 8939 85bd 04f2 f83c
00000010: 2018 7dbd 2fdc ecbd 17c3 803d ccbb 20be
00000020: c19d 19bc 382e 5cbd 65bf 18bd 58d2 203d
00000030: 7010 e8bd 4948 aebc c319 a23d 0e10 e9bc
00000040: 584a 2abd 4497 d9bc 6eb5 61bd 2114 183e
00000050: 4445 c6bd 5684 f83d 5a61 c23d d7c0 90bd
00000060: fecb 1c3d 775f d53d a771 fa3d 3b95 343c
00000070: 8898 59be 493b 27bd 0911 4a3e fc04 053e
00000080: 7557 133e 87ce 523d 5f85 6e3c 1a83 833d
00000090: ad9a 4f3d a23a b9bd b71e 943d 4d06 0b3d
000000a0: 4d5b b13d 2095 bf3d c7f7 f2bd 2721 f3bd
000000b0: d8a3 8fbd fe3b 8fbd dbe5 a53d 1833 18bd
000000c0: dd5f d13c edc2 cabd c513 8ebd 550e b5bd
000000d0: 2665 0c3d 7766 8b3d 6465 413c b8ac 23ba
000000e0: 7018 d1bd 7055 92bd 6d17 363d 6251 a5bd
000000f0: a8a4 1ebe 07de de3c 33e7 e3bd 196e 523e
00000100: b517 073e 782b 5a3d e483 b53d 369f 13bc
00000110: e316 9a3d f784 3cbc 96ee 30be 6b0f 25bd
00000120: d58c 673d 4b78 143d abb7 f33d 6d17 87bd
00000130: 637a 1ebd 949b 2f3d e148 153e eade 51bc
00000140: e3ed 293e 9ef9 9fbd 52fa b6bd 2024 3b3d
00000150: d9f4 f13c 626b f1bc fb8e 083d ebba f3bd
00000160: 4997 523c 99be 183e c6ff 4fbc 34f9 d3bd
00000170: f36b 1bbd 4fef 413c 78db 823d d664 743c
00000180: ae66 cc3c 7f56 913d 48fa 253e ba61 a03c
00000190: 6d62 603c 9377 9c3d 1b79 423d 74fd 643d
000001a0: 7ab4 b9bd 3c32 c1b9 fbd5 c4bc 5384 ae3c
000001b0: ed01 e8bc 2723 c2bd dbc8 e93d 4c9c 99bd
000001c0: b7f7 d33d 8b8c 9b3d 0033 5ebd 2e2a 7fbd
000001d0: 1f78 bfbd 9c0b cb3d 78a3 25bd 0b5f e7bd
000001e0: d236 a4bd 5394 283d 16e3 ecbd 6f5d 98bd
000001f0: ff19 51bb cdc2 da3d d682 123b 4d5d 0d3e
00000200: 55c2 cfbc a46d 143e 759a 96bd bd67 223c
00000210: 39a3 be3c 0581 a5bd 20eb be3d 7558 b43d
00000220: dde8 b23d 2858 053e 102f 163d ab54 c2bd
00000230: 2b9c a23d 8d43 53bd 1ab8 043d 89ae a3bd
00000240: fa7c febc d718 f9bc 3dba 5dbd 77fe d1bd
00000250: 0909 fd3c aa00 acbd c9d6 39be f15c 89bd
00000260: 29ba 113e b2f8 8d3d 32ef 97bb f699 ab3d
00000270: 48ad 003d ea31 26bd 129d 123c 3bb1 163d
00000280: 81b4 bfbc a093 0dbd aaf8 1abd 4bbb 9c3d
00000290: 4bbc acbd a4fe c43b 8f10 efbd da3d 063d
000002a0: 3117 793d e79d c0bd c78d c5bd d02a 02b9
000002b0: 931a 32bc 2d22 9d3d 2de4 29bd 832f 1dbd
000002c0: 5c5c f4bd 43aa 88bb 35b5 383e c7e6 95bd
000002d0: 0f77 e3bb d5ca e73b 552d bc3d 306a 3abd
000002e0: 51b5 423d c47a c73d de81 62bd 7626 5c3d
000002f0: c899 a7bd 494b 15bc 90e3 593d dd0d 75bd
00000300: f3ca 4ebd a26d 4f3d 80f2 80bc f020 a4bc
00000310: 8e8d 9fbd 95b0 c03d d7b9 f43a dc0d f2bc
00000320: 3364 673d b026 c83d 3984 c6bd 2333 0e3e
00000330: 0b75 c43c 853f 803d e74f 823c 8581 cdbd
00000340: 84e3 e43b 165c d63d 23bd c4bd 0e0e b1bd
00000350: 82cc 9ebc 6d5f 563d 58bc e1bd 8fe0 33bd
00000360: 5f03 1bbc 6b24 8cbd 88ff a1bd 22a4 71bd
00000370: 2ebc 9abc 38c7 ef3c 770c 79be 8056 5a3d
00000380: 7b3c 423b ce68 c73d 4f52 53bd b740 0f3d
00000390: 1b06 7d3d 2aab 643d 814c dcbd b984 93bc
000003a0: d8b3 6bbc ed26 8f3d 8384 abbd d549 223d
000003b0: 467b 84bd 357f 573d b119 16bd 5ac6 fbbd
000003c0: 33eb b83c df3a a9bd 8a95 4b3d 6c4f fc3d
000003d0: 42ac 2abd e59b 8abd 215e d53d e52d 003c
000003e0: a273 7a3d 7779 953d 96e4 14be cbf0 92bd
000003f0: f5c3 333d b658 023c cda1 43bd 056f fcbd
-0.03836368 -0.12617908 -0.065051146 0.03038884 -0.061790586 -0.11565434 0.062872104 -0.15696639
-0.00937599 -0.053755015 -0.037291903 0.0392631 -0.1133126 -0.021274703 0.0791507 -0.028450038
-0.041574806 -0.026561387 -0.055104665 0.14851429 -0.0968118 0.12134616 0.094912246 -0.07068031
0.03828048 0.10418599 0.12228709 0.011021907 -0.21249592 -0.040828023 0.19733061 0.12990183
0.14388831 0.05146649 0.014558165 0.0642149 0.05068462 -0.090443864 0.07232421 0.033941556
0.08659992 0.09354615 -0.11863666 -0.11871558 -0.070136726 -0.069938645 0.08100482 -0.0371581
0.025558406 -0.099004604 -0.069373645 -0.08840624 0.03427615 0.06806653 0.011803959 -0.00062436936
-0.10209739 -0.07145202 0.044455934 -0.08072163 -0.15492499 0.02720548 -0.11128082 0.20549811
0.13192637 0.05326411 0.08863047 -0.009010127 0.075238965 -0.011506311 -0.17278513 -0.040297907
0.056530792 0.036247533 0.11900266 -0.06596265 -0.038690936 0.04287298 0.14578582 -0.0128094945
0.16594653 -0.078112826 -0.089344636 0.04568875 0.029535698 -0.02947015 0.03333948 -0.11900886
0.012853452 0.14916457 -0.0126952585 -0.10350266 -0.037944745 0.011836841 0.063895166 0.014916619
0.024951305 0.07096576 0.16208756 0.01957785 0.013695342 0.076399945 0.047478776 0.055905774
-0.09067626 -0.00036849256 -0.024027815 0.021303331 -0.02832123 -0.09479361 0.11415263 -0.075005144
0.10349982 0.07595166 -0.054247856 -0.062296085 -0.09349083 0.09914324 -0.0404391 -0.11297425
-0.08018269 0.041157078 -0.11566751 -0.07439696 -0.0031906364 0.106816866 0.0022355816 0.13805123
-0.02536122 0.1449495 -0.07353679 0.009912428 0.02327119 -0.08081249 0.0932219 0.08805934
0.087358214 0.1302191 0.036665976 -0.094888054 0.07939943 -0.051578093 0.032402135 -0.07992274
-0.031065453 -0.030407352 -0.05413269 -0.102536134 0.030888097 -0.08398564 -0.1814834 -0.0670718
0.1423117 0.069322005 -0.0046366686 0.08378975 0.031415254 -0.040574946 0.008948581 0.036790114
-0.0234015 -0.034564614 -0.0378348 0.07652911 -0.084343515 0.006011801 -0.1167308 0.03277383
0.060813133 -0.094051175 -0.096461825 -0.00012413715 -0.010870594 0.07672534 -0.04147737 -0.03837539
-0.11931679 -0.0041706874 0.18037875 -0.07319408 -0.006941683 0.00707374 0.09188334 -0.045511425
0.047536198 0.097402126 -0.055299632 0.053747617 -0.08183628 -0.009112188 0.053195536 -0.059827674
-0.050486516 0.050641663 -0.015740633 -0.020035237 -0.07790671 0.0940868 0.0018671107 -0.029547624
0.05649204 0.09773004 -0.09693188 0.13886695 0.023981592 0.062621154 0.015907241 -0.100344695
0.00698513 0.10466783 -0.096063875 -0.08645259 -0.019384626 0.0523371 -0.11022252 -0.043915328
-0.009461253 -0.06842884 -0.07910067 -0.05899442 -0.01888856 0.0292698 -0.24321161 0.05330515
0.00296381 0.09736787 -0.051592167 0.034973826 0.0617734 0.055827297 -0.107567795 -0.018007623
-0.01438614 0.069898464 -0.08374884 0.039621193 -0.06468825 0.05261155 -0.036645595 -0.12293692
0.02257309 -0.08263182 0.04970316 0.12319836 -0.041668184 -0.06768016 0.10418344 0.007823442
0.061145432 0.07298558 -0.14540324 -0.07174834 0.04388805 0.007955721 -0.047761727 -0.12325863

weight f4 [64, 64]
00000000: 13c3 6abd b320 64bb 3840 2ebd 2d19 95bd
00000010: 7f56 153d 890e 233d c00f 353c 39ee 05be
00000020: 50f8 97bd 0b29 fa3d 02e3 9c3d b563 0abe
00000030: c7ed b53d 2b95 abbd fda6 1e3d 8347 e43d
00000040: 8467 b8bd dcc4 d93d c549 8f3d 9691 b8bc
00000050: bc94 a7bc 741c 9e3c 40ef f4bc 390d 303d
00000060: 33b7 d53a 9f04 b13d e944 6d3d 53ae acbd
00000070: cb4b cd3d 6a28 32bd b612 2c3e d6fb 1bbc
00000080: cfa6 57bd 69f2 08bd b1c6 bc3d 98bf 593c
00000090: dbd4 ad3c 748f b63d 1b9e 60bd f6f2 cd3d
000000a0: 2b5a 13bc 9d34 a03d 5ccb 29be e7d6 993d
000000b0: abdf 32ba 3126 b03d 0ad8 253e d415 1cbc
000000c0: 9ab8 abbd b535 3f3c 9088 f33d 34f9 2ebd
000000d0: c2f7 d43a 0f2d 41be 1a27 db3d 8f61 9bbd
000000e0: 9214 2fbc 110f 8f3c 4ab4 643d e9a4 323b
000000f0: 5e56 163b be2c ab3d 1eba f03c 702b 1f3e
00000100: 5a0b 06be e3b2 44bd 7412 f0bd 4f25 e33d
00000110: 9477 07be 3407 063e 2709 833c bd26 b23d
00000120: ccee dbbb 0236 33be f102 973d 50ff 9c3c
00000130: 3a1a 1abc 3be1 f73d 6c0f 8bbd 6910 14be
00000140: 9015 90bd d13e 873d 0407 5fbd 7d86 0abd
00000150: b1b2 be3d fab7 02be f758 1f3e 7b64 a73b
00000160: 9f70 02be 46ff 97bb ebda 473c 7452 a63d
00000170: cf6e 08be 68a2 9e3d d8fb 5abd 29e2 56bc
00000180: e453 46bd 2369 df3c 8d70 923d a0e3 b03d
00000190: dab7 5b3e af13 d53c a32e 08be 390d 14bc
000001a0: da0e f8bd 1c55 79bd 457b b93d 267a 6d3b
000001b0: 3818 953d 36f2 a03d 8f2b a7bc a659 e1ba
000001c0: 501f e7bd 19ee 103c 4417 33be 0fe5 36bd
000001d0: a435 37bd 2223 993e 80bd 9abd f3d6 26bd
000001e0: 0798 d8bd 2a5d 9ebd 9c82 a13b cc01 9f3d
000001f0: 63b5 5fbe 92a5 66bd 8f62 223e a544 063e
00000200: 4e94 333d 8635 4b3e 770e f5bd e49a f0bd
00000210: fff6 dcbd 3028 0c3e 247d cc3b 17b5 43bb
00000220: 3b70 fabd 1007 563e c080 3ebd cd58 823d
00000230: 0c37 393e 5b00 933d 9eaf 91bd 9ee8 c3bd
00000240: dae8 11be e954 903d 9cb4 e53c 4fd4 e7bd
00000250: e958 a03c 3813 08be 8d8a 3cbe 3c83 a63d
00000260: 4da4 fb3d f4cf c5bd 5301 14be 8a7e f43d
00000270: 9875 233e 3c53 3a3e 1384 423e 1c3e 00be
00000280: fb8e dabc fba7 21be 2d96 edbd 6e2c cf3d
00000290: df43 1abe d863 32be 3c1f 01be 1e63 0fbe
000002a0: ff2e e33d deb5 e2bc 2778 213d 86b5 4e3e
000002b0: bb9a 00be ab58 373e 3207 5cbd 18d4 093e
000002c0: 2eb0 9dbd 6eb1 dcbd 3bf2 133e 2f91 413d
000002d0: 3052 413e 67d4 b7bd 3a06 04be 08db 1e3d
000002e0: 0216 763d 8693 43be e294 863c e5cc f13c
000002f0: 8660 ae3d 3520 97bb 7a73 5d3e 0dd5 c03c
00000300: 7e63 24be 2a1e 573c 6cd4 b73c 0250 6b3d
00000310: 0d11 a4bc e830 fa3d a339 79bd 2ea4 113e
00000320: e0f1 bc3c fa31 053e 2765 03be 0fae 6fbd
00000330: edc0 d2bc e0f5 b6bd c862 eabd 822e 0d3e
00000340: bdb2 bcbc 9b56 183e e889 56bd ebf3 123d
00000350: 33b1 563e a324 0fbe c639 b1be f5a1 453e
00000360: 7e02 d43d c527 803d 8c39 05be a749 9f3d
00000370: 411a 843e bc20 203e fbeb c93d 6509 b93d
00000380: 9ddb 19be c457 80bd ff5e c7bd aa85 813b
00000390: 1682 47be c32b e6bd 22af cf3c 325c c83c
000003a0: 302a b73e 5201 9c3d 61e0 9d3d d0cd 903d
000003b0: 8eb6 0bbe 1e66 babd 61f1 0abe 898f 5a3d
000003c0: 01d6 dbbd 18c0 fdbd aaa5 6b3e 5f2e 7d3c
000003d0: 6305 ff3d a81c b3be a9fc 3e3d 3d43 333d
000003e0: 6b3f c53e b072 50bd 128c 0d3e 8909 6ebc
000003f0: b55c 4b3d 572e 83be 881f 373e 9dbe 70be
-0.057314944 -0.003480953 -0.042541713 -0.072801925 0.036459442 0.039808784 0.011051118 -0.13079156
-0.07420409 0.122148596 0.07660486 -0.13514598 0.08883243 -0.08378061 0.03873347 0.11146452
-0.09004119 0.10633251 0.06996492 -0.022530358 -0.020456664 0.019300677 -0.02989924 0.04298136
0.0016305208 0.086434595 0.057927046 -0.08431687 0.10024222 -0.043495573 0.16804013 -0.009520492
-0.052649315 -0.033434305 0.09217585 0.013290308 0.021219661 0.0891408 -0.05483828 0.10056107
-0.008993666 0.07822535 -0.16581482 0.075116925 -0.000682349 0.086010344 0.16195694 -0.009526689
-0.08384819 0.01167052 0.118912816 -0.042718127 0.0016248154 -0.18864845 0.107008174 -0.07586967
-0.010686057 0.017463239 0.055836 0.0027258939 0.0022939662 0.08358143 0.029385623 0.15543914
-0.13090268 -0.048022162 -0.1172227 0.110911004 -0.13229209 0.13088685 0.015995575 0.08698795
-0.0067118164 -0.17501071 0.07373608 0.019164711 -0.009405667 0.12103506 -0.06790051 -0.14459385
-0.07035363 0.06603778 -0.05445005 -0.033819664 0.093114264 -0.12765494 0.15561281 0.0051084138
-0.12738274 -0.0046385853 0.01219819 0.081211954 -0.1332352 0.0774582 -0.053462833 -0.013115444
-0.048419848 0.027271813 0.071503736 0.08637166 0.21456853 0.026010362 -0.1329904 -0.009036356
-0.12112208 -0.060872182 0.09056715 0.0036236136 0.0728001 0.07858698 -0.020406513 -0.0017192855
-0.11285269 0.008845829 -0.17489344 -0.04465204 -0.04472889 0.29909617 -0.075556755 -0.040732335
-0.10575872 -0.077326134 0.0049289 0.077640146 -0.21846537 -0.056310244 0.1585791 0.13112123
0.043842606 0.19844636 -0.119656496 -0.11748293 -0.10789298 0.13687205 0.006240504 -0.0029862577
-0.122284375 0.20901132 -0.046509504 0.06364594 0.18087405 0.07177802 -0.071135744 -0.095658526
-0.14248982 0.07047445 0.028040223 -0.113197915 0.019573646 -0.13288581 -0.18412228 0.081305
0.12287197 -0.096588045 -0.1445363 0.11938198 0.15962827 0.18195814 0.18995695 -0.12523693
-0.026679507 -0.15786736 -0.116009094 0.10115896 -0.15064953 -0.174209 -0.12609571 -0.14002654
0.11092948 -0.027674612 0.039421227 0.20186433 -0.12559025 0.17904918 -0.0537178 0.13459814
-0.07699619 -0.107760295 0.14447872 0.0472576 0.18879008 -0.089760594 -0.12893 0.038783103
0.060079582 -0.19099244 0.016428415 0.029516647 0.08514504 -0.0046119937 0.21626082 0.02353909
-0.16053578 0.01312975 0.022440158 0.05744935 -0.020027662 0.122163594 -0.060845982 0.14222786
0.023064554 0.13007346 -0.12831555 -0.058515605 -0.02572676 -0.08933616 -0.11444622 0.13787273
-0.023034448 0.14876787 -0.05237761 0.03587715 0.20966034 -0.1397882 -0.3461439 0.19300063
0.10352038 0.062575854 -0.13010234 0.0777772 0.2580128 0.15637487 0.09859463 0.09034995
-0.15025182 -0.0626674 -0.09734916 0.0039527016 -0.19483218 -0.11238816 0.025352065 0.024458025
0.35774374 0.07617439 0.077088125 0.070705056 -0.13643858 -0.091015086 -0.13568641 0.053359542
-0.107341774 -0.123901546 0.23012415 0.01545295 0.12452199 -0.349828 0.046627674 0.043765295
0.38524947 -0.050890625 0.13822964 -0.014528641 0.04964896 -0.25621292 0.17883122 -0.23510213

bias f4 [64]
00000000: c12d 823d 33b0 3d3d 0911 193e 9f43 193e
00000010: 4777 c9bc 1503 4cbc 0810 6b3e 6245 ae3d
00000020: 7c8f 59bd bb0c 813c 53f0 2b3d 7a16 cbbc
00000030: 5a4b 1a3e 6d18 89bd 1a35 1f3e 0c41 b3bd
00000040: 7fb6 f53b b925 cabb f257 0d3d a409 db3d
00000050: fe80 2f3e 4f39 f3bb 1d97 ce3d b449 e03c
00000060: 033b 0fbe 8f0b 253e feea ea3d b94c 3f3d
00000070: d0be f2bc 28ad af3d 9443 dd3d b068 ae3d
00000080: 4121 293d b0aa ffbb 1d15 083e c8f7 183e
00000090: 7bc3 4fbd bc75 66be 57ec 283d 0921 1a3d
000000a0: 98c9 c3be 2815 87bd 427a bdbd 40b1 673d
000000b0: 513a 74bd 20cc c13c 88ca e5bd 9c22 5f3e
000000c0: c920 393c 6dd0 10be 40d6 4cbd ec3e 6b3d
000000d0: b43b a73c c0f6 57bd e770 453c ec06 33be
000000e0: 5c64 86bd 1c49 53be 8f7d b6bc aeaa 1bbe
000000f0: 134d 603d 8954 d53c 3280 173e f6ca 5c3d
0.06356383 0.046310615 0.14947905 0.14967202 -0.024593009 -0.012451907 0.22955334 0.085093275
-0.053115353 0.01575314 0.041977238 -0.024790991 0.15067807 -0.06694112 0.155476 -0.08752641
0.007498562 -0.0061690477 0.0345077 0.10695198 0.1713905 -0.007422603 0.10087416 0.027378894
-0.13987355 0.1611769 0.114706025 0.046704028 -0.029632002 0.08577949 0.10803905 0.08516061
0.04129148 -0.00780233 0.13289304 0.14938271 -0.050723534 -0.2250585 0.041241016 0.03762916
-0.3823974 -0.06595832 -0.092518345 0.056565523 -0.059625927 0.023656905 -0.112202704 0.21790546
0.0112993205 -0.14142008 -0.050009012 0.057433054 0.02041421 -0.052725554 0.012050844 -0.17483109
-0.06562111 -0.20633358 -0.022276668 -0.15201828 0.054761004 0.026041286 0.14794996 0.053904496

weight f4 [64, 64]
00000000: fa8c 96bd 442d dfbd 29fb 863d 098c 493d
00000010: 0f50 8ebd 8ca0 efbc 7624 f8bd 3a23 cfbd
00000020: 0129 183e c139 9f3d fff1 a7bd 904b 4bbc
00000030: 42ef bc3d 67a7 02be 095c a93d 8934 6cbc
00000040: ae68 f1bd 53fc 233d d403 50bd 81d4 a93b
00000050: cf05 a13d bd1a 3bbc 4a3a cebd 9fc2 5b3d
00000060: 7877 1abd 6def 6d3d b740 903d 06d9 083d
00000070: b5ee 1ebd 9977 d8bc fa4a 4b3d 31fe 5c3d
00000080: 2a80 243e 964a 96bd 7087 d23d 6d50 043d
00000090: 3ab5 763d 54ed b8bd 73fd 9e3d ba33 0ebd
000000a0: 03e6 60bd 4d30 03be ff20 933d 088c c33d
000000b0: 64db c33b 9c79 d7bc d10f 4cbe 261b ef3d
000000c0: c934 e83d 1f1c b5bd 162b 0a3e 979d 4b3c
000000d0: 4b66 cb3c 542c 6a3d bc5b 13be d497 2abc
000000e0: c88b 993a fa8e 23bd 8896 8c3c c984 09be
000000f0: 4d56 c03d fab2 903d 8b21 ea3d f38f 01bd
00000100: fd9b 52bc 06ce 22ba e308 4b3e a970 3fbd
00000110: 3bd2 453d d583 c13d 77d3 a2bd 5480 d03d
00000120: 4997 fb3a 48a5 ad3d a2b0 06bd 17c4 263e
00000130: 872b c2bb 104d a3bd 8902 903d 1813 2a3d
00000140: 671b 0ebd 8a9a 65bd 6681 5e3d 3cb3 d53d
00000150: d1c0 73bd 843b 263d cf46 eb3c f2f7 843c
00000160: cebe 413d c228 073e 5485 3a3e c30a 32bd
00000170: c742 72bd e2db d9bc 7fa2 9dba 81ce 8d3d
00000180: f5f7 22bc cc3b ec3c 030e 253e 76a1 c73c
00000190: ca9e f0bc d249 55be 41e9 f9bd 6748 e7bd
000001a0: ee35 cbbd a200 23bd b173 853d 8486 ee3d
000001b0: ace8 a93d b2f5 74bd 6754 1dbe 23b0 aabd
000001c0: 026d a33c 7709 ab3b 598c 9e3d 7c83 a43c
000001d0: 73b7 93b9 35fd d0bc c879 843d 2ad6 2ebd
000001e0: c24b 7a3d a76f 24be 53d8 e0bd c0c7 9a3c
000001f0: c0bc cbbd 9909 183e 65dd 863d fc9c 803d
00000200: 33db db3d ee0c 90bd c8a1 e53d 0dd3 dc3c
00000210: af77 4cbd 4371 d53d 8450 8d3d c3b1 e3bd
00000220: 0c97 aa3d 6c0f 89bc 92ed 9f39 4bb5 1f3e
00000230: 2178 c63d 57a3 89bd d631 0d3e c109 b33c
00000240: 5172 95bc 7521 f5bc f2a5 f8bb b635 e23d
00000250: 60e4 513d da1c b83d 6024 e4bd a5e5 053e
00000260: 5e98 263e 848d 0a3e 75fa d63d aa39 8f3d
00000270: 1b46 c63d 36d0 983d 447a b53d a7d2 013c
00000280: 806b 81bc c697 273d 7fd9 b83d a980 5dbc
00000290: 2447 b3bd 2c13 cf3d e6be fc3d 6f58 1b3e
000002a0: a6c4 953d 1326 93bd 684b d73d 4625 2b3d
000002b0: 329f 4ebd e5c7 093e 53b7 ccbc 58d5 2abd
000002c0: bccf a33c 12f1 d9bc 920d 853d 3fbe a1bd
000002d0: 4596 d13d e818 0c3e 8122 f2bc b06b 0f3e
000002e0: 02c5 08bd 4a76 0c3e a9db b0bd d64f 143e
000002f0: 6ea5 5ebc 1fb7 d1bd 632b e93d 79c8 743d
00000300: 6a80 823d c3ce 99bd 0f91 913b a257 0abc
00000310: 9994 06bd 73ee 523d d5f5 043e 29b1 643d
00000320: 7335 75bd 73a4 a53c 4b56 5b3c 0c71 fb3d
00000330: 3825 e43c 85c6 273c 534c 833d 4fe6 f5bd
00000340: 6501 b5bc 39d6 303d ece6 44bc fdfd 193d
00000350: 679e 2dbd 9c78 ea3c 54da 3ebd 9847 a13d
00000360: 5f33 db3c d963 11bd 11bd 1b3c 880a c73d
00000370: 11de f23c 1727 d2bd ea0a 003d ff50 473c
00000380: c7e4 a53b 908d f4bd 531d 213c 5a02 68bd
00000390: 70cd 473d 309b 91bd 7bf1 00be fb74 d03b
000003a0: 5d3e f43c ee03 47bd 349f d6bc 34c3 a2bd
000003b0: 7c74 cdbd 179c 13be e533 e43c 58e3 663d
000003c0: cbf9 183c 3797 623d a902 9f3b 7497 4ebd
000003d0: 5551 01be 13d5 a63d 387f 09be 16bc 3f3d
000003e0: cb38 f63c 8b67 1b3d d8f2 1e3c 25be 0e3b
000003f0: 3d05 2abd 980f 0e3d d47a 0d3e 531d 36bd
-0.07351108 -0.108973056 0.06590874 0.049205814 -0.06948864 -0.02925136 -0.12116329 -0.10114141
0.14859392 0.077746876 -0.08200454 -0.012408152 0.09225322 -0.12759171 0.082695074 -0.014416822
-0.11787544 0.040035557 -0.0507849 0.005182803 0.07862436 -0.011419949 -0.100697115 0.053652402
-0.03771159 0.058089662 0.070435934 0.033410095 -0.038801868 -0.026424216 0.04963205 0.053953353
0.16064516 -0.07338445 0.10279739 0.032303263 0.060231425 -0.09029642 0.07763185 -0.0347173
-0.054906856 -0.12811394 0.07184028 0.09548193 0.005977081 -0.026303105 -0.19927908 0.116751
0.11338193 -0.08843254 0.13492998 0.012427709 0.02482905 0.05717118 -0.14390463 -0.010412175
0.0011714632 -0.039931275 0.017161623 -0.1342956 0.093914606 0.07065387 0.11432179 -0.03163142
-0.012854573 -0.00062105095 0.19827609 -0.0467383 0.048296195 0.09448973 -0.0795049 0.10180727
0.0019194867 0.084787905 -0.032883294 0.1628574 -0.005925599 -0.07973683 0.070317335 0.041522115
-0.0346941 -0.056055583 0.054322623 0.10434577 -0.059510056 0.040584102 0.028720288 0.01623151
0.047301106 0.13199142 0.18214923 -0.043467294 -0.059145715 -0.026594106 -0.0012026577 0.06924153
-0.009946813 0.028837107 0.16118626 0.024368983 -0.029372592 -0.20828941 -0.12202693 -0.112931065
-0.09922396 -0.039795525 0.06516207 0.116467506 0.08296332 -0.059804626 -0.15364228 -0.08334377
0.01994944 0.005219634 0.07741613 0.020082228 -0.00028174705 -0.025511364 0.064685404 -0.04268471
0.061107405 -0.16058217 -0.109787606 0.018894076 -0.099481106 0.14847411 0.065851964 0.062799424
0.10735168 -0.07033716 0.11212498 0.026956106 -0.049918827 0.104219936 0.06900123 -0.1111789
0.08329591 -0.016730987 0.00030503847 0.15596502 0.096908815 -0.06720608 0.13788542 0.021855237
-0.018242987 -0.02992318 -0.0075881416 0.11045401 0.051243186 0.08989878 -0.111397505 0.13075884
0.16269061 0.13530546 0.1049699 0.069934204 0.0968134 0.07461588 0.08861211 0.007923759
-0.01579833 0.040916227 0.09025859 -0.0135194445 -0.08753803 0.101110786 0.123410985 0.15170453
0.07312898 -0.071849965 0.105124295 0.041783594 -0.05044479 0.1345516 -0.02498976 -0.041707367
0.019996516 -0.02660421 0.06496729 -0.07897615 0.1023374 0.13681376 -0.029557468 0.14005923
-0.033391006 0.13716999 -0.08635647 0.1448358 -0.013589246 -0.10240006 0.113852285 0.059761498
0.06372149 -0.0751014 0.004442341 -0.008443745 -0.032856558 0.051496934 0.12984402 0.055833016
-0.059865426 0.020220017 0.013387273 0.12277421 0.027849779 0.010240202 0.06411042 -0.120068185
-0.022095392 0.04317305 -0.012017947 0.037595738 -0.042387392 0.028621964 -0.046594933 0.078749835
0.026757894 -0.035495613 0.009505526 0.097188056 0.029646905 -0.10261362 0.03126041 0.012165307
0.005062673 -0.119410634 0.009833652 -0.056642868 0.048779905 -0.07109678 -0.12592117 0.0063616014
0.029814893 -0.048587732 -0.02619896 -0.07947388 -0.10031983 -0.14415012 0.027856776 0.056369156
0.009336899 0.05531999 0.004852612 -0.050437406 -0.12628682 0.081461094 -0.13427436 0.046810232
0.030056378 0.037940543 0.009701453 0.0021780815 -0.041508902 0.03468284 0.13816386 -0.04446156

bias f4 [64]
00000000: aaf1 96bd 0208 063e faab 17bd b7d3 a5bd
00000010: e5d0 e73c c0c6 a63d 57ac 07be 5928 463d
00000020: 0b2d e53d 5f6b 543c 4618 8e3d 7979 acbd
00000030: 0f4d e53d f70f a23d 7fb5 093e efce 203e
00000040: 6e06 adbb 6442 cbbd 63a4 bcbc 39d1 01be
00000050: 4192 05bc 65f9 473d 1b8b b4bd b06d 76bd
00000060: 8d2d 23bd bfcd 70bd ef12 cc3d 8145 cebc
00000070: 3032 fe3c 741b 073d 6312 a5bd d292 1fbd
00000080: 5e5c 063e c29e 803d d5d1 543c c851 ac3d
00000090: 5593 103e 1822 9e3c dbd4 c9bc af60 263d
000000a0: 91cb 65bd 964d 0a3d 9456 a5bc 06cf a63d
000000b0: 2582 33bd a4cb c53d 81ae adbd 3b0e 6e3d
000000c0: 8925 ec3c 4a8a 153e c8a1 bebd a437 cf3d
000000d0: a363 0fbd 7a93 b1bb 3c1c 5ebd 3b30 c7bd
000000e0: b90f 3abd d486 123e 248d a13d c0f0 eabc
000000f0: 8a0a 26be 93cd d8bd ff30 c2bd 9619 c83b
-0.073703125 0.13088992 -0.037029244 -0.08097022 0.02829785 0.08143377 -0.13249336 0.048378322
0.11190232 0.012965052 0.069382235 -0.084216066 0.111963384 0.07913201 0.13448142 0.15703939
-0.0052803075 -0.099247724 -0.023027604 -0.12677468 -0.008152545 0.048821826 -0.08815595 -0.0601632
-0.039838362 -0.058789965 0.09964549 -0.025179626 0.03102979 0.032985166 -0.080601476 -0.038958378
0.13121173 0.06280281 0.012989481 0.08414036 0.14118703 0.019303367 -0.02463763 0.04061955
-0.05610234 0.033765398 -0.020182885 0.08144955 -0.043825287 0.09657982 -0.084805496 0.05811904
0.028826492 0.14603534 -0.09308201 0.101180345 -0.03500713 -0.005419192 -0.054226145 -0.09725996
-0.04542515 0.14309245 0.078882486 -0.028679252 -0.16214958 -0.10586085 -0.094820015 0.0061065657

weight f4 [64, 64]
00000000: 3465 76bd 4c17 a33d eb52 763d 1611 0d3d
00000010: fb83 b3bd a99b a83d c504 c3bd c647 953b
00000020: 0a69 c63d 469b f13d 1b46 283d 404b d03d
00000030: 5250 07be 2127 22be f53f c13d bbf8 dc3a
00000040: 670a 44be f38c 9a3c 76e4 02be 838c 443d
00000050: 96c6 6cbd cd2c 88bd 3ee3 1e3c 431e b73c
00000060: dc74 d3bd 8e51 713d 67de 8e3d cc04 b9bd
00000070: 3506 25bc b4b8 28bd 558f 96bd 6445 9ebd
00000080: c9c2 b7bd d08a a93c bb41 3a3d 7ccf 24bc
00000090: 5543 36be e82e 0fbe d423 86bd 95a5 85bd
000000a0: 9b54 39bd 2a89 08be 94b6 0cbe f56c cabc
000000b0: 6ed8 893d b985 92bd 5e99 943c 9606 7cbd
000000c0: 13b7 25bd 36f6 97bb 1755 993b e386 a23d
000000d0: c532 933c 7a30 abbd 5326 863c 1c73 49be
000000e0: cda3 833b fad8 2cbd 76b7 a4bd dec1 22bd
000000f0: 2d85 b9bd 3346 2c3d 72b8 9fbd af78 bf3d
00000100: 998c d53d d397 8e3d db69 ae3d 221d ce3d
00000110: 21cb 9a3c d056 d03c 5076 80be 97aa c03b
00000120: 8c5c 473d e5ee b4bd 57f5 f3bd 69dc 543d
00000130: fe26 bebc 39b1 0c3d b2d2 65bc 3085 8a3c
00000140: c5f6 df3c 90fc 053d bc78 19be 7eec 30bd
00000150: e21f 833d f743 d2bd 800e 00be c2d6 383d
00000160: e863 813d 0ff3 16ba a8d4 1e3d 36bb d73d
00000170: 725f 753d fff1 d4bd 9341 643d 48c2 debd
00000180: f30c cd3d fc8a 7abc 9a81 0a3d ac6c f3bd
00000190: f895 d4bd c2b3 d9bd c41a 2fbd 01fc 71bc
000001a0: d339 d03d 4b3a 8abc 1c1a 0bbd 6b63 933c
000001b0: 1193 43bc a0c4 d13c 6283 72bd e7a2 4bbe
000001c0: 9b10 323d d845 b6bd 5778 a1bd f34c 1bbe
000001d0: c0c4 3a3c 3336 ccbd 927b d6bd 8fc4 e23c
000001e0: 94a3 84bc 030f 25bc 1523 13be 6f1d 243d
000001f0: a4eb 9ebc 63c6 96bd ca7b 76be 976f dcbd
00000200: eed4 453e 44ce b53d 26ab e23d 66c1 93bc
00000210: e0f4 e33d 90d1 0a3d 1685 173e 0ff8 be3d
00000220: dac5 ca3d 7356 183d 28f9 063e 4a23 a7bd
00000230: 4b46 d23c ebc2 013d d34e a4bd 3572 3a3e
00000240: d3bd 94bc 8c5e b73c 85c8 62bd 0340 833c
00000250: 9207 283d 610f 303e 5d23 db3c 715d 843d
00000260: 369b 423e 19a0 883d 0c78 023e 73e8 a43d
00000270: 3be8 12bd 0d3b e43d 6ad5 0f3e 2c60 e43c
00000280: ae1d 0e3e d46f 8e3c c66c 3c3d cdeb 46bd
00000290: ddba 363d 9189 c93d b0e1 743d a478 d93d
000002a0: 89f1 b23d dd1e 203e 3933 2fbd 7468 ecbb
000002b0: 0176 093e 0143 043e 252f e43d 4820 85bd
000002c0: 74c3 b9bd 3b15 edbb ef2e 23bd 54b4 e93c
000002d0: cb85 0d3e ed9e 1f3e a848 153e 3f61 553e
000002e0: 5e8a 1e3e 9a03 663e 89cc 093d 484b 16bd
000002f0: 1c6e df3d 6af9 103e a6e2 773d 717d c6bc
00000300: 92ca cabd 5913 2c3d b376 68bd 01e0 183d
00000310: 0699 21be c910 b33d ca10 a5be 5091 ff3d
00000320: 43e7 a03d 244e 413d e4b0 dabd 76d5 61bd
00000330: 1bde c9bd c8f6 f2bd 5224 ee3d f2ea 1dbe
00000340: 3732 4cbe de1d 973c 1a4a 9f3d fb92 abbb
00000350: 5b7c 903d 4c03 95bd 2244 e5bd a23f e0bb
00000360: 5963 cabd 3237 063e 91f4 ffbc fe99 63bd
00000370: 34f5 d43c d8bf 8fbc 321f 13bd ea82 d43d
00000380: d287 cbbd c35f 36be 58c7 a03b ff3c 03be
00000390: f5f2 16be b390 24be d906 dabd b65c edbc
000003a0: e87b c5bc 590c 933d 7186 92bd a995 debc
000003b0: 5fcc e1bd 7317 f6bd dcbe c2bd 2efd 90be
000003c0: 9fa4 7fbd b5a3 533d 4fa8 e63d 14ce 08bc
000003d0: 4267 143a 23ba f5bd 6d78 81bd 70a8 15be
000003e0: 5b9e 98bd 8445 28be 86d7 3bbe 0a1c e9bd
000003f0: 3a7e 32bd 55cf 11bd 1745 96be c78f 773d
-0.06015511 0.07963428 0.06013767 0.034440123 -0.08765408 0.08232815 -0.09522394 0.004555675
0.09688003 0.11797194 0.041082483 0.10170603 -0.13214234 -0.15835239 0.09436027 0.0016858795
-0.19144593 0.018866038 -0.12782463 0.047985565 -0.057806574 -0.0664917 0.009697733 0.022353297
-0.103250235 0.058915667 0.06976014 -0.09034118 -0.010072281 -0.04119177 -0.07351557 -0.07728079
-0.08972699 0.020696074 0.04547284 -0.010059234 -0.17799123 -0.13982737 -0.065498024 -0.06525723
-0.0452467 -0.13333574 -0.13741523 -0.024710158 0.06730734 -0.07154412 0.018139537 -0.06152972
-0.040457796 -0.004637505 0.004679333 0.07935884 0.017968545 -0.083588555 0.016375696 -0.19672817
0.0040173293 -0.042199112 -0.08042805 -0.039735667 -0.090586044 0.042059135 -0.07798852 0.093491904
0.104272075 0.06962552 0.08516284 0.100641504 0.018895688 0.02543202 -0.25090265 0.005879711
0.048672244 -0.08834628 -0.11912029 0.051968012 -0.023211952 0.0343487 -0.014027284 0.016909212
0.027339349 0.032711565 -0.14987463 -0.043194287 0.064025655 -0.102668695 -0.12505531 0.045126684
0.06317884 -0.00057582645 0.038777024 0.105337545 0.059905477 -0.103977196 0.0557266 -0.108769
0.100122355 -0.0152919255 0.033815004 -0.11885962 -0.10380167 -0.10629989 -0.042750135 -0.014769555
0.10167279 -0.0168735 -0.033960447 0.017991742 -0.011936919 0.025606453 -0.059207328 -0.19886361
0.043472867 -0.089000404 -0.07884281 -0.15166073 0.011399448 -0.09971275 -0.10472788 0.027681617
-0.016191281 -0.01007438 -0.14368851 0.040067133 -0.019399472 -0.07362058 -0.2407066 -0.107634716
0.19319507 0.08877233 0.110678 -0.018036555 0.111306906 0.03389126 0.14796862 0.09324657
0.099010184 0.03719182 0.13180983 -0.08161028 0.025668284 0.03168003 -0.08022847 0.18207629
-0.018156921 0.02238395 -0.05536701 0.016021734 0.041022845 0.17193367 0.026750261 0.06463135
0.19004521 0.06671161 0.12741107 0.08052149 -0.035866003 0.111440755 0.14046255 0.02787789
0.1387851 0.017387308 0.046002172 -0.04856472 0.0446118 0.09840692 0.059785545 0.106187135
0.087374754 0.15636773 -0.04277346 -0.0072146 0.13423921 0.12916185 0.111418046 -0.06500298
-0.09070483 -0.007235197 -0.03983968 0.02852837 0.13820569 0.15587969 0.14578497 0.20837878
0.1548247 0.22462311 0.033642326 -0.036692888 0.109096736 0.14157644 0.060518883 -0.024229737
-0.099019185 0.04201064 -0.056753825 0.037323 -0.1578103 0.08743436 -0.32239372 0.12478888
0.0785661 0.04719366 -0.106782705 -0.055135213 -0.098568164 -0.11863476 0.11628021 -0.15421656
-0.1994103 0.018446859 0.077778056 -0.0052360273 0.07054969 -0.072760195 -0.11194636 -0.006843523
-0.0988223 0.13106993 -0.031244548 -0.05556678 0.025995828 -0.017547533 -0.035918422 0.103765324
-0.09938015 -0.17809968 0.004906576 -0.12816237 -0.14741118 -0.16070823 -0.10645837 -0.028974872
-0.024106935 0.071800895 -0.07154549 -0.027170973 -0.11025309 -0.12016191 -0.0950906 -0.2831816
-0.062412854 0.051669795 0.11262571 -0.008349914 0.00056611386 -0.119983934 -0.063217975 -0.14615035
-0.07452079 -0.16432768 -0.18343934 -0.11382301 -0.04357741 -0.035598118 -0.29349586 0.06043985

weight f4 [64, 64]
00000000: a7a6 113d 8854 3abd 7a9b 9d3b e176 293e
00000010: e510 913c ad00 113e 0704 f4bd 3fd7 2c3e
00000020: c16c 3e3e 8d84 8cbd af07 72bc d976 423d
00000030: 4e9c ebbd 9d1c d6bc 4a2e 2cbd 1e07 593d
00000040: 76f9 293e 597f 04be 5982 9fbc 5831 093e
00000050: d34c 273b 5321 033d 6f67 81bd 5e70 d43d
00000060: c104 4a3d b382 a9bd c018 833b 742d 78bd
00000070: c5cc 4a3d 9a7f de3c db71 59bb dfd6 c03d
00000080: 9f1f 853d f549 b13d b61a ab3d 7079 95bd
00000090: 1298 9a3d 3de7 e6bd 4b35 c73d 8bb4 f0bd
000000a0: 0ad7 0ebe 321e 703d 6426 733d a5b2 e03c
000000b0: fb27 9fbd 0da0 fcbd aa45 3ebe 288e d3bd
000000c0: aa21 f0bc ab90 1dbe 21a3 0d3d 6279 d8bd
000000d0: 7890 803c 7623 f83d 3fe3 5f3d cb18 01be
000000e0: 99fa 083e 2e90 9dbd 5b20 6f3d 93f0 58bc
000000f0: 40ab b53d ce84 68bd b120 4cbd 7ac9 3d3e
00000100: 0929 9fbd dbdd 68bc 2fd7 e9bc 453b d4bb
00000110: 2644 86bd feea dc3d 76bf 07be 3718 093d
00000120: 715d fe3d 62de 6e3d 24a2 1e3d 445b 953c
00000130: 8003 423d ba58 923d 8b7a 073e b1a3 ce3d
00000140: a06d 9abd 13c8 f43d 8f94 e4bc f8c1 283e
00000150: cc4c 8d3d 1a3c a03d 9f4d b53d b40f 2c3e
00000160: eb1b 9c3d 9833 45ba cd0b fd3d f6f1 d13d
00000170: fd21 cabd a7bc b8bd cc23 82bc effc 143e
00000180: 1a63 a43d 88d8 003e e09b 613c 4a6a a7bc
00000190: 0d1a abbd be31 553d fde0 2fbd be01 9dbd
000001a0: 8cf0 41bc cf59 7d3d 74e1 18bd 6073 403c
000001b0: 0e1c 71bd 693c ea3c d261 0abc cc8c 95bc
000001c0: 50dc ce3d dd04 a6bd 8546 243d 7bd7 04be
000001d0: 0c9c f83d 14ac 6ebd eb09 34bc 48ec 2b3d
000001e0: 7bd9 4b3e 275a 09be 3f57 9b3d d63a 81bd
000001f0: 3978 383d 3fbf 91bd 4278 fdbd 3fc6 663d
00000200: 4589 cfbc 6f5c c4bd f534 0c3d 13fa 8abd
00000210: 230e b5bc d7c7 043d 74a6 b83d ca75 a73d
00000220: 530b 8b3d 202b 373e 9076 43bd 4eaa 093e
00000230: 91e2 103e 33b5 48bc d6d8 893d 84fc 6a3d
00000240: aeb2 9c3d 53c7 a1bb 407b d5bd ba9c 333d
00000250: 2e3f ce3c 3386 e73d 0a40 043d 4177 2fbd
00000260: d261 073c e0f9 003e 511b fa3d 3a2c 9fbd
00000270: 9043 cebd ddd1 c53d b5fc c03d 2eac 9a3d
00000280: 8bf3 223e a6ff 62bd 0268 e63d f45e 2f3d
00000290: 430e d0bd 609e 0fbe 2bdc 91bb f838 c8bd
000002a0: 3f64 a1bd d4f7 a23d 7da3 af3c c14d 05bd
000002b0: fae6 87bd 34f0 213d a223 09bd c8da 27bd
000002c0: 2b64 dd3d be80 0a3e e3c5 d03d 2a02 9a3d
000002d0: aa42 46bd e7e5 883c c45c 88bd bc29 a6bd
000002e0: 66d9 17bd f8a7 e9bd 66be 04bd 4a9c 7c3d
000002f0: 8d5e f23b e729 95bd 0463 3d3d 342e ca3d
00000300: fe65 f8bb 2640 b1bc d5d0 88bc 9f0e 453d
00000310: f05b 3f3d 94b1 ba3d 47d0 c2bd 8c3e 073e
00000320: 2570 81bd defc 2b3e 90b4 4ebd 6cff 3b3d
00000330: d21d 86bd 77fc a4bb 5906 37bd 65ae e73d
00000340: 7bfa a73b 3dcd debd feb9 98bd 96c7 503d
00000350: ac6d 4abd 3c7c 5b3d 649c 0fbc 314f 723d
00000360: 8405 af3d 21fd bd3c 8723 a3bd 8227 813d
00000370: 0137 d93d 2b71 86bd 5f3a 8fbd e553 0b3e
00000380: 4782 123d 64bc 9ebd c95f c5bd 0412 93bd
00000390: 0b6d 8bbd 71d1 3abe 3ddc d8bd e985 c6bd
000003a0: 6be1 79bd 6667 aa3d 435d 633c edc3 9a3d
000003b0: 40c0 ea3d 8edd d8bd f31a 6abd 9a23 bdbd
000003c0: aeba 993d ea3a 5bbc 2b33 89bd 6c0d 85bd
000003d0: ca61 82bd 6e19 143e 6ba5 d3bd 12b3 03be
000003e0: 613b 9e3d 957d 18bd 50d4 91bd 6f0f 233c
000003f0: 5c80 9cbd f5c9 b3bd e810 16bd 147e 023e
0.035559323 -0.04549077 0.004809794 0.16549255 0.017708251 0.14160414 -0.11914831 0.16878985
0.18596174 -0.068612196 -0.01477234 0.047476623 -0.11504422 -0.02613669 -0.042036332 0.052985303
0.16599068 -0.12939204 -0.019471334 0.1339773 0.0025527969 0.032014202 -0.063185565 0.10372995
0.04932094 -0.08276882 0.004000753 -0.060590222 0.04951169 0.027160455 -0.0033179435 0.094159834
0.06500172 0.08656684 0.08354704 -0.07298553 0.07548536 -0.11274574 0.09726962 -0.11753186
-0.13949218 0.058622546 0.059362784 0.027428934 -0.077712975 -0.12335215 -0.18581262 -0.103298485
-0.029312927 -0.15387218 0.0345794 -0.10570027 0.015693888 0.12116139 0.05466008 -0.12607114
0.13376845 -0.07693516 0.058380466 -0.013240951 0.08870554 -0.056767277 -0.049835864 0.18533888
-0.07771499 -0.014213051 -0.02854499 -0.006476792 -0.06555967 0.10787009 -0.1325663 0.03347036
0.12420166 0.05831755 0.038728848 0.018231995 0.04736662 0.071458295 0.1323034 0.100898154
-0.075404406 0.11952224 -0.02790287 0.16480243 0.068994135 0.078239635 0.08852696 0.16802865
0.076225124 -0.00075226417 0.123557664 0.102512285 -0.09869764 -0.090203576 -0.01588621 0.14549612
0.080267146 0.125826 0.013770074 -0.020436425 -0.08354578 0.05204939 -0.042939175 -0.07666348
-0.011837136 0.061853226 -0.037324384 0.011746258 -0.058864646 0.028593259 -0.008446174 -0.018255614
0.10100615 -0.08106396 0.040106315 -0.12972824 0.121391386 -0.058269575 -0.010988693 0.041973382
0.19907181 -0.13413297 0.07585 -0.0631005 0.04503653 -0.071165554 -0.12376453 0.056341406
-0.02533401 -0.09587943 0.03423019 -0.06785979 -0.022101467 0.032417145 0.090161234 0.08176763
0.06789269 0.17887545 -0.047720492 0.13443872 0.14148928 -0.0122502325 0.06730811 0.057369724
0.07651268 -0.0049370914 -0.10423899 0.043850638 0.02517661 0.11304893 0.032287635 -0.04283834
0.008263068 0.1259532 0.122122414 -0.077721074 -0.1007148 0.09659169 0.094232 0.07552372
0.15913217 -0.055419587 0.11250307 0.042815164 -0.1015897 -0.14025259 -0.004451295 -0.09776491
-0.078804485 0.07957426 0.021440262 -0.032544855 -0.06635852 0.039535716 -0.033481248 -0.04098013
0.10810121 0.13525674 0.10193994 0.07519944 -0.04840342 0.016711188 -0.06658319 -0.08113429
-0.03707256 -0.114089906 -0.03240814 0.061672486 0.0073965252 -0.07283383 0.046237007 0.09872094
-0.007580518 -0.021637034 -0.016701141 0.048109647 0.046718538 0.091159016 -0.09512382 0.13207453
-0.06320218 0.1679568 -0.050465167 0.045897886 -0.065486565 -0.005034979 -0.044683788 0.1131256
0.005126295 -0.1087899 -0.0745735 0.05097159 -0.049420998 0.053585276 -0.008765314 0.059157554
0.08545974 0.02319199 -0.07965761 0.06306364 0.10606194 -0.06564554 -0.06993555 0.13606222
0.035768773 -0.077507764 -0.0963741 -0.071811706 -0.06807908 -0.18243958 -0.10588882 -0.0969351
-0.06100599 0.08320503 0.013877216 0.07556901 0.1146245 -0.10589133 -0.057154607 -0.09235306
0.075063094 -0.013380745 -0.06699213 -0.06496701 -0.06366308 0.14462826 -0.10334285 -0.12861279
0.077261694 -0.03722914 -0.071205735 0.00995241 -0.0764167 -0.087787546 -0.036637217 0.12743407
