param/gnns/mnist_net.pt (torch, 789604 bytes, 14 tensors)

weight f4 [25, 1, 32]
0	0x3ec7b82d	0.39007702
1	0x3fb8d009	1.4438487
2	0xbe7f70b9	-0.24945344
3	0xbf5cdebf	-0.86277384
4	0x400dcd41	2.2156527
5	0xbc041192	-0.00806083
6	0xbefa84dc	-0.4892949
7	0x3eeaef4d	0.45885697
8	0xbedd0d35	-0.4317414
9	0xbf16c9fa	-0.5890194
10	0x3ed3a6a2	0.41338068
11	0x3e1bd32d	0.15217276
12	0xbf95a229	-1.1690112
13	0xbf3bd457	-0.7337088
14	0xbf5eca58	-0.870275
15	0x3f0f057e	0.55867755
16	0xbf351962	-0.70741856
17	0xbe93782e	-0.28802627
18	0x3ec08753	0.37603244
19	0xbef0ea87	-0.4705393
20	0xbf3eba58	-0.7450309
21	0xbf20f89e	-0.6287936
22	0x3f1b9315	0.60771304
23	0xbe377d97	-0.17919002
24	0x3f0dff3f	0.554676
25	0x3da8a129	0.08233864
26	0x3fd25764	1.643292
27	0xbd9c3331	-0.076269515
28	0xbf5a7044	-0.85327554
29	0x3ff4c94d	1.9123932
30	0x3d98a75c	0.07453796
31	0x3f8a20fa	1.0791314
32	0xbe17f6e3	-0.14840274
33	0x3e203c4b	0.15648
34	0x3ee8f51c	0.45499504
35	0xbe3456c4	-0.17611223
36	0x3ed0dfd7	0.40795776
37	0x3eea1ca0	0.45724964
38	0xbf1a579f	-0.6028995
39	0x3e3c37c9	0.18380655
40	0xbeeb8423	-0.4599925
41	0x3ee1516e	0.44007438
42	0x3e35e24a	0.17762104
43	0xbdea78f9	-0.11448855
44	0xbeb5a49b	-0.35477147
45	0x3e986c0f	0.29769942
46	0xbebb425d	-0.3657407
47	0xbc40b91a	-0.011762882
48	0x3ed1aefe	0.4095382
49	0xbe3f8a84	-0.18705183
50	0xbed8701b	-0.4227303
51	0xbe57d39a	-0.21076813
52	0xbeaf107a	-0.34192258
53	0xbdf444c9	-0.11927182
54	0xbe8fc14a	-0.28077155
55	0x3d6ac09c	0.057312593
56	0x3f0fdecd	0.5619934
57	0x3f50963e	0.8147925
58	0x3e740649	0.23830523
59	0xbd973243	-0.073826335
60	0xbe89ba4d	-0.2689995
61	0xbe699169	-0.22809376
62	0x3dd25c7c	0.10271546
63	0x3f0bc2fe	0.5459441
64	0xbef70b3b	-0.48250756
65	0xbd0ea23e	-0.034822695
66	0x3f1caa55	0.61197406
67	0xbe86ac02	-0.26303107
68	0x3f55b244	0.83475137
69	0xbf2615e2	-0.6487714
70	0xbe051367	-0.12995683
71	0xbe277de6	-0.1635662
72	0xbebd9f5a	-0.37035638
73	0xbea54708	-0.32280755
74	0x3dcb64af	0.09931313
75	0x3dfecc96	0.124413654
76	0xbec95c2d	-0.39328137
77	0x3eaff7a4	0.34368622
78	0xbddf7ff5	-0.10913078
79	0x3e6283d1	0.22120596
80	0xbe9a5a18	-0.3014686
81	0x3db62430	0.08893621
82	0xbdae0da2	-0.08498694
83	0x3b70dfb1	0.0036754424
84	0xbdd72e65	-0.10506896
85	0x3e605d6b	0.21910636
86	0x3d49c2f8	0.049258202
87	0xbd384f20	-0.044997334
88	0x3d8a69b9	0.06758446
89	0xbeb12668	-0.34599614
90	0x3cad60fc	0.02116441
91	0x3ec27c34	0.37985384
92	0xbbc94181	-0.006141842
93	0xbd1c2daf	-0.038129505
94	0x3e71edd5	0.23625882
95	0x3eabbdf9	0.33543375
96	0xbe1ad930	-0.15121913
97	0x3b825157	0.0039769816
98	0x3f65c6d4	0.8975651
99	0xbdef6910	-0.11689961
100	0x3ee56dae	0.4481024
101	0xbebb03a4	-0.36526215
102	0x3b4d9c1a	0.0031373561
103	0xbef9dc52	-0.48800904
104	0xbf58a11e	-0.84620845
105	0x3b02394a	0.0019870573
106	0x3e8ba537	0.27274486
107	0x3e8ee8eb	0.27912077
108	0xbea77058	-0.327029
109	0x3f7e6244	0.9936869
110	0xbe663c21	-0.22483875
111	0xbe904236	-0.28175515
112	0xbea68f6c	-0.32531297
113	0xbe247bf4	-0.1606291
114	0x3f6f046b	0.93366116
115	0xbf0b4b1d	-0.5441149
116	0x3f8b1670	1.0866222
117	0x3e5b346c	0.21406716
118	0x3f014d8d	0.5050896
119	0xbd964da6	-0.07339029
120	0x3eb9ee4f	0.36314628
121	0x3d7d15f4	0.061788514
122	0xbea3478e	-0.3189053
123	0xbf228733	-0.6348755
124	0x3e5c6097	0.21521221
125	0x3f249f3f	0.6430549
126	0xbca7adb0	-0.020468563
127	0xbe1d5d1f	-0.15367554
128	0x3d1a65fa	0.03769491
129	0xbee5a3ab	-0.4485143
130	0x3f185c4b	0.5951583
131	0xbac88b1a	-0.0015300245
132	0xbea55f0c	-0.32299078
133	0x3e894c93	0.26816234
134	0xbf9a28dc	-1.2043719
135	0x3f091325	0.5354484
136	0xbfa78b03	-1.3089298
137	0x3fca61bb	1.5811075
138	0xbf02d5c5	-0.51107436
139	0xbe90d2ee	-0.28285927
140	0xbf872862	-1.0559199
141	0x400737f5	2.1127903
142	0xbf97f306	-1.187104
143	0xbf94d991	-1.1628896
144	0x3f35f711	0.7108012
145	0xbf68ef81	-0.90990454
146	0x3fd97c17	1.6990994
147	0xbdf2d299	-0.118565746
148	0x3fa385d7	1.277522
149	0xbf450cae	-0.7697247
150	0x3f661129	0.89869934
151	0x3dedc511	0.11609853
152	0x3f2e72bc	0.6814382
153	0xbecdc2a0	-0.4018755
154	0xbe36ef3a	-0.17864695
155	0x3ed2629f	0.41090867
156	0xbf60a52b	-0.87752026
157	0x3faafb2f	1.3357905
158	0xbdc88fa4	-0.09793022
159	0x3ddd831a	0.10816021
160	0xbe3c5523	-0.18391852
161	0xbef2a004	-0.47387707
162	0x3dfd9d20	0.12383485
163	0x3e851300	0.25991058
164	0x3bcdcd5d	0.0062805847
165	0x3edba369	0.4289811
166	0x3e5aae82	0.21355632
167	0x3f28783c	0.65808463
168	0xbea08b1b	-0.3135613
169	0x3ea93027	0.3304455
170	0xbe9c4a22	-0.3052531
171	0xbe67a3fd	-0.2262115
172	0x3cb50bfb	0.02210044
173	0x3d8ae61a	0.0678217
174	0x3cb7a139	0.022415744
175	0xbe0302a2	-0.12793973
176	0xbe7ecc4c	-0.2488262
177	0xbe402ee3	-0.18767886
178	0xbf0fdf51	-0.5620013
179	0x3d89d137	0.06729358
180	0x3e82825b	0.25490078
181	0x3bc8ec91	0.0061317165
182	0x3dad2b03	0.084554695
183	0x3d79c951	0.060983006
184	0xbda037ce	-0.07823144
185	0x3f5727b9	0.84044987
186	0x3e1bb819	0.15206946
187	0x3c79a2f7	0.015236608
188	0xbdaa33ea	-0.08310683
189	0x3f14ffc3	0.5820276
190	0x3db2033b	0.086920224
191	0xbd98203b	-0.074280225
192	0x3e46df01	0.19421007
193	0xbe73d2fc	-0.23810953
194	0x3f3a5a71	0.7279425
195	0xbe1b2ac0	-0.15153027
196	0xbe935e6f	-0.28782985
197	0x3dd85355	0.10562769
198	0xbe2e7b01	-0.1703911
199	0xbdce9603	-0.10087206
200	0xbed2ca0a	-0.4116977
201	0x3e374c57	0.17900215
202	0x3e52d9b1	0.20590855
203	0x3d6cafb2	0.057784744
204	0x3e9166c4	0.28398716
205	0x3ecabaca	0.39595634
206	0xbebb7323	-0.3661128
207	0xbf101b8c	-0.56292033
208	0x3d98be24	0.074581414
209	0x3d85905f	0.06521677
210	0x3eb0c36f	0.34524104
211	0x3d681f9e	0.056670777
212	0x3e8e63fc	0.27810657
213	0xbdc50e1e	-0.09621833
214	0x3de143fe	0.109992966
215	0xbe5a0116	-0.21289477
216	0x3e671bf2	0.22569254
217	0x3f1fdb94	0.62444425
218	0xbea277ec	-0.31732118
219	0x3ef4d194	0.47816145
220	0x3ecf9b87	0.40548345
221	0xbf279a81	-0.6547013
222	0xbe3d490d	-0.18484898
223	0xbdf1011a	-0.11767788
224	0xbecd3f83	-0.40087518
225	0xbf3e3ad1	-0.74308497
226	0xbeabfcf4	-0.33591425
227	0x3f5bc9a1	0.85854536
228	0xbf5e1a89	-0.8675924
229	0xbe2f6490	-0.17128205
230	0x3ebb8389	0.3662379
231	0xbe4529fe	-0.192543
232	0x3ef2f25c	0.4745053
233	0x3dcfbd63	0.101435445
234	0x3e6930b5	0.22772487
235	0x3f091307	0.5354466
236	0xbda98d7e	-0.082789406
237	0x3f7b5515	0.981767
238	0x3e8ea7eb	0.27862486
239	0x3e922653	0.28544864
240	0x3d67448c	0.056461856
241	0x3dd6bec6	0.10485606
242	0x3e28ddf7	0.16490923
243	0x3e40f189	0.18842138
244	0x3e3a4dc9	0.18193735
245	0x3e8971ee	0.26844734
246	0xbe79b165	-0.24384077
247	0xbd9af910	-0.07567036
248	0xbeeccabd	-0.46248427
249	0xbe7c3212	-0.24628475
250	0xbd0c1ca2	-0.034206994
251	0xbe4b2de7	-0.19841729
252	0xbd83912b	-0.06424173
253	0x3e16c7d9	0.14724673
254	0x3e31d5ba	0.17366686
255	0xbf09ef11	-0.5388041

root f4 [1, 32]
0	0x3da95416	0.08267991
1	0x3d7fc1fe	0.062440865
2	0x3d1213bc	0.03566335
3	0xbe3d8100	-0.18506241
4	0x3d863c05	0.065544166
5	0x3d6caa87	0.057779815
6	0xbe007cf6	-0.12547669
7	0x3d815439	0.06314892
8	0xbdc455e4	-0.09586695
9	0x3d74cf00	0.059767723
10	0xbf66a96e	-0.9010228
11	0xbeb9237e	-0.3615989
12	0xbdfd62f0	-0.123723865
13	0x38e7b0b1	0.0001104785
14	0xbe1718af	-0.1475551
15	0xbdc1c294	-0.09460941
16	0x3d899c74	0.06719294
17	0xbe08c204	-0.13355261
18	0x3d6abb62	0.05730761
19	0xbd8eac54	-0.06966463
20	0xbc395904	-0.011312727
21	0xbe2bbda5	-0.16771562
22	0x3dbef0b7	0.093232565
23	0xbd3dea94	-0.04636629
24	0x3d788a1b	0.060678583
25	0x3c7373b8	0.0148591325
26	0x3cb18ebb	0.021674505
27	0x3dd29f75	0.1028432
28	0xbdab3ce5	-0.08361224
29	0x3d22d1e4	0.03975095
30	0xbc0e4fe9	-0.008686044
31	0x3dacdfda	0.08441134

bias f4 [32]
0	0xbbe24cd8	-0.006906133
1	0x3d061dce	0.032743268
2	0xbd0b6ec4	-0.03404118
3	0xbcd4ba19	-0.025967645
4	0xbc87ca43	-0.016575938
5	0x3b31d1c1	0.002713308
6	0xbbd203fa	-0.0064091654
7	0xbb2e0209	-0.0026551506
8	0x3d3da4db	0.046299797
9	0x3ae89953	0.001774589
10	0x3e2dc522	0.16969731
11	0x3cf4faac	0.029904686
12	0x3bd93ee2	0.0066298107
13	0xbd4416d1	-0.047873322
14	0x3c9b796a	0.018978793
15	0xbafcddd3	-0.0019292183
16	0x3c0a9279	0.008457773
17	0xbaef4d28	-0.0018257247
18	0xbb2a8dfa	-0.0026024566
19	0x3c8a6340	0.01689303
20	0xbc8ac611	-0.016940149
21	0xbc2c6159	-0.010521256
22	0xbbe5b76d	-0.0070103914
23	0xbc0f3ab3	-0.008742022
24	0xbae62cec	-0.0017560995
25	0xbd2dccc7	-0.04243162
26	0x3c5b6dbb	0.013392861
27	0x3c0395b6	0.008031299
28	0x3ae8af31	0.0017752406
29	0x3ca74e81	0.020423176
30	0x3c4f93b3	0.012669492
31	0xbbc15a2c	-0.005900642

weight f4 [25, 32, 64]
0	0x3ed5c18f	0.41749236
1	0xbf1f41a1	-0.62209517
2	0x3f85d42a	1.0455372
3	0xbf03476f	-0.51280874
4	0xbf484100	-0.7822418
5	0x3f24c302	0.6436006
6	0x3f31839f	0.6934146
7	0x3f1075cf	0.5642976
8	0xbd9cd7f6	-0.07658379
9	0xbede48da	-0.43414956
10	0xbdf97ff9	-0.12182612
11	0x3e0a0976	0.13480172
12	0x3e2cee08	0.16887677
13	0x3ee6f8f0	0.451118
14	0xbf4a4863	-0.79016703
15	0x3e08d2d8	0.1336168
16	0xbde3a5e1	-0.11115623
17	0xbef53df5	-0.47898832
18	0xbee1eb8a	-0.44125015
19	0x3fdbb5b1	1.7164823
20	0xbed7819d	-0.42091075
21	0x3f95e1bc	1.1709514
22	0xbe8d8179	-0.27637842
23	0xbe7dc224	-0.2478109
24	0xbf3e6f04	-0.74388146
25	0xbf0abb57	-0.5419211
26	0x3f3ed059	0.74536663
27	0xbea72d24	-0.32651627
28	0x3e988528	0.2978909
29	0xbebfa52f	-0.37430713
30	0xbf5798a6	-0.842173
31	0xbee35166	-0.4439804
32	0xbf03b318	-0.5144515
33	0xbf703135	-0.93825084
34	0x3f0f0256	0.5586294
35	0xbee1b9bf	-0.44087026
36	0x3f05a975	0.52211696
37	0x3e8e698d	0.27814904
38	0xbf34cd4b	-0.7062575
39	0x3d746933	0.05967064
40	0xbe442d03	-0.19157796
41	0xbf480e1d	-0.78146535
42	0x3f80bb71	1.0057203
43	0xbda8021e	-0.08203529
44	0x3f34e25f	0.70657915
45	0xbe9b73a0	-0.30361652
46	0xbd265e0d	-0.040617038
47	0x3f568837	0.838016
48	0xbf66c25c	-0.9014032
49	0x3f8de2e8	1.1084871
50	0xbf05334a	-0.52031386
51	0xbf9cda48	-1.2254114
52	0xbee33884	-0.44379056
53	0x3eceb74f	0.40374228
54	0xbf597095	-0.8493741
55	0x3f9f220f	1.2432269
56	0x3e8c2372	0.27370793
57	0xbdfa7728	-0.122297585
58	0x3ee8495a	0.45368463
59	0x3ef3df51	0.47631314
60	0x3ebbab5a	0.36654168
61	0x3f00cf22	0.5031606
62	0x3e8fb9ba	0.28071386
63	0x3f159bf9	0.5844112
64	0xbf2d2a62	-0.67642796
65	0xbec636e4	-0.38713753
66	0xbeaaa58b	-0.33329424
67	0xbe9db998	-0.3080566
68	0xbf46acb2	-0.7760726
69	0xbf305836	-0.688846
70	0xbe831546	-0.25602168
71	0x3db07dca	0.08617742
72	0x3f5488af	0.8302106
73	0xbe322034	-0.17395097
74	0x3f30a1fd	0.68997175
75	0xbf1d99ef	-0.6156301
76	0xbf1aebe8	-0.60516214
77	0x3f0d2104	0.551285
78	0xbf7f4c24	-0.99725556
79	0x3f5051a9	0.81374604
80	0x3f49f55e	0.78890026
81	0xbf7fd30e	-0.9993142
82	0x3d4aaef0	0.04948324
83	0x3f8bb428	1.0914354
84	0xbed67e94	-0.41893446
85	0xbe2df47f	-0.16987799
86	0xbf1abe45	-0.6044658
87	0xbf17a5cd	-0.59237367
88	0xbef0736b	-0.46963057
89	0x3f397d6c	0.72457004
90	0x3f4e5844	0.8060343
91	0xbecb92f5	-0.39760557
92	0x3f67264d	0.9029282
93	0xbf1062a2	-0.564005
94	0x3ed712b6	0.42006463
95	0x3e9c4720	0.30523014
96	0x3f45524e	0.7707871
97	0x3e81d872	0.25360447
98	0xbea59dc9	-0.32346943
99	0x3d787ae6	0.06066408
100	0x3dbc6a16	0.09199922
101	0x3f45f039	0.77319676
102	0x3d859875	0.065232195
103	0x3f119adb	0.56876916
104	0x3ebdbea6	0.37059516
105	0xbf1698e4	-0.5882704
106	0x3e140ca9	0.14457954
107	0xbf206409	-0.6265264
108	0xbd112917	-0.035439577
109	0x3f39dce2	0.72602665
110	0xbe7619fa	-0.24033347
111	0xbe34cdb4	-0.17656595
112	0xbf14b00c	-0.58081126
113	0xbdf87909	-0.121324606
114	0xbf6bc22b	-0.9209315
115	0x3d883bdd	0.06652043
116	0x3e98ded3	0.298575
117	0x3f6c23ad	0.92241937
118	0xbfab49ea	-1.3381932
119	0xbe73aef2	-0.23797205
120	0x3f011657	0.5042471
121	0x3d386e1d	0.045026887
122	0x3e8e1d0b	0.27756533
123	0xbdb431f6	-0.08798592
124	0xbe67b847	-0.2262889
125	0xbe144b9c	-0.14481968
126	0xbf4d68ae	-0.80237854
127	0xbd1370d5	-0.035996277
128	0x3f7b196c	0.98085666
129	0xbfdb0afd	-1.7112728
130	0x40367893	2.8511093
131	0xbf193063	-0.5983946
132	0x3e20ab8d	0.15690441
133	0x3faa9bb2	1.3328764
134	0x3f529eae	0.82273376
135	0xbe939791	-0.28826573
136	0xbf090b92	-0.5353328
137	0x3f6c7529	0.9236627
138	0xbf925156	-1.1431072
139	0xbefd304a	-0.49450904
140	0x3f588cb8	0.8458972
141	0x3f9525e0	1.1652184
142	0x40031435	2.0481083
143	0x3ea955dc	0.33073318
144	0xbfe1d8e7	-1.7644318
145	0x3f0532a8	0.5203042
146	0xbe9c2378	-0.3049581
147	0x3fe09fc9	1.7548763
148	0xbec818b6	-0.39081353
149	0x3f60d0d0	0.8781862
150	0x3edcf44f	0.43155143
151	0x3e2e38aa	0.17013803
152	0xbfe06c16	-1.7532985
153	0x3f895637	1.0729436
154	0x3fd92f21	1.6967508
155	0xbf79746c	-0.9744327
156	0xbf600906	-0.8751377
157	0x3e3b122d	0.18268652
158	0xbed7a47f	-0.42117688
159	0xbf0ec4b0	-0.5576887
160	0xbeff2d74	-0.49839365
161	0xbf22b12d	-0.635516
162	0xbf022a25	-0.5084556
163	0x3e92c594	0.28666365
164	0x400d9e95	2.212804
165	0xbfbf4fc4	-1.4946218
166	0xbf396cd3	-0.7243168
167	0x3e3e2c48	0.1857158
168	0xc0145608	-2.317751
169	0x3d485f16	0.048918806
170	0xbea22370	-0.31667662
171	0xbed11c84	-0.40842068
172	0x3f81e9ae	1.0149438
173	0xc05d1733	-3.454541
174	0x3e98e651	0.29863217
175	0x3ff12713	1.884005
176	0x3d709efe	0.058745377
177	0x3e91d2d8	0.28481174
178	0xbed28c9e	-0.41122907
179	0xbe5a2067	-0.21301423
180	0xbf604e52	-0.8761951
181	0xc008d3d0	-2.137928
182	0x3c67a76f	0.01413904
183	0x3ebf33e2	0.3734427
184	0x3f63dafe	0.8900603
185	0x3d0c5ca6	0.034268044
186	0xbf147f09	-0.5800634
187	0x3d551c0c	0.0520287
188	0x3f0a87c3	0.54113406
189	0x3f5da6f6	0.8658289
190	0x3f6cbdc8	0.92477083
191	0xbf3cf0af	-0.73804754
192	0x3ea0afd9	0.3138416
193	0x3e35deb9	0.17760743
194	0xbfba527e	-1.4556425
195	0x3ed77d9f	0.4208803
196	0x3fa2df9e	1.2724493
197	0x3d2b0abc	0.041758284
198	0x3d8d0bcb	0.06887015
199	0xbeac88aa	-0.33698016
200	0xbed078db	-0.40717205
201	0x3e8a6646	0.27031153
202	0x3ce4f047	0.027946604
203	0x3fd3bd9c	1.6542239
204	0x3e875e74	0.2643925
205	0xbf4d2edd	-0.8014963
206	0x3f7c891a	0.986467
207	0xbf56f7fb	-0.8397214
208	0x3ec46a3f	0.3836231
209	0x3ebbe034	0.3669449
210	0x3f3251fc	0.6965635
211	0xbfd45fd5	-1.6591746
212	0x3eae2f4d	0.34020463
213	0xbf44713e	-0.76735294
214	0x3f9bb292	1.216387
215	0x3f83bde7	1.0292329
216	0x3ebad891	0.36493352
217	0xbe4f143d	-0.20222564
218	0xbf472cf0	-0.77802944
219	0xbeff1c85	-0.49826446
220	0xbebe4ccf	-0.37167975
221	0x3f03fc6a	0.5155703
222	0xbf2a0b7f	-0.6642379
223	0x3e995fb8	0.2995584
224	0xbf6bf7cd	-0.9217499
225	0x3eee5472	0.46548802
226	0x3f3009be	0.68764865
227	0xbe544eb5	-0.2073315
228	0xbfac8ff3	-1.348143
229	0x3ec38173	0.381847
230	0x3b577e6d	0.0032881752
231	0xbe3afd64	-0.18260723
232	0xbf0bb479	-0.54572254
233	0x3f812e17	1.009219
234	0xbe775c5e	-0.24156329
235	0x3f86e2aa	1.0537922
236	0xbea505b9	-0.3223093
237	0xbefce5a9	-0.49393967
238	0xbf0a0e4e	-0.5392808
239	0xbf62830b	-0.88481206
240	0xbd475268	-0.048662573
241	0xbf0c2087	-0.5473713
242	0x3f1cf3d1	0.61309534
243	0xbcdd579c	-0.027019314
244	0x3f0415f4	0.51596
245	0x3f58e640	0.84726334
246	0x3fc2cbe4	1.5218472
247	0xbeff91d6	-0.49915951
248	0xbf03005c	-0.51172423
249	0x3f8c14a4	1.0943799
250	0xbeae18a3	-0.3400317
251	0xbe44b01c	-0.19207805
252	0x3e81469f	0.25249192
253	0xbefea9c1	-0.49738887
254	0x3e235522	0.15950444
255	0x3e64f706	0.22359857

root f4 [32, 64]
0	0x3a0b9e49	0.00053260155
1	0xbdbe7a57	-0.09300678
2	0x3c831979	0.016003357
3	0xbe4c80a9	-0.19970955
4	0xbde28df2	-0.1106223
5	0x3e2ac3b0	0.16676211
6	0x3aef423d	0.0018253993
7	0x3dff76c8	0.124738276
8	0x3d6a9e22	0.057279713
9	0xbdf72ba3	-0.1206887
10	0xbd8c1f5f	-0.06841921
11	0xbdbd5972	-0.09245576
12	0x3cca4a16	0.02469353
13	0xbe19b9cd	-0.15012284
14	0xbd9181e6	-0.07104854
15	0xbd1c218d	-0.038117934
16	0xbc727728	-0.014798917
17	0x3be320d0	0.006931402
18	0xbcac42d7	-0.021027965
19	0x3dd884b4	0.10572186
20	0xbcc432c8	-0.023949996
21	0xbb86f3b5	-0.0041184076
22	0xbd06123d	-0.032732237
23	0x3d3329f4	0.04374118
24	0xbdc45689	-0.09586818
25	0xbd289396	-0.041156374
26	0x3d02e548	0.03195694
27	0xbdbf6d21	-0.093469866
28	0x3ccce3ac	0.025010906
29	0xbd3bb749	-0.04582909
30	0x3d410f35	0.047133643
31	0x3e1e564a	0.15462604
32	0x3a9d0355	0.0011979142
33	0xbd747b38	-0.059687823
34	0x3cdb231f	0.026750145
35	0x3cbc07e1	0.022952976
36	0xbc22dd1d	-0.009940413
37	0x3e72fa0f	0.23728202
38	0xbe2e7833	-0.1703804
39	0xbd76a2f6	-0.060214005
40	0xbc285eed	-0.010276538
41	0xbdc155c5	-0.09440187
42	0xbd268537	-0.040654387
43	0xbb94a081	-0.004535735
44	0xbe0238d1	-0.12716986
45	0x3d960c88	0.07326609
46	0xbc0a2875	-0.008432497
47	0xbe1cd61c	-0.15316051
48	0x3d86188c	0.06547651
49	0x3c2d99b6	0.01059573
50	0x3a87cae2	0.0010360146
51	0xbd57311a	-0.05253706
52	0xbbd2e828	-0.0064363666
53	0x3e1b7ffe	0.15185544
54	0xbd8c09ba	-0.06837793
55	0x3d636687	0.0555177
56	0xbd93fa86	-0.07225518
57	0xbd9d6e2c	-0.07687029
58	0x3d647fb5	0.055785853
59	0xbd7e6c9d	-0.0621153
60	0xbe855ee4	-0.26048958
61	0x3eba317b	0.36365876
62	0x3d141aa7	0.03615823
63	0x3d9c7380	0.076392174
64	0x3d429fa1	0.047515515
65	0xbd22d41c	-0.039753065
66	0xbd6fef44	-0.05857779
67	0x3c4dad0a	0.012553463
68	0x3e07fca7	0.13279973
69	0x3e8d3c7c	0.27585208
70	0x3e895bc7	0.26827833
71	0x3d4a9301	0.0494566
72	0xbd0a811b	-0.03381453
73	0x3d2cff2b	0.042235535
74	0xbd8a5909	-0.06755263
75	0xbe3de3ac	-0.18543881
76	0x3d6138c8	0.05498579
77	0xbdef6ee0	-0.116910696
78	0xbe3d0c41	-0.18461706
79	0x3c34209f	0.010994106
80	0xbdaece32	-0.085354224
81	0xbc98ba75	-0.018643597
82	0xbde32c28	-0.110924065
83	0x3e51c135	0.20483859
84	0xbe3b36e9	-0.18282665
85	0x3dfe0b18	0.1240446
86	0xbde7462e	-0.112926826
87	0xbd8d1fdd	-0.06890843
88	0xbde36590	-0.11103356
89	0x3d9d8f00	0.07693291
90	0xbc9c1843	-0.019054538
91	0xbe8f7011	-0.28015187
92	0x3c399517	0.01132705
93	0x3b9d161e	0.0047938963
94	0x3de1bbd8	0.110221565
95	0xbdfe21fa	-0.12408824
96	0xbb2bd2a2	-0.0026218076
97	0xbdec059d	-0.11524508
98	0xbd194cd4	-0.037426785
99	0x3da964e8	0.082711995
100	0x3e471374	0.19441015
101	0x3daa48d6	0.083146736
102	0x3d6526bf	0.055945154
103	0x3e0a1eb9	0.13488282
104	0xbbd9c9b9	-0.0066463617
105	0xbd16387d	-0.036674965
106	0x3e442925	0.1915632
107	0x3e0470cd	0.12933655
108	0x3dddb9c2	0.10826446
109	0xbda909a1	-0.0825379
110	0xbd64dbf9	-0.055873845
111	0xbe12c4fb	-0.14332955
112	0x3dd19abf	0.102345936
113	0x3e440c9e	0.19145438
114	0x3df8c5f4	0.121471316
115	0xbe5e17b8	-0.21688735
116	0x3d703d25	0.058652062
117	0x3d9e308e	0.07724105
118	0xbe494d5f	-0.19658421
119	0x3e5f8a91	0.21830203
120	0xbcecf98f	-0.028927593
121	0xbe489caa	-0.19591013
122	0x3d12adfd	0.03581046
123	0xbd65c0d7	-0.05609211
124	0xbf38393c	-0.7196233
125	0xbe0808bf	-0.13284586
126	0xbd95ef71	-0.073210604
127	0xbd99a217	-0.07501619
128	0x3d8ab6f7	0.06773179
129	0x3e46b74d	0.19405861
130	0x3e396f95	0.18108971
131	0xbe33d4ea	-0.17561689
132	0x3d2dd192	0.04243619
133	0xbe8cd36e	-0.27505058
134	0x3b2fd540	0.0026829988
135	0xbce32157	-0.027725859
136	0x3df01a16	0.117237255
137	0x3e49f3a4	0.19721848
138	0xbdcc1f84	-0.09966949
139	0x3d86793c	0.06566092
140	0x3dcb2c03	0.09920504
141	0x3e3393a2	0.17536786
142	0xbd82c9b2	-0.063861266
143	0xbdb03994	-0.08604732
144	0x3e0d03d1	0.13770987
145	0xbd19b757	-0.037528362
146	0xbbe1d98c	-0.0068923887
147	0xbe4fec92	-0.20305088
148	0x3d8b0bd5	0.06789366
149	0x3d28ceed	0.041212965
150	0x3e03730f	0.1283686
151	0xbdd5397a	-0.104113534
152	0x3d2e6acd	0.042582322
153	0x3cfeb274	0.031090952
154	0x3bfa977b	0.0076474524
155	0xbdff6230	-0.124699
156	0x3e094002	0.13403323
157	0xbdfb8b06	-0.12282376
158	0xbdbd19fb	-0.09233471
159	0x3de9d10c	0.11416826
160	0x3e52510a	0.20538726
161	0x3d7a74bf	0.061146494
162	0xbd9603b0	-0.07324922
163	0x3df5d505	0.12003521
164	0xbd0c4c67	-0.03425255
165	0xbeaef414	-0.34170592
166	0x3ddffee5	0.10937289
167	0x3ea58c00	0.32333374
168	0x3d6b3224	0.057420865
169	0x3d19b4cb	0.037525933
170	0xbe39f82c	-0.18161076
171	0xbe884e64	-0.26622307
172	0xbe3ea346	-0.18616971
173	0x3c6abfb3	0.014327931
174	0x3e1f337f	0.15546988
175	0x3d517514	0.051137045
176	0xbd1a5cfb	-0.03768633
177	0x3d794914	0.06086071
178	0xbe7dd118	-0.24786794
179	0x3dd34a2a	0.1031688
180	0xbd90dafa	-0.070730165
181	0x3e1ad643	0.15120797
182	0x3e84ff5d	0.25976077
183	0xbc8c57fe	-0.017131802
184	0x3aaa556f	0.0012995432
185	0x3ea836ab	0.32854208
186	0x3e0b40ba	0.1359891
187	0x3e865fa5	0.26244846
188	0xbb37f69c	-0.0028070575
189	0x3ee21be6	0.4416191
190	0x3c7aa06e	0.0152970385
191	0x3e0e4b9e	0.13896033
192	0xbd0ba627	-0.034094002
193	0x3e04a130	0.12952113
194	0xbb5b6c12	-0.0033481163
195	0x3bfd715b	0.0077344603
196	0x3dee6b40	0.1164155
197	0xbe83bbac	-0.2572912
198	0xbe0c6ca5	-0.1371332
199	0xbd02e4c1	-0.031956438
200	0xbd0278be	-0.03185343
201	0xbd5a8f29	-0.053359184
202	0x3e5673bf	0.20942591
203	0x3e18df58	0.14928949
204	0xbe046a4b	-0.12931173
205	0x3dc9d617	0.098552875
206	0x3d79fc87	0.061031844
207	0xbccbd654	-0.024882473
208	0x3d07fde6	0.03320112
209	0x3d21c2b0	0.03949231
210	0x3e4b9a84	0.19883162
211	0xbdb7d547	-0.08976226
212	0xbb599496	-0.0033200136
213	0xbe0e6865	-0.13907011
214	0xbc90224f	-0.017594485
215	0x3d589ef0	0.05288595
216	0x3d19d5ff	0.0375576
217	0x3d861c44	0.0654836
218	0xbd0f06f8	-0.034918755
219	0x3e5d52f6	0.21613678
220	0x3d4bfa82	0.04979945
221	0xbd84d41b	-0.064857684
222	0xbdd18a8d	-0.102315046
223	0x3de9e8e9	0.11421377
224	0xbd5f5644	-0.05452563
225	0x3d58a3a0	0.05289042
226	0x3e54f45a	0.20796338
227	0xbe151e97	-0.1456245
228	0xbd8aa370	-0.067694545
229	0x3d1ce659	0.038305614
230	0x3c76e33b	0.015068824
231	0xbc9c8d40	-0.019110322
232	0xbd9cc955	-0.076555885
233	0x3dbcaf99	0.0921318
234	0x3b599fd0	0.0033206828
235	0x3dd7cadd	0.1053674
236	0xbd0506c6	-0.032477163
237	0x3c5854eb	0.01320384
238	0xbe21e3f4	-0.15809613
239	0x3d067144	0.032822862
240	0xbe214d33	-0.15752105
241	0xbe2c40dd	-0.16821618
242	0xbe3a52cc	-0.18195647
243	0x3db38548	0.08765656
244	0xbd60e2bf	-0.054903742
245	0xbd988033	-0.07446327
246	0x3d0ef677	0.034903016
247	0xbe06cb73	-0.13163547
248	0xbc6c514e	-0.014423681
249	0x3d9c4a06	0.07631306
250	0x3c71b678	0.014752977
251	0xbb8a3854	-0.0042181406
252	0x3f6b7dc5	0.91988784
253	0x3cb8a580	0.022539854
254	0x3c31b942	0.010847392
255	0x3ce4a54e	0.027910855

bias f4 [64]
0	0x3a468067	0.0007572234
1	0xbc83caa0	-0.01608783
2	0x3cc93a60	0.024563968
3	0xbc9370a6	-0.01799805
4	0x3cae92e0	0.02131027
5	0xbc9b6e9d	-0.018973643
6	0xbcd7844b	-0.0263082
7	0x3d0491e2	0.032365687
8	0x3c0be6c0	0.008538902
9	0xbbd603af	-0.006531201
10	0xba05a6b6	-0.0005098389
11	0xbd5dda63	-0.054163348
12	0xbcfd2411	-0.030900987
13	0x3b4a128b	0.0030833806
14	0x3cac1a44	0.021008618
15	0xbbb82226	-0.005619305
16	0xbca182ae	-0.019715633
17	0x3cf924bd	0.030413026
18	0x3d24511d	0.04011642
19	0x3ac78554	0.001522223
20	0xbace9c38	-0.001576311
21	0xbc896bf4	-0.016775109
22	0xbc8bc8d4	-0.017063536
23	0x3c797a09	0.015226849
24	0x3d0afda6	0.033933304
25	0xbcd3c939	-0.025852786
26	0x398cda3a	0.00026865472
27	0x3d2734c9	0.040821824
28	0xbb8b7736	-0.0042561544
29	0xbc992289	-0.018693225
30	0x3c90369c	0.017604165
31	0x3bf9e23f	0.0076258476
32	0xbcc5dba6	-0.024152588
33	0x3c13caf8	0.0090205595
34	0x3a892c21	0.0010465422
35	0x3c9f898c	0.019474767
36	0x3b8c3b56	0.0042795343
37	0xbc994ad3	-0.018712437
38	0xbce9516b	-0.028481206
39	0xbd10a11d	-0.0353099
40	0xbc3bc9a1	-0.011461646
41	0x3c860179	0.016358124
42	0xbc0f1da0	-0.0087350905
43	0x3c784fdd	0.01515576
44	0xbc2420aa	-0.010017553
45	0xbb2a9cb2	-0.002603334
46	0x3cf98d53	0.030462896
47	0x3bb135dd	0.0054080323
48	0x3d8218ce	0.06352387
49	0xbcd8bc8a	-0.02645709
50	0xbcd37854	-0.025814213
51	0xbdfea415	-0.1243364
52	0xbd11588d	-0.03548484
53	0xbc80fd99	-0.015745925
54	0xbb888e4c	-0.0041673537
55	0xbcd03349	-0.02541508
56	0x39a9f6d6	0.000324181
57	0x3e65ae1e	0.22429702
58	0x3d276e15	0.040876467
59	0xbb60ce21	-0.003430255
60	0xbe22efb5	-0.15911753
61	0xbe94f2b7	-0.29091427
62	0xbc40fc18	-0.011778854
63	0xbb3c23de	-0.0028707902

weight f4 [25, 64, 64]
0	0x3ddfbeac	0.1092504
1	0xbf1a3ad2	-0.60246
2	0x3e1fd1f7	0.15607439
3	0xbf5aa296	-0.85404336
4	0x3ecb4034	0.3969742
5	0xbd798df2	-0.060926385
6	0xbe804cdc	-0.2505864
7	0x3f093604	0.53598046
8	0xbefd3f3d	-0.4946231
9	0x3ec8ec3d	0.39242736
10	0x3f13f0c5	0.5778926
11	0x3e44d75e	0.19222781
12	0x3ee38a49	0.4444144
13	0xbdc7fd33	-0.09765091
14	0x3f07d726	0.53062665
15	0x3f58770f	0.8455667
16	0xbe15f28b	-0.14643304
17	0x3f2fef0a	0.6872412
18	0x3ec6e26f	0.3884463
19	0xbfbe3f3d	-1.4863049
20	0x3f242671	0.64121157
21	0xbf8af5f2	-1.0856307
22	0xbe14baeb	-0.14524429
23	0x3d9b1074	0.075714976
24	0x3efe2d58	0.4964397
25	0xbe1ef6a9	-0.15523781
26	0xbdebada0	-0.11507726
27	0xbd8ffa35	-0.07030145
28	0xbf835518	-1.0260344
29	0xbe1d33b4	-0.15351754
30	0xbe7d9a44	-0.24765879
31	0x3f55e1f9	0.8354793
32	0x3d78a839	0.060707305
33	0x3f554600	0.83309937
34	0x3f9b87b6	1.2150791
35	0x3eb1c4c9	0.34720448
36	0xbf1cae18	-0.61203146
37	0xbe66e133	-0.22546844
38	0xbfafc257	-1.3731183
39	0xbf9f83eb	-1.2462133
40	0xbffbab0f	-1.9661578
41	0x3fb84b8b	1.4398054
42	0xbf6916c7	-0.9105038
43	0x3ec00ccc	0.37509763
44	0x3d9f5b98	0.07781142
45	0x3ed355b2	0.41276318
46	0x3deca766	0.11555366
47	0xbe53bcc6	-0.2067748
48	0x3f888c55	1.0667826
49	0xbe2c1605	-0.16805275
50	0x3e160e4b	0.1465389
51	0xbf773085	-0.9655841
52	0xbf365e50	-0.7123766
53	0xbe96ad0c	-0.294289
54	0xbe9a513f	-0.3014011
55	0x3d3eff9c	0.046630487
56	0x3f1f3b5d	0.62199956
57	0xbdea08c6	-0.11427455
58	0xbf3138e1	-0.69227415
59	0x3ed2b511	0.41153768
60	0xbeafd735	-0.34343877
61	0xbdd12b16	-0.10213296
62	0xbf18f90b	-0.5975501
63	0xbf2a7cc9	-0.6659666
64	0xbf96314d	-1.1733795
65	0x3f7f1124	0.9963553
66	0xbce43f48	-0.027862206
67	0x3e510a9f	0.20414208
68	0x3e4ed5b7	0.20198713
69	0xbf3bdc38	-0.733829
70	0x3f74b3ff	0.9558715
71	0xbe04116f	-0.12897275
72	0x3fb0629d	1.3780094
73	0xbea0c775	-0.31402174
74	0x3d1cad58	0.03825125
75	0xbf70108d	-0.93775254
76	0x3f465909	0.77479607
77	0xbe21bb63	-0.15794139
78	0x3f98dee7	1.1943024
79	0xbdf05e8b	-0.11736783
80	0x3f4e3b05	0.80558807
81	0xbfa2a5bb	-1.2706827
82	0xbf7531d1	-0.9577914
83	0x3fc8e6f1	1.5695478
84	0xbca5df5f	-0.020248113
85	0xbec9e79c	-0.39434516
86	0xbe441304	-0.19147879
87	0xbf8aeaa2	-1.0852854
88	0xbe4707b1	-0.19436528
89	0x3dd76df3	0.10519018
90	0xbf3cb158	-0.73708105
91	0x3ed96229	0.42457703
92	0xbe74e3db	-0.23915045
93	0x3f2eacb4	0.68232274
94	0x3f372240	0.71536636
95	0xbf238b7f	-0.6388473
96	0xbed8d4ff	-0.42350003
97	0x3ec2b966	0.38032073
98	0x3f3d3bb1	0.73919207
99	0xbf23dba2	-0.6400701
100	0xbcfb7872	-0.030697081
101	0x3ec5a5c1	0.38603023
102	0x3fa9690c	1.3235183
103	0x3f73bccc	0.95209956
104	0x3edf4d52	0.43613678
105	0xbfc547a4	-1.5412488
106	0xbe97d2db	-0.29653057
107	0x3f8de2a6	1.1084793
108	0x3f0db61d	0.5535601
109	0xbe524ee5	-0.20537908
110	0xbf0d4802	-0.55188
111	0xbfecbd07	-1.8495187
112	0x3fb4c690	1.4123096
113	0x3e75b742	0.23995689
114	0xbe7756c6	-0.24154195
115	0x401982a7	2.3985994
116	0x3c2ce072	0.010551559
117	0x3f484a51	0.782384
118	0x3fe8f7ed	1.8200661
119	0x3ea70543	0.32621202
120	0x3ef0d786	0.4703943
121	0xbf90d740	-1.1315689
122	0x3f879d42	1.0594866
123	0xbe9bad5c	-0.304057
124	0x3f949dfa	1.1610711
125	0x3c931518	0.017954394
126	0x3fa4d25c	1.2876697
127	0x3d6f175b	0.058371883
128	0x3f505963	0.81386393
129	0xbf735d56	-0.95064294
130	0x3df672c7	0.12033611
131	0xc00272b1	-2.0382502
132	0x3e58d11f	0.21173523
133	0x3ff72d06	1.9310615
134	0x3f3e38ad	0.7430523
135	0xbee862c4	-0.45387852
136	0xbfaabc21	-1.3338662
137	0xbfde84f5	-1.7384325
138	0xbeb4cd85	-0.3531305
139	0x3ee65c89	0.44992474
140	0xbfa99bf7	-1.3250722
141	0x3f4ea606	0.8072208
142	0x3eeb475e	0.45952886
143	0xbf21cd2a	-0.6320368
144	0xbf59d5aa	-0.8509165
145	0x3fbd8625	1.4806563
146	0x3fca2dc3	1.5795215
147	0xbfc61159	-1.5474044
148	0xbf9e4c37	-1.2367009
149	0xbebf3e81	-0.37352374
150	0xbe6a7af3	-0.22898464
151	0xbf7488b3	-0.95521086
152	0xc023a196	-2.5567374
153	0x3f74d829	0.95642334
154	0xbe0710da	-0.13190022
155	0x3e579ef2	0.21056727
156	0x3e923042	0.28552443
157	0xbd51ea40	-0.05124879
158	0x3d7f33f2	0.0623054
159	0x3e9c3401	0.30508426
160	0xbf4bdd70	-0.7963476
161	0x3e1587e5	0.14602621
162	0x3e3a2121	0.181767
163	0xbf1abcb0	-0.60444164
164	0xbf8ae5ed	-1.0851418
165	0xc057716e	-3.3662982
166	0x3fb30d47	1.3988427
167	0x3f4869c1	0.7828637
168	0xbf4606c1	-0.77354056
169	0x401e96c8	2.477953
170	0xbf3a104d	-0.72681123
171	0xbe922638	-0.28544784
172	0x3fc61e59	1.5478011
173	0x3d16c16b	0.03680555
174	0x3f91ff04	1.140595
175	0xbf121aae	-0.5707196
176	0x3fb06988	1.3782206
177	0xbf0ea31a	-0.55717623
178	0xbe39a5a7	-0.18129598
179	0xbfbb0026	-1.460942
180	0xbf94d64e	-1.1627901
181	0x3f3ff434	0.74982
182	0x3e803df9	0.2504728
183	0x3f13f799	0.5779968
184	0x3f5d2524	0.863848
185	0x3d0a1dfd	0.033720005
186	0x3f72b8fb	0.9481351
187	0xbd9cb976	-0.07652561
188	0xbe0623d7	-0.1309961
189	0xc01fea05	-2.4986584
190	0xbe8fefda	-0.2811268
191	0xbf0d1f1f	-0.5512561
192	0x3da07c60	0.07836223
193	0xbdb98398	-0.09058303
194	0xbefe0527	-0.49613306
195	0xbe3841af	-0.17993806
196	0xbf5f02f8	-0.87113905
197	0x3e22d939	0.15903176
198	0xbe2454dc	-0.16047996
199	0xbeced369	-0.40395668
200	0x3efcfe35	0.49412695
201	0xbe9f3acf	-0.31099555
202	0xbe182b9b	-0.14860384
203	0xbe066dbb	-0.13127796
204	0xbf3d4f60	-0.7394924
205	0x3e0a70db	0.13519613
206	0xbf7250b2	-0.9465438
207	0xbe5686dd	-0.20949884
208	0x3e5e7abb	0.21726505
209	0xbf826b08	-1.0188913
210	0xbe0e0f06	-0.13872918
211	0x3eb27829	0.348573
212	0xbea8a96b	-0.32941756
213	0x3f21273b	0.62950486
214	0x3ee2f890	0.44330263
215	0x3f531266	0.8244995
216	0x3f0c6aaa	0.54850256
217	0x3f0662fe	0.524948
218	0x3f0d0636	0.550876
219	0xbecc28b9	-0.3987482
220	0x3fbd5339	1.4791023
221	0xbe021e1c	-0.12706798
222	0x3f5e331c	0.86796737
223	0x3d1ac584	0.03778602
224	0xbe6cbc9e	-0.23118827
225	0xbf5560d6	-0.83350885
226	0xbfa83142	-1.3140032
227	0x3df23db7	0.118281774
228	0x3e72ebf1	0.23722817
229	0x3f406559	0.75154644
230	0x3ecc39b9	0.3988779
231	0xbe31a889	-0.17349447
232	0x3f310827	0.69153064
233	0xbf937081	-1.1518708
234	0x3f07b9b5	0.5301774
235	0xbee7bc51	-0.45260862
236	0x3f40bb3d	0.752857
237	0xbf7f2b0e	-0.9967507
238	0xbec124c3	-0.3772336
239	0x3f147977	0.5799784
240	0xbf35975d	-0.7093409
241	0x3f265a89	0.64981896
242	0x3e2a9a75	0.16660483
243	0x3f53e107	0.8276524
244	0x3f0c0daa	0.5470835
245	0x3d052518	0.03250608
246	0xbe91add5	-0.28452936
247	0xbef83bd3	-0.48483142
248	0xbf9d7290	-1.2300587
249	0xbce40326	-0.027833533
250	0xbf941487	-1.1568764
251	0xbd8f5670	-0.069989085
252	0x3ee83fc6	0.45361155
253	0x3e1747e2	0.14773515
254	0xbd95ef4c	-0.07321033
255	0xbdade53e	-0.0849099

root f4 [64, 64]
0	0x3d4026f2	0.04691214
1	0xbde0189e	-0.10942195
2	0xbddd42cb	-0.108037554
3	0xbde6d4e9	-0.11271078
4	0x3cdc3d2c	0.026884638
5	0x3d9642f9	0.07336993
6	0xbd9de189	-0.07709033
7	0x3e8a70ab	0.27039084
8	0x3e7d99b6	0.24765667
9	0xbc5367ae	-0.012903137
10	0xbe0ea7e2	-0.1393123
11	0xbdd0c723	-0.10194232
12	0x3e62d045	0.22149761
13	0x3da64dad	0.08120284
14	0xbcee5081	-0.029091122
15	0x3d535e10	0.051603377
16	0xbe94717d	-0.28992835
17	0x3dbeada8	0.09310466
18	0xbd846270	-0.06464088
19	0xbe0d6c67	-0.13810883
20	0x3c71f3f6	0.0147676375
21	0xbc1dec58	-0.009638868
22	0x3a4e16ab	0.0007861654
23	0xbdd0cbe7	-0.10195141
24	0x3e38ebfe	0.18058774
25	0x3c23cec1	0.009998024
26	0x3d334683	0.043768417
27	0x3d86544b	0.06559046
28	0x3d728d2d	0.059216667
29	0xbe2ceb41	-0.16886617
30	0xbe875afa	-0.26436597
31	0xbe5c025e	-0.21485278
32	0x3d9f5bb8	0.07781166
33	0x3d634258	0.055483192
34	0xbcfcdf03	-0.030868059
35	0x3c3c4e99	0.0114933485
36	0x3c3b10a2	0.01141754
37	0x3e1cf3de	0.15327403
38	0xbd91b3b4	-0.07114354
39	0xbe80043f	-0.2500324
40	0x3d292b25	0.04130091
41	0x3e878450	0.26468134
42	0x3d356305	0.044283886
43	0xbd4e57b5	-0.050376613
44	0x3db13b3c	0.08653876
45	0xbdd2a5a5	-0.102855004
46	0x3c8b4c6d	0.017004216
47	0x3c403e2b	0.011733572
48	0xbd35d44f	-0.044391926
49	0x3b8b4122	0.004249708
50	0x3e311bf4	0.1729582
51	0xbdf11b22	-0.11772753
52	0xbec0e39c	-0.37673652
53	0x3bec8d98	0.0072190277
54	0x3db60641	0.088879116
55	0xbe3651f8	-0.17804706
56	0xbd0000d5	-0.031250793
57	0x3d86c7ee	0.06581102
58	0xbcb89ae6	-0.022534799
59	0xbcb7f2a7	-0.022454573
60	0x3d6a6dfa	0.057233788
61	0x3da1d061	0.07901073
62	0x3e5bddaa	0.21471277
63	0x3dc1dd08	0.094659865
64	0xbd808bb1	-0.06276644
65	0x3cf45511	0.02982572
66	0x3e52e24e	0.20594141
67	0xbd4a1f16	-0.049346052
68	0x3d461a5b	0.04836498
69	0xbc456a3c	-0.012049254
70	0x3e50d9fa	0.20395651
71	0xbcc0a5fb	-0.023516646
72	0xbddb9c89	-0.10723216
73	0xbd5fa52e	-0.054600887
74	0xbebe5636	-0.3717515
75	0xbde1b195	-0.11020199
76	0x3de48a45	0.11159185
77	0xbe293f18	-0.16527975
78	0xbe5fd173	-0.21857242
79	0x3e65ded6	0.22448286
80	0xbdc1f1c0	-0.09469938
81	0xbe55f918	-0.20895803
82	0xbd931359	-0.07181425
83	0x3e227808	0.15866101
84	0xbe8ad754	-0.27117407
85	0xbd5b1b13	-0.053492617
86	0xbd6bfc8f	-0.057613906
87	0xbd587175	-0.052842576
88	0xbdacb80c	-0.08433542
89	0x3da64480	0.08118534
90	0xbe9660bc	-0.29370677
91	0x3ccf8815	0.025333444
92	0x3dc63545	0.09678129
93	0x3e0277e5	0.12741049
94	0x3d3f33b1	0.046680156
95	0x3da04fe2	0.078277364
96	0xbdc3692e	-0.09541546
97	0x3e216a75	0.15763266
98	0x3d7eb3f9	0.062183354
99	0xbdca8f9e	-0.09890674
100	0x3d277bfe	0.040889733
101	0xbddd3cec	-0.108026356
102	0x3de90081	0.11377049
103	0xbd34ae69	-0.044111643
104	0x3e851a98	0.25996852
105	0x3a2b5e2d	0.00065371656
106	0xbe863288	-0.26210427
107	0x3d5c51b1	0.053788844
108	0x3db59284	0.08865836
109	0x3dcc7c82	0.099846855
110	0x3a4e16fb	0.0007861701
111	0xbc67e2ce	-0.014153196
112	0x3d5680de	0.05236899
113	0x3e031dcd	0.12804337
114	0x3d510e9b	0.05103932
115	0xbe7f3f87	-0.24926578
116	0xbe2b8895	-0.1675132
117	0x3c890240	0.016724706
118	0x3e623666	0.22091064
119	0xbdb4b8f0	-0.088243365
120	0x3e6f13b9	0.23347367
121	0xbc02aa5f	-0.00797519
122	0xbdfc63d3	-0.123237275
123	0x3e0449dd	0.12918802
124	0x3b84fa68	0.004058171
125	0xbd0ee8a9	-0.03488985
126	0x3e873c47	0.26413175
127	0xbd3ad4ed	-0.045613218
128	0x3e18e51f	0.14931153
129	0x3e76980b	0.24081437
130	0xbe49bdac	-0.1970126
131	0x3cb6e5b3	0.022326326
132	0x3d523a5c	0.051325187
133	0x3db370fc	0.087617844
134	0xbd987df1	-0.074458964
135	0xbcc1c3bc	-0.023652904
136	0x3cbd4d43	0.02310813
137	0x3d9bbb35	0.07604066
138	0xbd051966	-0.032494925
139	0x3e3d3aa4	0.18479401
140	0x3d1a5850	0.037681878
141	0xbe26b9e5	-0.1628185
142	0x3e078a58	0.13236368
143	0xbd1cd79c	-0.03829156
144	0x3da35bad	0.0797647
145	0xbe7538c0	-0.2394743
146	0xba328607	-0.0006810133
147	0x3d153388	0.036426097
148	0xbcc4e5da	-0.024035383
149	0xbe21e2c8	-0.15809166
150	0x3cdb2c28	0.026754454
151	0xbd64d6bb	-0.055868845
152	0xbe2eb438	-0.17060935
153	0x3ce63e8a	0.028105993
154	0x3d6b8b00	0.057505608
155	0xbd9754e8	-0.073892415
156	0x3e683a01	0.22678377
157	0xbeb22b20	-0.34798527
158	0xbc63ed05	-0.01391149
159	0x3dae5139	0.08511586
160	0x3d3f5d0e	0.046719603
161	0xbe4b9296	-0.19880137
162	0x3e073688	0.13204396
163	0xbc8aea37	-0.016957385
164	0xbdfd7fa0	-0.12377858
165	0x3e1bfa94	0.15232307
166	0x3dd2f86b	0.10301288
167	0x3e6ce83e	0.23135468
168	0xbe280f33	-0.16412048
169	0x3e4ebae6	0.20188484
170	0xbe1f4e32	-0.15557173
171	0x3c7709ba	0.015078003
172	0x3cc49e3c	0.024001233
173	0xbd2f5a84	-0.04281093
174	0x3d078d7f	0.033093926
175	0x3d30f497	0.04320201
176	0x3d9bb3f7	0.07602685
177	0x3eab8900	0.3350296
178	0xbd555e5e	-0.05209195
179	0x3d81cc6d	0.06337819
180	0x3e26a8a1	0.16275264
181	0x3ee0a35f	0.43874642
182	0xbd6f56d4	-0.058432415
183	0xbe482d44	-0.19548517
184	0xbe3eb2f5	-0.18622954
185	0x3d894283	0.06702139
186	0x3d9a548b	0.075356565
187	0xbe84c43e	-0.2593097
188	0xbe34fe08	-0.1767503
189	0xbe1b7894	-0.15182716
190	0x3d1ea031	0.03872699
191	0xbe3d41b6	-0.18482098
192	0x3e10fc2c	0.14158696
193	0x3c0101ed	0.007873994
194	0x3e51dcee	0.20494434
195	0xbe358322	-0.17725804
196	0x3e367faf	0.17822145
197	0x3d24e4c6	0.040257238
198	0xbd4a967b	-0.049459916
199	0xbe594687	-0.2121831
200	0xbe2c3470	-0.16816878
201	0x3bf9baf3	0.007621163
202	0xbcc6a621	-0.024249138
203	0x3e0bf94c	0.13669318
204	0xbde42d82	-0.111414924
205	0xbdb30b40	-0.0874238
206	0xbe904426	-0.28176993
207	0xbe0c5195	-0.13702996
208	0xbe04c32b	-0.12965076
209	0xbd427149	-0.04747132
210	0x3e1747f3	0.1477354
211	0xbd8e8942	-0.069597736
212	0x3d5252b3	0.0513484
213	0xbd33b9f9	-0.04387853
214	0xbd7b06c8	-0.061285764
215	0x3dc7c4a1	0.09754301
216	0xbe769085	-0.24078567
217	0x3d3264f3	0.043553304
218	0x3db623ee	0.08893572
219	0xbd5cfc3c	-0.053951487
220	0xbe578247	-0.2104579
221	0x3e2974ee	0.16548511
222	0x3db95156	0.09048717
223	0xbdaf6ded	-0.085658886
224	0xbdc9fa44	-0.098621875
225	0x3c66514b	0.014057468
226	0xbd955e4d	-0.07293377
227	0x3da6a58a	0.08137043
228	0xbd94c7b3	-0.07264652
229	0xbe9d7bdc	-0.3075856
230	0x3e500ac3	0.20316605
231	0x3da6e840	0.08149767
232	0x3dc05f61	0.09393192
233	0xbe8902da	-0.26759988
234	0xbde7f6ba	-0.11326356
235	0x3de99e92	0.11407198
236	0xbd46069d	-0.04834615
237	0x3d58db9e	0.05294382
238	0x3c92f6d4	0.017939962
239	0x3d5c545e	0.053791396
240	0xbbead1c5	-0.0071661198
241	0xbccf6dce	-0.025320914
242	0xbd868419	-0.065681644
243	0x3e22ddb5	0.15904887
244	0x3e2c293b	0.16812603
245	0xbcfbb0c2	-0.030723933
246	0x3e1870c2	0.14886764
247	0x3d99145c	0.07474586
248	0xbd4220db	-0.047394615
249	0xbe241935	-0.1602524
250	0x3e5905a7	0.21193562
251	0x3d8bc037	0.068237714
252	0x3d2a4e2c	0.041578457
253	0x3d4cbf0b	0.04998688
254	0xbd2d00c9	-0.042237077
255	0x3bb40281	0.0054934626

bias f4 [64]
0	0xbf4632d0	-0.77421284
1	0xbebfceb4	-0.3746239
2	0xbebd60a1	-0.36987785
3	0xbecbc530	-0.3979888
4	0xbeae64a9	-0.34061173
5	0xbf3a1e03	-0.72702044
6	0xbebb13d8	-0.36538577
7	0xbee5c4b5	-0.44876638
8	0xbedf27af	-0.43584964
9	0xbf077902	-0.5291902
10	0xbea8db65	-0.32979885
11	0xbec73ded	-0.38914433
12	0xbef4a70d	-0.477837
13	0xbf04224a	-0.5161482
14	0xbea66fc7	-0.32507154
15	0xbf015c6d	-0.50531656
16	0xbeea2eb6	-0.45738763
17	0xbf3466d7	-0.7046942
18	0xbf341e1a	-0.7035843
19	0xbf44905c	-0.76782775
20	0xbf050fea	-0.5197741
21	0xbec53211	-0.3851476
22	0xbf3bb401	-0.7332154
23	0xbf278ac3	-0.6544611
24	0xbf34abff	-0.70574945
25	0xbebaa29d	-0.3645219
26	0xbe90cc68	-0.2828095
27	0xbed883b8	-0.42287993
28	0xbf1b9557	-0.6077475
29	0xbeb6c25e	-0.35695165
30	0xbefb2d63	-0.49058065
31	0xbf1f0b3f	-0.62126535
32	0xbec310be	-0.3809871
33	0xbec9dce0	-0.39426327
34	0xbf1b24e1	-0.6060315
35	0xbed90960	-0.42389965
36	0xbeb697ae	-0.35662597
37	0xbf345aae	-0.70450866
38	0xbeb92510	-0.3616109
39	0xbee887b7	-0.45416042
40	0xbf0da6a0	-0.55332375
41	0xbf3d86a7	-0.7403359
42	0xbf097920	-0.5370045
43	0xbf031e83	-0.5121843
44	0xbecfb8fd	-0.40570822
45	0xbec3a356	-0.38210553
46	0xbf13c9ac	-0.577296
47	0xbf27389f	-0.6532077
48	0xbea4369a	-0.32072908
49	0xbf1356e9	-0.5755449
50	0xbecd0555	-0.4004313
51	0xbf2e3475	-0.68048793
52	0xbef8a12c	-0.48560464
53	0xbf014c9a	-0.5050751
54	0xbf04da02	-0.51895154
55	0xbebbeadb	-0.36702618
56	0xbf3e82ae	-0.7441815
57	0xbf00dd2b	-0.50337476
58	0xbf1b14da	-0.6057869
59	0xbeeecd56	-0.46641034
60	0xbe8b4f37	-0.27208874
61	0xbf387ae5	-0.7206252
62	0xbf055d46	-0.5209545
63	0xbf1ebc85	-0.6200641

weight f4 [128, 256]
0	0xbecbdad0	-0.39815378
1	0x3f265828	0.64978266
2	0xbc07a753	-0.008279639
3	0xbf5d5b30	-0.86467266
4	0x3ed87961	0.42280105
5	0xbf0bde93	-0.54636496
6	0xbe287ed6	-0.16454634
7	0xbf81643c	-1.0108714
8	0x3d46268f	0.048376616
9	0xbf6b6b60	-0.91960716
10	0xbefd9826	-0.49530143
11	0xbf347327	-0.7048821
12	0x3f0f5ed0	0.5600405
13	0x3f8568fc	1.0422664
14	0x3f26e8d2	0.65199006
15	0xbeb58695	-0.3545424
16	0xbe80c9ea	-0.25154048
17	0xbdb3280c	-0.08747873
18	0x3e7a8beb	0.24467437
19	0xbee3150e	-0.44352
20	0xbdb23066	-0.087006375
21	0xbeec983a	-0.4620989
22	0xbe3a06b3	-0.18166618
23	0x3ec32606	0.38114947
24	0x3ea99f90	0.3312955
25	0xbf08e149	-0.5346876
26	0x3e80c350	0.25149012
27	0xbf48c5d6	-0.78426874
28	0xbf5570ee	-0.8337544
29	0x3f4b75e0	0.7947674
30	0x3f38ccf6	0.72187746
31	0x3f761625	0.9612754
32	0xbf12c9ed	-0.57339364
33	0x3f5dc757	0.86632293
34	0x3f95851c	1.1681247
35	0xbf4036ae	-0.75083435
36	0xbf0d51e2	-0.5520307
37	0xbfae4ee3	-1.3617824
38	0xbfac0d4a	-1.3441556
39	0x3e5a2c05	0.21305855
40	0x3f0f4120	0.5595875
41	0xbf327ae6	-0.6971878
42	0xbe61d781	-0.22054864
43	0x3e66f349	0.22553743
44	0xbd509c8c	-0.050930545
45	0xbffc6e5a	-1.9721177
46	0xbf9092b2	-1.1294768
47	0xbe987577	-0.2977712
48	0x3f3e3abf	0.7430839
49	0x3f9c18eb	1.2195104
50	0x3f1b7e98	0.6074004
51	0x3d668847	0.056282308
52	0xbd577fc5	-0.052612085
53	0xbf2ae71d	-0.667589
54	0x3d9e096a	0.07716639
55	0x3f05e25c	0.5229852
56	0x3da67b0d	0.08128939
57	0xbd9640e7	-0.07336598
58	0x3ec56839	0.38556078
59	0xbe2f9078	-0.17144954
60	0x3e4b7a54	0.19870883
61	0x3f2142b8	0.6299243
62	0x3f40061e	0.75009334
63	0xbfe21c8a	-1.766496
64	0x3e446af7	0.19181429
65	0xbe8d4601	-0.2759247
66	0xbe3fa3a8	-0.18714774
67	0xbe9a657a	-0.30155545
68	0x3ee3c4cc	0.44486082
69	0xbdbca502	-0.0921116
70	0x3de0df6b	0.109801136
71	0xbdf99483	-0.121865295
72	0x3fe2ddc1	1.7723924
73	0x3c99451f	0.018709717
74	0x3f2a2fb1	0.6647902
75	0xbf292763	-0.66075724
76	0x3c213dbb	0.009841378
77	0x3f097296	0.5369047
78	0xbebad186	-0.3648798
79	0xbeae896d	-0.34089223
80	0x3dd3e022	0.10345484
81	0x3e1b4c86	0.1516591
82	0xbf0e7397	-0.55645126
83	0xbecc9e68	-0.39964604
84	0xbefecc02	-0.4976502
85	0xbe1c13e6	-0.15241966
86	0xbdd2fa4f	-0.10301649
87	0xbf95be3a	-1.1698678
88	0x3e548ac0	0.20756054
89	0x3ec2f685	0.38078704
90	0xbde5252f	-0.11188733
91	0x3f8215e7	1.0162934
92	0xbec89ee4	-0.39183724
93	0xbe5bbb0c	-0.21458071
94	0xbf056345	-0.521046
95	0xbe81bdd2	-0.25340134
96	0x3ef8fa65	0.48628536
97	0x3c91faaf	0.01781973
98	0x3e954c87	0.29159948
99	0x3eb60491	0.3555036
100	0xbdbcfcc2	-0.09227897
101	0xbdfdd737	-0.123945646
102	0x3ef80378	0.48440146
103	0x3f6c2955	0.9225057
104	0xbf6882a2	-0.9082433
105	0x3ce1dc52	0.027570877
106	0x3e4eb046	0.2018443
107	0xbd501dbd	-0.05080961
108	0xbf3e2970	-0.7428198
109	0xbedb3345	-0.42812553
110	0x3f2ab86d	0.6668766
111	0xbe915e29	-0.2839215
112	0x3f259bb5	0.64690715
113	0x3eb626ae	0.35576385
114	0xbee93405	-0.455475
115	0x3dd65583	0.10465529
116	0x3e75bb12	0.23997143
117	0x3ee2c6bf	0.44292256
118	0x3e297f9e	0.16552588
119	0x3ea877ac	0.32903802
120	0xbf0fe025	-0.5620139
121	0xbce4caff	-0.027928827
122	0x3fc661c1	1.5498582
123	0x3c45cc62	0.012072654
124	0x3f4a6461	0.79059416
125	0x3d88dba2	0.06682517
126	0xbeb89781	-0.36053088
127	0xbee63e99	-0.44969633
128	0x3f258649	0.6465803
129	0x3ea57007	0.32312033
130	0x3ef8c57f	0.48588178
131	0xbe2b5eb0	-0.16735339
132	0x3df51a27	0.11967879
133	0xbd286fa1	-0.041122083
134	0x3994f022	0.00028407673
135	0xbdab3b58	-0.08360928
136	0x3ebd5fea	0.3698724
137	0xbe6ab6fd	-0.22921367
138	0xbdd6920b	-0.10477074
139	0xbdf3a7b0	-0.11897218
140	0x3c5c1e0a	0.013434896
141	0x3f2ba8c5	0.67054397
142	0x3e2e0389	0.16993536
143	0xbecf0fd1	-0.40441754
144	0x3f7fdc52	0.9994556
145	0xbeb67d86	-0.35642642
146	0xbec12c84	-0.37729275
147	0x3f0b6cfd	0.5446318
148	0xbee7542b	-0.45181403
149	0x3e1f803c	0.15576261
150	0xbdb0c9bd	-0.086322285
151	0x3f038b70	0.5138464
152	0x3f3e4c91	0.7433558
153	0xbde4eb60	-0.11177707
154	0x3de36a3f	0.11104249
155	0xbe8c5649	-0.2740958
156	0xbe92088f	-0.28522155
157	0x3ece18a2	0.40253168
158	0x3f4b704b	0.7946822
159	0x3eec596d	0.46161976
160	0xbe6db4e1	-0.23213531
161	0xbeb047af	-0.3442969
162	0x3f3a2f9f	0.72728914
163	0x3ed7b7b1	0.42132333
164	0xbf022f93	-0.5085384
165	0x3f0a3625	0.5398887
166	0x3f4669fc	0.7750547
167	0x3ecc59ac	0.39912164
168	0x3ecc841b	0.39944538
169	0xbf09c361	-0.5381375
170	0xbe0ae32e	-0.13563225
171	0x3e875711	0.26433614
172	0xbe391146	-0.18072996
173	0x3f6b2950	0.9185991
174	0xbf971749	-1.1803981
175	0xbe8a5ec4	-0.27025425
176	0x3f61b62f	0.88168615
177	0xbf6f7431	-0.9353667
178	0xbeb3b2ee	-0.3509745
179	0x3e5ce253	0.21570711
180	0xbeb68483	-0.35647973
181	0xbdaababa	-0.083363965
182	0x3d519be5	0.051174063
183	0xbe1cf0a6	-0.15326175
184	0x3d666584	0.056249157
185	0xbe86d54a	-0.26334602
186	0xbf3e3190	-0.74294376
187	0xbeaac014	-0.3334967
188	0xbf246ef2	-0.6423179
189	0xbf3e59af	-0.74355596
190	0xbd08b30e	-0.033373885
191	0xbf4c4859	-0.79797894
192	0x3de907ce	0.11378442
193	0xbf2389bd	-0.63882047
194	0x3e7feac7	0.24991904
195	0xbc68a375	-0.014199127
196	0x3e076f84	0.13226134
197	0x3d8fa2b3	0.07013454
198	0xbf52cdf1	-0.8234549
199	0x3f564569	0.8369966
200	0xbf24af55	-0.64330035
201	0xbedeebd6	-0.43539304
202	0xbf15fe30	-0.58590984
203	0x3f2c0945	0.67201644
204	0xbeaae675	-0.3337895
205	0xbd85381a	-0.06504841
206	0xbf575f45	-0.84129745
207	0xbd803a37	-0.062611036
208	0x3c2c63e2	0.010521861
209	0xbe879125	-0.26477924
210	0x3ea88cb5	0.3291985
211	0xbee3e1ac	-0.4450811
212	0x3f1e3afd	0.6180876
213	0x3dbcee57	0.09225147
214	0x3e4fa02d	0.20275946
215	0xbde97716	-0.11399667
216	0x3f560a50	0.83609486
217	0x3eb9011f	0.36133668
218	0x3ef287e1	0.47369292
219	0xbf81ab80	-1.0130463
220	0x3eb39b30	0.35079336
221	0x3d9e7743	0.07737591
222	0xbd492a7a	-0.049112774
223	0xbd94502e	-0.072418556
224	0x3f0c0bb5	0.54705364
225	0x3eb6ea31	0.3572555
226	0x3e0c6bfd	0.1371307
227	0x3f055f61	0.5209866
228	0x3df4a73e	0.119459614
229	0x3f1a079e	0.6016787
230	0xbddf94fe	-0.1091709
231	0xbe87b305	-0.2650377
232	0x3f0aa2cc	0.5415466
233	0x3f9a3ae7	1.2049226
234	0xbe6907b0	-0.22756839
235	0x3df9dd9d	0.122004725
236	0x3f2b1024	0.66821504
237	0x3eb31cd1	0.34982923
238	0x3f069311	0.52568156
239	0xbf0415c3	-0.51595706
240	0xbee72ada	-0.4514988
241	0xbe2382fe	-0.15967938
242	0x3e20a708	0.15688717
243	0xbec43b34	-0.38326418
244	0x3e41176f	0.18856595
245	0x3eb39bb4	0.3507973
246	0x3d362a09	0.04447368
247	0x3f69f751	0.91393
248	0xbdbb6586	-0.091502234
249	0xbee89482	-0.45425802
250	0xbe8455cb	-0.25846705
251	0x3d11cb9e	0.035594575
252	0xbed080ba	-0.4072321
253	0xbed49548	-0.41520143
254	0xbdb774d2	-0.089578286
255	0xbcaf8837	-0.021427257

bias f4 [128]
0	0xbeefef2a	-0.46862155
1	0xbeaa5158	-0.33265185
2	0xbe2c8e01	-0.16851045
3	0xbec7a094	-0.389897
4	0xbeb3eb44	-0.3514043
5	0xbf19697b	-0.59926575
6	0xbe8b3b4f	-0.27193686
7	0xbe710b94	-0.23539573
8	0xbed1031d	-0.40822688
9	0xbe98238d	-0.29714623
10	0xbebd4c39	-0.36972216
11	0xbf0f20fd	-0.5590971
12	0xbf16c93c	-0.5890081
13	0xbf39a60c	-0.7251899
14	0xbf520e0e	-0.82052696
15	0xbf2ef3be	-0.6834067
16	0xbe7451d5	-0.23859341
17	0xbf188d19	-0.595903
18	0xbf0773f9	-0.52911335
19	0xbf209003	-0.62719744
20	0xbe85c2da	-0.26125222
21	0xbf0bd81e	-0.54626644
22	0xbcb03271	-0.021508427
23	0xbead2c11	-0.33822682
24	0xbf4118c8	-0.7542844
25	0xbecf6c37	-0.4051225
26	0xbe33ddfe	-0.17565152
27	0xbe48a964	-0.19595867
28	0xbdf1a816	-0.11799638
29	0xbdb4493a	-0.08803029
30	0xbe1f31dd	-0.15546365
31	0xbf0c9773	-0.54918593
32	0xbec83350	-0.39101648
33	0xbf086423	-0.53277797
34	0xbf1f1927	-0.62147754
35	0xbe93e1be	-0.28883165
36	0xbf001c56	-0.5004324
37	0xbe32b288	-0.17450917
38	0xbec2ce7c	-0.3804816
39	0xbf046e36	-0.5173067
40	0xbe807157	-0.2508647
41	0xbf0a2dd3	-0.5397617
42	0xbeb2c678	-0.34917045
43	0xbef9208c	-0.48657644
44	0xbf56a262	-0.83841527
45	0xbf3cd7da	-0.73766863
46	0xbe3cabbf	-0.18424891
47	0xbe83a8a9	-0.25714615
48	0xbf2930d2	-0.6609012
49	0xbee5c256	-0.4487483
50	0xbdbf31db	-0.09335681
51	0xbed23688	-0.4105723
52	0xbed97728	-0.42473722
53	0xbf126cad	-0.57197076
54	0xbecf83a4	-0.4053012
55	0xbde72548	-0.11286408
56	0xbe9a2ba0	-0.30111408
57	0xbed31c2a	-0.41232425
58	0xbe1aa9c7	-0.15103827
59	0xbec7704c	-0.38952863
60	0xbe9d9c52	-0.30783325
61	0xbea8a8fc	-0.32941425
62	0xbee9c0e5	-0.4565498
63	0xbeafdbe9	-0.34347466
64	0xbe22f26f	-0.15912794
65	0xbe41ce00	-0.18926239
66	0x3d935de8	0.071956456
67	0xbf1174fc	-0.5681913
68	0xbecc724f	-0.3993096
69	0xbee627b8	-0.44952178
70	0xbea28f2b	-0.31749853
71	0xbee3c15f	-0.44483468
72	0xbf1c83e8	-0.6113877
73	0xbebef537	-0.3729646
74	0xbd0c4115	-0.034241755
75	0xbeecf150	-0.46277857
76	0xbf0957d6	-0.5364965
77	0xbdebe172	-0.1151761
78	0xbf2b89f4	-0.67007375
79	0xbf02ed86	-0.5114368
80	0xbeb4f2a2	-0.35341364
81	0xbe6df0d0	-0.23236394
82	0xbe9c3ab6	-0.30513543
83	0xbea36674	-0.31914103
84	0xbe3e6e2c	-0.18596715
85	0xbee9cd49	-0.45664433
86	0xbf21936f	-0.6311559
87	0xbf1451d6	-0.5793737
88	0xbefc4651	-0.49272397
89	0xbea96e11	-0.33091787
90	0xbec05679	-0.37565973
91	0xbea295da	-0.31754953
92	0xbe5f2220	-0.21790361
93	0xbea49587	-0.3214533
94	0xbf15d2ad	-0.5852459
95	0xbdc840ac	-0.0977796
96	0xbf19d7a6	-0.6009468
97	0xbee13969	-0.43989113
98	0xba496371	-0.00076823594
99	0xbe0530e6	-0.13006935
100	0xbf02bfb8	-0.5107379
101	0xbeb816e2	-0.35954958
102	0xbeba87c1	-0.36431697
103	0xbee9d7ae	-0.45672363
104	0xbef2d642	-0.4742909
105	0xbedcdb81	-0.43136218
106	0xbeb28dc9	-0.34873798
107	0xbef1323c	-0.47108638
108	0xbf1cf322	-0.6130849
109	0xbe399bb9	-0.1812581
110	0xbf147afa	-0.5800015
111	0xbf1d6784	-0.6148608
112	0xbe413555	-0.18868001
113	0xbe9c0999	-0.30476072
114	0xbf1dfab3	-0.6171066
115	0xbf0a34a7	-0.5398659
116	0xbe9c007f	-0.30469128
117	0xbef842bc	-0.48488414
118	0xbed19560	-0.40934277
119	0xbf59a6d3	-0.8502018
120	0xbed8cf75	-0.42345777
121	0xbe74b95b	-0.23898832
122	0xbf0bf1d1	-0.5466586
123	0xbf0d3370	-0.5515661
124	0xbf3f1d31	-0.7465392
125	0xbf4a83fa	-0.7910763
126	0xbe4b194a	-0.19833866
127	0xbef2416f	-0.47315547
