param/gnns/mutag_net.pt (torch, 61428 bytes, 25 tensors)

weight f4 [32, 14]
00000000: 3032 bebd 531c 333e 2f9b 70be ff4d f0bd
00000010: 6e1c 5ebd 0d45 933c f9c8 0f3d cbe2 9a3e
00000020: fc4a 17bd c747 5abe e490 9fbe 0838 0ebd
00000030: 40f8 b2be a277 b5be c288 edbd 99ad c83d
00000040: 1d1a 893d c782 843d 595a ebbd 4ea6 2ebe
00000050: 1135 5a3e 7a79 ab3e 334f fe3b d0ed c43e
00000060: eafa b83d 84cb 5d3c bcd6 c33e 5a55 edbd
00000070: 0f29 80be 2b52 3fbd 4549 4cbe 9960 8f3e
00000080: 3d59 2fbe 4f52 b1bd 658b 59be eafd 8fbe
00000090: 3f46 c3bb 599a 873e 3603 2d3e 1c6e 513e
000000a0: 40f6 5f3d fa77 2e3c f929 933d d140 8ebe
000000b0: fd4c 3ebe 39f5 88be 1fc3 663e 1f69 4e3e
000000c0: 98bc b7bd acf1 b0bd 0693 af3d 5234 823e
000000d0: 067a bcbc afee aebd 71ea a43d 39ab 83bd
000000e0: 8c67 9e3d fb46 46be 3ec6 9abe e1a9 40be
000000f0: 7e00 a13d 697d 5f3e c964 babe febf 043e
00000100: 7e7c a83e 5914 1fbd 1a49 17bc fe14 63be
00000110: 91eb 163e 2394 d83e 9dca 81be 60b6 27bc
00000120: f917 373e ed07 303e 6489 923e de8e 7e3e
00000130: f83d 8d3e 5b18 2cbe 4fa7 e23d 4e41 32be
00000140: a8dd d8be 787b fa3d 352a 103e 18dd cbbe
00000150: 98ee cb3c 6f22 7cbb 33fa 2dbd a1c1 28be
00000160: d801 2f3e 18bb 6dbe 4bd4 d23d 512b 343e
00000170: d29f 913e 6fe1 7bbe 67ed e4be 2146 1b3e
00000180: 4b5b d73d f8af f3bd c1c7 88be 6451 39be
00000190: 39e6 b73e 42c9 803e 1234 13be 74e7 95bd
000001a0: 255e 80be a66c 3e3d b8d1 3a3d 8978 26be
000001b0: 1f97 34bc 178e 133e 0e94 cbbd ff27 883e
000001c0: 25e0 66be 880e a63e a764 593e 10e6 a6be
000001d0: b074 00bc 7d34 5fbe 1ac5 b23e 253b 173e
000001e0: 0c3e 15bc 8b4b 673e 5c6a 47be 6809 323e
000001f0: 7f33 c8be 7a09 8dbe 3cf7 00be cc00 b5bd
00000200: 4690 b6bd 4293 14be a252 3dbd 8ba3 4a3a
00000210: 1dbd 98be 0577 4fbd 9efe c93e 3599 41be
00000220: b829 49be adcc 173e 2664 34bd afd0 e33c
00000230: f617 2e3e 2e5b 2d3e 3120 b63e 074f 4c3d
00000240: 84ec 87be c1a3 9ebd 5ead 2a3e 42fc bebb
00000250: b9f8 febd 0c86 c7be c63c 8abe a2bc 82be
00000260: 0bbc b5bd e80a 42bc e3c3 053e a0a6 8fbe
00000270: 44a8 203e e5e2 1abe 28fa 5ebd 2f86 a0bd
00000280: 1688 0abb fe9e 9fbd 5bdb 19be e9f9 80be
00000290: 7860 fc3d 6bf4 403d 321c eabd 5197 ba3b
000002a0: c462 a7be e0d3 bd3d 6114 bb3e 3417 30bd
000002b0: 6dff 8d3e 74ea d33d 0358 6cbe dd32 2c3e
000002c0: 1b1a c8bd a907 98be e048 2b3e 8f16 96be
000002d0: 3d35 52bd 3c9f f3bb 6e47 533e dc6b 013e
000002e0: ebed 78bd d02e 1c3e 515b ddbd 4bc2 763d
000002f0: 7fec 72be 1e4c 533d d675 9e3e bb59 c83c
00000300: d600 bdbe 144c 413e 5f7b 61be 34bd 0fbe
00000310: c79e 66be f99f 1f3e 3db1 55be 5bd9 3f3c
00000320: f0ff f23c 08f5 843e 2c7e 7ebe fe35 8fbd
00000330: 1b63 76bd 87ca 8a3e 1fc1 99be ed52 733e
00000340: 81d7 a8bc 19b8 b6bd cdb5 163d ed0b abbd
00000350: 907f 533d a2a6 73bd 4e1c e13b b20b 943d
00000360: d4a6 aebe 2db6 60be 44c7 793e 94f6 9abe
00000370: aab0 21be f46d b43e 435c e0bb 48f5 9dbd
00000380: 27c6 98be ed87 2b3e 9d29 12be d87b 0ebe
00000390: e40d b1bd ea3d 343d 417f 023e 43eb ca3e
000003a0: 9971 c23e 86f5 793e 406d be3e 9045 8dbe
000003b0: 712d 703e 4b8f 12bd 4cea 53be 761c 343d
000003c0: fd78 4c3e 8807 393e 7148 92bd 7915 36be
000003d0: f87a 163f d33a 4abe ab94 563e 0a77 063c
000003e0: 9596 07be ea6f 7bbd 7f44 dbbd 3818 073e
000003f0: 5893 4e3e e19b 21be 709b 1dbe 6e25 a7bd
-0.09286916 0.17491274 -0.23496698 -0.117336266 -0.05422633 0.017977262 0.03510377 0.30251154
-0.036936745 -0.21316443 -0.3116523 -0.034721404 -0.34955025 -0.35442835 -0.1159835 0.09798736
0.06694434 0.06470256 -0.11491842 -0.17055628 0.21309306 0.33491117 0.007760906 0.38462687
0.09032233 0.013537291 0.38249767 -0.11588545 -0.25031325 -0.04670922 -0.19949825 0.28003386
-0.17123885 -0.08658277 -0.21244581 -0.2812341 -0.0059593017 0.26484945 0.16895756 0.2045216
0.0546782 0.010648722 0.0718574 -0.27783826 -0.18584056 -0.2674959 0.2253537 0.20157288
-0.08971518 -0.08639845 0.08572964 0.25430542 -0.023007404 -0.08541619 0.08052529 -0.064291425
0.07734594 -0.19363014 -0.30229372 -0.18814804 0.07861422 0.21825184 -0.36405018 0.12963864
0.3290748 -0.038837764 -0.009233737 -0.22175977 0.14738299 0.4230052 -0.25349894 -0.010236353
0.17880239 0.17190523 0.28620446 0.24859187 0.2758634 -0.16806166 0.11067068 -0.17407724
-0.4235661 0.12230581 0.140786 -0.3981712 0.024894044 -0.0038472672 -0.042474937 -0.16480114
0.17090547 -0.23215902 0.10294398 0.17594649 0.28442246 -0.24597715 -0.44712374 0.15163471
0.105154596 -0.11898798 -0.267149 -0.18097454 0.35917833 0.25153548 -0.14375332 -0.07319537
-0.25071827 0.046490334 0.04561016 -0.16256918 -0.011022358 0.14409672 -0.099403486 0.26593015
-0.22546442 0.3243296 0.21229802 -0.325974 -0.0078403205 -0.21797366 0.34916002 0.14768656
-0.009109031 0.22587411 -0.19474167 0.173864 -0.39101788 -0.27546293 -0.12594312 -0.088380426
-0.08914237 -0.145093 -0.046221383 0.0007730058 -0.29831782 -0.050650615 0.3945207 -0.189061
-0.1964482 0.14824171 -0.04404082 0.027809469 0.17001328 0.16929314 0.35571435 0.049880054
-0.26547635 -0.07746077 0.16667697 -0.0058284113 -0.12449784 -0.38969457 -0.2699949 -0.2553454
-0.08873757 -0.011843421 0.13063006 -0.28056812 0.15689188 -0.15125616 -0.054437786 -0.078380935
-0.0021138242 -0.07793997 -0.15025084 -0.25190666 0.123230875 0.047108095 -0.11431159 0.005694308
-0.3269254 0.092689276 0.36538985 -0.04299088 0.27733937 0.10347453 -0.23080449 0.16816278
-0.09770604 -0.29693344 0.16727018 -0.29314086 -0.051320303 -0.0074347537 0.20632717 0.12638801
-0.06077377 0.15252233 -0.10808433 0.060243886 -0.23723029 0.051586263 0.30949277 0.02445685
-0.369147 0.18876678 -0.22019719 -0.14037019 -0.22521506 0.15588368 -0.20868392 0.011709536
0.029663056 0.25968194 -0.24852818 -0.0699272 -0.060153108 0.2710764 -0.30030152 0.23762102
-0.020610573 -0.089218326 0.036794472 -0.08351884 0.051635325 -0.059485085 0.0068698293 0.07228793
-0.34111655 -0.21944495 0.2439242 -0.3026625 -0.15790048 0.35240138 -0.006846936 -0.07712799
-0.29838678 0.1675107 -0.14273687 -0.1391443 -0.086452276 0.04400436 0.12743856 0.39632615
0.37977293 0.24410066 0.37192726 -0.27592134 0.23454835 -0.035781186 -0.20694846 0.043972455
0.19968028 0.18069279 -0.07142723 -0.17781629 0.58781385 -0.19749002 0.2095515 0.008207092
-0.13241036 -0.061386026 -0.10706424 0.13192832 0.20173395 -0.1578212 -0.15391326 -0.08161436

bias f4 [32]
00000000: 1939 383d 3d9b 54be f073 293e 2a0b f23d
00000010: 8104 833e 6232 053e ecf7 34be 479a 413e
00000020: 3480 ac3c d391 0a3e 02eb 90be 9184 94bd
00000030: 7bd5 4abe 4331 fabd 2a05 a33d 045a 37be
00000040: 95e5 863d de9e 843d 2e95 35bc 09bc 1bbe
00000050: 233a 46be 32fc b4bd 5e23 b63d 5d9c 3c3e
00000060: 7360 023e fcf2 29bc 6686 f83d cc8b 8abe
00000070: a399 37be dfbd d63d 3ec8 48be 0ea6 023e
0.044976328 -0.20762344 0.16548133 0.118185356 0.25589374 0.13007501 -0.176727 0.18906508
0.021057226 0.1353219 -0.28304297 -0.072518475 -0.19807999 -0.12216427 0.07959969 -0.17905432
0.06586758 0.06475614 -0.0110829305 -0.15208448 -0.19358115 -0.08837165 0.088934645 0.18419023
0.12732105 -0.010372873 0.121350095 -0.27059782 -0.17929702 0.10485434 -0.19607636 0.12758657

weight f4 [32, 3]
00000000: 2bf8 b7be 466e 8cbe 377c f3be 9fe1 713e
00000010: c529 06be c918 f73e cbd9 813e ab55 bf3e
00000020: 2a8b 253e e5cb 3ebe 926f 44be 576d 0cbc
00000030: 2a4e 893e abe5 38be f26d f93e 69d6 353b
00000040: b69b 14bf 78ce fdbe 3083 053f 10cb 063f
00000050: 9cde 21bf 3f03 ae3e b95b 9e3e 0703 e53e
00000060: 28e3 fb3e ca19 c9be d64f 343e 7a35 693e
00000070: 499d c2be 30cb 5d3e 5f3d 3bbe f207 863e
00000080: f051 70bd 2c34 8bbe c00b 1e3e 11dc 873e
00000090: cea4 77be 3c4d a93d e033 753e 5afa b0bd
000000a0: c2db 423e 4474 1ebe 64ea 5b3e 8c64 cebe
000000b0: e478 0bbf 053c 82be f9f6 003f 99bc b1bd
000000c0: 1894 913c f625 71be 2ef1 293f eac9 ea3e
000000d0: 6d68 dbbe 921a 97be 5ccf cfbe e78b 82bd
000000e0: 48ab b03c 3d2a c4be 9879 84be 3dae 673e
000000f0: 84fd 93be 72b0 133e b592 07be 7fe7 8fbe
00000100: 7889 3e3d 6ab5 133f 0d2e d4be 1012 50bd
00000110: d56e 62be 97bd ea3e 0e9d 0dbf 324f 23bf
00000120: 4787 0c3f bc22 51be bad9 6e3d 85df 12be
00000130: f4c2 bdbd 7eaa ebbd 7261 c83e a513 d73c
00000140: 8ca0 febe e864 cbbe 8338 25be dcb7 9d3e
00000150: 1fb7 7dbe 8e83 1b3f 15c5 31be 006b 82bd
00000160: adaf dc3e d113 ee3e f89a e43e dd2a 983e
00000170: 8558 41be 3175 bbbe dcc4 2bbd 6c5a e93e
-0.35931525 -0.27427882 -0.47555706 0.23621224 -0.13101871 0.48261097 0.25361475 0.37370047
0.16166368 -0.18632467 -0.19183186 -0.0085709905 0.26817447 -0.18056361 0.48716694 0.0027746207
-0.58050096 -0.49571586 0.521533 0.526536 -0.632303 0.33986852 0.30929354 0.44728872
0.49196744 -0.39277488 0.1760858 0.22774306 -0.38010624 0.21659541 -0.1828513 0.26177937
-0.05867189 -0.2718824 0.1543417 0.26535085 -0.24183962 0.082666844 0.2394557 -0.08641501
0.19029143 -0.1547404 0.21476132 -0.40311086 -0.5448134 -0.25436416 0.5037685 -0.0867855
0.017770812 -0.23549637 0.66383636 0.45857173 -0.42853108 -0.2951246 -0.4058789 -0.063743405
0.021566048 -0.38313475 -0.2587402 0.2262506 -0.28904355 0.14422777 -0.13239558 -0.28106305
0.04651782 0.5769869 -0.41441384 -0.050798476 -0.22112592 0.4584777 -0.5531777 -0.6379272
0.54893917 -0.20423406 0.05831311 -0.14343078 -0.092657 -0.11507128 0.39136845 0.026254484
-0.49731863 -0.39725423 -0.16134839 0.30804336 -0.24776886 0.6074761 -0.17360337 -0.06368065
0.4310278 0.46499494 0.44649482 0.29720202 -0.18881424 -0.36612847 -0.041935787 0.455768

bias f4 [32]
00000000: d609 1abe e85c 18bf 8016 333e 2a59 063f
00000010: ab33 2ebe 70ed eebe daf4 06bf 4a30 dc3d
00000020: a1b1 36bd f7d5 a5be bf8e d33c e8db 443e
00000030: 9c4c 023f a908 db3e 856e 93bd f9fb 01bf
00000040: d544 f6be f440 ec3e f079 5b3e 491f 873e
00000050: 63e4 f6be f32b 063f 16ea fa3e aa7b da3e
00000060: 41e4 00bf 186d 98be 7393 c2be 28fb 053f
00000070: aa4e 1cbe f25f 84be fdd3 7d3e 3056 84be
-0.15042815 -0.59516764 0.17489052 0.52479804 -0.17011897 -0.46665525 -0.52717364 0.10751398
-0.044602994 -0.32389805 0.025824903 0.19224513 0.50898147 0.42780045 -0.07198814 -0.50775105
-0.4809939 0.46143305 0.21433234 0.26391056 -0.4822112 0.5241081 0.49006718 0.42672473
-0.5034829 -0.29770732 -0.3800312 0.5233636 -0.15264383 -0.2585445 0.24787898 -0.25847006

weight f4 [75, 32]
00000000: 38da 8ebd 821d b9bc 064d debd 849d 0ebe
00000010: 7638 40bd a010 2d3d ad26 dc3d 80a9 26be
00000020: 4d94 c0bc f8a4 0b3d bcc9 b83d a4a2 173e
00000030: 797b 40be f4db 74bc 8d8f 2e3d d722 52be
00000040: b3ff 273e 13aa 2bbe 14a7 293e 8261 ec3c
00000050: 5d96 d4bd 3d4b ae3d d3cc 393e a6a9 023e
00000060: 01ac 0f3e afb4 a7bd d186 9e3d ae19 423e
00000070: 7415 50bc 0b07 273e ed26 d9bd d61e e53d
00000080: f65e a5bd f324 0abe 3d14 dfbd d84a 323e
00000090: b071 1abd 1075 2dbc 8954 1ebe 0527 04be
000000a0: 5967 b63d beba 8b3d 9981 96ba d2b9 49bd
000000b0: 7a4a a93d 4654 31be 8706 43be 0e69 f93c
000000c0: 1cbe 50be 153e 843d 633a adbc cfdf 053d
000000d0: 1385 633d 6845 393e c60a 1f3e 9e43 853d
000000e0: 70cd be3d 3406 03be 8673 e73d cc5a bebd
000000f0: 0e2d c53d 2362 ffbd bd95 44bd 8e7e 873d
00000100: 7503 ef3d 622c f43d 4672 a83d 05f7 413d
00000110: a22d 663d 6ee7 333e d4ce 103e 7e24 273d
00000120: fe21 07bd 55b5 4c3c 7695 5dbd 6881 763d
00000130: 7e85 15be e3fc 853d 427a 6b3e 975d 093e
00000140: ad80 eebd 8b29 803d a3b3 ce3d b68a 8cbe
00000150: 41f1 cf3d 0748 31be 8921 09be 4730 95bd
00000160: f712 a6bd a192 b5bd 9ee7 f43c 6efa ad3d
00000170: 4e7b 0f3d 8b8f ea3d a5bd 02be 9f7a 8fbd
00000180: fcc5 26be 9560 13be 9458 61bd 9eb9 e63d
00000190: 3918 d5bd faa9 17be 8d42 813d 84c1 b4bd
000001a0: 2c8c 4c3d 72e5 b6bd fd9c 133e 249c 8b3e
000001b0: 2cbb a0be 94f5 d33d a8de cebd 8ee2 db3d
000001c0: e06a c13d ef46 dbbd 7c69 3f3e 8b6d c63d
000001d0: f207 123e 6628 073e ca52 703d 40db 253d
000001e0: 8357 c03d 7719 10be 7ea1 db3c 8798 8b3b
000001f0: 3dbf 0bbe 2097 0a3d a53b 453b bd99 cfbd
00000200: b1c6 b3bd 5b4c 04be 51e4 483e 9e28 db3d
00000210: 7bb8 223e c7c1 09be bac7 66be 0145 f03d
00000220: 60bb f4bd 7feb b63d 88cc 603d f767 1abd
00000230: 19a9 dcbb 010c 263e 38e7 ee3d 648e 82bd
00000240: d3a5 1ebe 1ae3 f1bd 0326 ad3d 363b 023d
00000250: 3f78 513e ad95 b9bd 488f f7bd 5bd0 f13c
00000260: 1333 dcbd 1227 d8bd bebe 9b3d 7674 db3b
00000270: 5554 bd3d 8c83 283e 7a3e 213e 8d63 40be
00000280: 157c 2ebe c92d 17be 8eeb 33be 42d9 eebd
00000290: 91a9 fa3d 5ce6 2ebe 2944 f03d 9d75 b23c
000002a0: a1b4 a23b dc71 c33d 125f 5a3d 8b64 063d
000002b0: b9c3 7cbe bcbf 86bd 42a1 0d3d f99f 3d3e
000002c0: b8a9 29be 6606 83be f141 7e3e f40b 71be
000002d0: 60ec b03d cead e13c 3183 be3d 2f9d 03bd
000002e0: 4e57 233e e610 73be f1c7 4dbd 6513 2abe
000002f0: c299 943c 9110 93bd 9300 83be 3f48 b4bb
00000300: a223 2cbe df2f 08bd 544d ccbd 78d2 133d
00000310: d906 abbd d9f2 05bd 2373 833c 8771 dcbd
00000320: f219 45be cba2 18be f294 4a3e 6139 49bd
00000330: b0b0 d13d cdf6 6b3d e0c3 76be 4254 f3bd
00000340: e611 47be 0f67 3fbe 4733 d83d b0f0 a33d
00000350: ffd9 29bc 5a90 0c3d ba1c 8b3d e3c7 e83c
00000360: c6d2 87bd ee9c 62be 2b8c d4bd b53e 2c3c
00000370: d9be 3d3e 60ba 173c 36e9 163e afc7 7e3c
00000380: e907 23be 905f b03d 5335 593d 0bbc efbd
00000390: e890 9fbd 444b c6bc 0ae8 d13d ce07 f63d
000003a0: 434c 59bd 057e 933d cfcc 153e 47ec 91bd
000003b0: 2ec1 eb3d 7eb2 c2bc 8141 ca3d eed8 413e
000003c0: c718 75be bdb0 13be 482b 96bc 241c f33d
000003d0: adde 773c ffbb 41be bbc6 7a3d 605b d3bd
000003e0: 7040 753d a480 7d3d b2f0 92bd 0b8d bb3d
000003f0: 6916 21bd b410 aabd f739 da3c 0854 8d3d
-0.06975216 -0.022597078 -0.10854535 -0.13927275 -0.046928845 0.042252183 0.10749564 -0.16275597
-0.023508215 0.034092873 0.09022853 0.14808136 -0.18797101 -0.014945019 0.04261737 -0.20521103
0.16406135 -0.16764097 0.16567641 0.02885509 -0.10380242 0.08510444 0.1814454 0.12760028
0.14030458 -0.081887595 0.07740558 0.18955109 -0.012700427 0.1631128 -0.10603128 0.11187522
-0.08074753 -0.13490658 -0.10892532 0.17411363 -0.037706077 -0.010586992 -0.15461935 -0.1290551
0.08906431 0.068227276 -0.0011482715 -0.049249478 0.082661584 -0.17317304 -0.19045459 0.030445602
-0.20385021 0.06457154 -0.021146005 0.032684144 0.05554683 0.18092883 0.15531453 0.065070376
0.09316528 -0.12795335 0.11301331 -0.09294662 0.09627734 -0.1246989 -0.047994364 0.06615935
0.11670581 0.11922528 0.08224921 0.047354717 0.056195863 0.17568752 0.14141399 0.040806286
-0.0329914 0.012494405 -0.054097615 0.060182005 -0.14601704 0.06542375 0.22995856 0.13414608
-0.11645637 0.06257924 0.10092857 -0.27449578 0.101534374 -0.17312633 -0.13391699 -0.07284599
-0.08109086 -0.08865858 0.0298956 0.08495031 0.035029702 0.1145316 -0.12767656 -0.0700581
-0.16286463 -0.14392312 -0.055016115 0.112658724 -0.10405011 -0.14810935 0.06311522 -0.08825973
0.049938366 -0.08930482 0.14415355 0.27267563 -0.313928 0.10349575 -0.10101062 0.10736571
0.09444213 -0.10706889 0.18692583 0.096888624 0.14260843 0.13199005 0.058672704 0.040492296
0.093916915 -0.14072214 0.026810404 0.004260126 -0.1364717 0.03383553 0.0030095365 -0.10136745
-0.08778132 -0.12919752 0.19618346 0.107011065 0.15890686 -0.13452826 -0.22537127 0.117319115
-0.119498014 0.08931636 0.054882556 -0.037696805 -0.006734025 0.16215517 0.11665195 -0.06374815
-0.15492944 -0.11810894 0.08454516 0.03179475 0.20456026 -0.090617515 -0.120878756 0.029518297
-0.10751929 -0.10554327 0.076047406 0.006697233 0.09244601 0.16456431 0.15746489 -0.18787976
-0.17039521 -0.1476356 -0.17570326 -0.116625324 0.122393735 -0.17080063 0.117317505 0.021784598
0.0049653803 0.09543201 0.053313322 0.03281073 -0.24684037 -0.06579539 0.034577616 0.18518056
-0.16568649 -0.2559082 0.24829842 -0.23539716 0.08638835 0.027548697 0.093023665 -0.032132324
0.15951273 -0.23736915 -0.050239507 -0.16608961 0.018139724 -0.07180894 -0.25586376 -0.0055017765
-0.16810468 -0.03324878 -0.09975687 0.03608939 -0.083509155 -0.0327023 0.016046112 -0.10763841
-0.19248179 -0.1490585 0.1978338 -0.049126986 0.102387786 0.057608414 -0.24098158 -0.11881305
-0.19440421 -0.18691657 0.105566554 0.08004892 -0.010366916 0.034317352 0.067925885 0.028415626
-0.06631999 -0.22130176 -0.103782974 0.010512997 0.18529834 0.009260744 0.147374 0.015550538
-0.15920986 0.08611977 0.05302937 -0.11705788 -0.077913105 -0.024205811 0.10249336 0.120132074
-0.053051244 0.07201771 0.1462891 -0.071251445 0.115114555 -0.023766752 0.09875775 0.18930408
-0.23935233 -0.14422889 -0.018331185 0.11870602 0.015128774 -0.18919371 0.06122468 -0.10320163
0.059875906 0.06189026 -0.07174815 0.09157761 -0.039328013 -0.08303967 0.026638968 0.06900793

bias f4 [75]
00000000: ae6a 283d 3a92 1abc 26fe d83d 8c90 59bc
00000010: 6da1 29be c5dd f43c 07d4 1a3e 449d 13be
00000020: 5f56 343e 5cfa 003e 63ed 1ebd de42 8c3c
00000030: e5f7 003e b9bf 1bbc 9434 883d 8495 263d
00000040: a493 d93c 54ca 1fbe 7ded e9bd a55c 1d3e
00000050: ab47 0b3e b330 2bbc 7b18 a03e b111 d0bd
00000060: 4d66 243e 51ef debd 50b9 af3d 65b2 df3d
00000070: 5144 403d d5f7 eebb 0f79 dc3d d830 f03c
00000080: 5931 173e 957e babd 846f b73d 4c2f 3abd
00000090: ee0e 09be 8ec7 a53d cea6 ee3d b8b0 5d3e
000000a0: 6511 cdbd cbe8 ba3d f84e 433b d446 653e
000000b0: 4b1d 33be db65 26bd 2613 04be e347 ab3d
000000c0: c4af f73d 7765 373e fab9 b2bd 4e00 143d
000000d0: a28c 853d c93f 0abe a614 523e f2d2 df3d
000000e0: 72c2 8e3d 9830 47bd c9f1 143e 4cb0 f1bd
000000f0: 4697 02be ae8d 66bd c4ae 173c 1b5e 2d3e
00000100: acae 6d3d 748f 0a3e e360 e338 ddb5 203e
00000110: 4810 573e 492a 29be 602c 573e d669 073d
00000120: 3780 253e 9bd6 373e aa2b f43d
0.041117363 -0.009434277 0.1059535 -0.013279092 -0.16565485 0.029890904 0.15119945 -0.14415461
0.17611073 0.12595505 -0.03880061 0.017121729 0.12594564 -0.009506159 0.066506535 0.040669933
0.026559658 -0.15604526 -0.114222504 0.15367372 0.13601558 -0.0104486225 0.31268677 -0.10159624
0.1605465 -0.1088549 0.085802674 0.10922698 0.04694015 -0.0072927275 0.107652776 0.029320166
0.14764918 -0.09106175 0.08956817 -0.045455262 -0.13384601 0.08094703 0.11652909 0.21649444
-0.10013083 0.09126433 0.0029801708 0.223903 -0.17491643 -0.04062448 -0.1289793 0.08363321
0.120940715 0.179098 -0.087268785 0.036133103 0.06520964 -0.13500895 0.20515689 0.109289065
0.06970681 -0.048630327 0.14545359 -0.11801204 -0.12753019 -0.05628746 0.009257976 0.1693043
0.05802791 0.13531286 0.0001084225 0.15694375 0.21002305 -0.16520037 0.21013021 0.033059917
0.16162191 0.17952959 0.11922391

weight f4 [32, 75]
00000000: 78b8 5f3d db76 65bd 43a5 10bd 0efd 85bd
00000010: f773 853c 1aa9 113d 3305 ae3d 974a 1bbd
00000020: 9c8f 023e a6e7 93bd e717 863d a3b9 003d
00000030: ea5b 35be 1568 073c 2617 5abd 0a6e 893d
00000040: 15e2 213c 25ee bb3d 4fdc 1c3d 8605 f33d
00000050: 53da 9bbd 675b 193e fa05 02bd 60d8 05bc
00000060: 388e cf3d e8dd 7dbd 655e d9bc b3f9 eabc
00000070: 3b10 273d f206 be38 5859 e23d 771d 133e
00000080: 8a31 b23b 5822 0abe f107 2dbd 3590 cdba
00000090: 6f2f 80bd 9386 9a3d ee98 e83c 2422 11be
000000a0: 77bc b0bd c144 af3b 4d06 853d 7f64 ed38
000000b0: 67c9 6d3d 8757 923d 4492 f0bd 7407 23be
000000c0: 642a d23a 239b ef3c 1365 a5bd f0e9 32be
000000d0: f7d2 63bd 29e4 2c3d 201b 183e 8eae fc3d
000000e0: 0749 fbbd 39b4 bb3d 4069 ff3c b97b c3bd
000000f0: 8b67 123d 655b 6d3d 0e4b 64bc 28ef a0bd
00000100: 748a 8f3c 10ad 723d 8c09 dcbc 617f 33be
00000110: e2ff 193d e13b 253b 07b0 71bd e015 e2bc
00000120: 3d45 06bd 0259 f43c 6af5 ba3d 0afd 7b3c
00000130: 376d ee3d 0348 b3bc 2539 43be f572 ac3d
00000140: c21e 01bd 4c1c 7abe 3df1 8fbb dee6 2a3e
00000150: d28f b5bd c6db 023d 4a79 333d 0893 1f3d
00000160: eb9c 993d 2150 b83b 8430 8ebd 17e3 3ebd
00000170: 407c 51bd 2b65 cfba cde2 11bd f86e 6b3d
00000180: ceb9 b73d 96dd c5bd 756c 403c 6d29 c6bd
00000190: 843d 893d 2771 5b3d 50cb ed3d dc1c b73d
000001a0: 9b3f 0abe be2b fd3d c383 3fbd 2243 41bd
000001b0: a544 863d 8b1e 1dbc 7964 fcbd 7fcd 22bd
000001c0: e1ff 12bd 2cf3 06be 4c08 183c 0979 0bbd
000001d0: c5e7 aebc 2ddc d73d 42cb 7ebd 3ecb a03d
000001e0: 27ba 263e 323a eb3c 106f e23c 4a4f 91bd
000001f0: cf98 6a3d 3fea b13d 702e 94bb a98a b23d
00000200: 3f50 8cbd e79e 5b3d 8389 053e af94 e7bd
00000210: 69ec e83c 8a4d 24bd 099f d9bd fc0a 45bc
00000220: f20b 8abd ab82 6fbc 6164 a4bd 1cd1 da3c
00000230: 2f1a b2bc 9e7d 28be a0cd b83d 7f60 8e3d
00000240: c2eb 1fbe a7dc e13c 49db d9bd da4e b83d
00000250: b497 adbd c808 dc3d 34fe fcbd d00f 63bc
00000260: 8a31 613d 5890 ad3d b799 edbc 9e90 733d
00000270: 468b e23c 688a 283e 6d57 b7ba ee91 bf3c
00000280: 1e92 593d 3c6b 933d 9f95 a23d 3645 193e
00000290: b36b 213e a1ca 41bd f150 a2bc b776 58be
000002a0: 1398 553d 6121 0ebe e159 53bd 8b58 15be
000002b0: f63d ceba a4d5 403d aec1 2d3d ae5d 0a3d
000002c0: d2d2 c23c a778 b13b 5f92 903d e50d 7a3c
000002d0: d334 1bbc f703 80bc b477 823d 831d f0bd
000002e0: 2e34 303d d535 033d 6e63 e7bc bd9f 863d
000002f0: 50d1 00bc 5a26 2cbd 6d93 7a3c 8588 02be
00000300: 5483 4e3c 309a a23d b7a0 89bc 89f5 1f3e
00000310: 7032 c13c aff4 8b3d 1a55 4e3b a580 b63d
00000320: c7c6 3e3d a9ee 62bc 3b84 333d e5bf f33d
00000330: 6314 b8bd f494 9ebd bfc0 50bc 62dd 33bd
00000340: a315 753e 7d06 a63d d3aa 30be 8cd1 363c
00000350: cb02 1ebe 37e6 2a3c 0192 d3bd 22f3 eabc
00000360: 63c7 df3d 9300 203c e0c2 1c3e d805 6dbd
00000370: c858 8bbb 6fb2 b53c c8cf ae3c 5fe0 1fbe
00000380: be72 7abd 5622 efbd dd25 39bc 77d4 263d
00000390: 4783 b83d 7a56 d83b 1783 a3bd b3dd 68be
000003a0: 47dd 8e3d 4153 e6bb 7b3e 1dbe 8203 d1bc
000003b0: a75d 0fbc 97bf 55bd c69e 813d 6e8a 25bd
000003c0: 8881 b03b fcc4 1e3e bebd 3dbd 0f06 283b
000003d0: 179e 69bd f7c1 94bd add2 e1bd 1a5f 2a3d
000003e0: 05ba 98bc f5ce c03c 2da3 d93c 1867 0d3d
000003f0: e459 d9bd 9e61 40bd fe29 d9bc 98c7 3fbe
0.054619282 -0.056021553 -0.035313856 -0.06542407 0.016290648 0.03556166 0.084970854 -0.03791293
0.12750095 -0.07221918 0.06547528 0.031427037 -0.17710844 0.008264561 -0.053244732 0.067104414
0.009880562 0.09176282 0.03829604 0.11866288 -0.076100014 0.14976273 -0.03174398 -0.008169264
0.10134548 -0.061979204 -0.026534269 -0.028683519 0.040786963 9.0612e-05 0.11052197 0.14366709
0.0054380344 -0.13489664 -0.0422439 -0.0015683236 -0.06259047 0.07545199 0.028393235 -0.1417318
-0.08629697 0.0053487723 0.064953424 0.000113197595 0.0580534 0.07145601 -0.11746648 -0.15920812
0.0016034362 0.02924878 -0.08075919 -0.17472053 -0.055621114 0.042209778 0.14854097 0.12337981
-0.12269788 0.09165234 0.031178117 -0.095450826 0.035743278 0.05794849 -0.01393391 -0.078581154
0.017522074 0.059247077 -0.026860021 -0.1752906 0.037597544 0.0025212693 -0.059005763 -0.027598321
-0.032780875 0.029827598 0.0912884 0.015380153 0.11641925 -0.021884924 -0.19064768 0.08420364
-0.031523474 -0.24424857 -0.0043927715 0.16689631 -0.08865322 0.031947874 0.043816842 0.03895858
0.07500633 0.0056247865 -0.06942847 -0.04660329 -0.051143885 -0.0015822997 -0.035616685 0.057478875
0.08970986 -0.09661405 0.011744608 -0.0967587 0.06701186 0.053574707 0.116110444 0.08941051
-0.13500826 0.12361859 -0.046756517 -0.047183163 0.06556062 -0.009589802 -0.12323851 -0.039746758
-0.035888556 -0.131787 0.009279322 -0.034050975 -0.02135075 0.10540042 -0.06220556 0.07851265
0.16281949 0.028714273 0.02764085 -0.07095201 0.057274636 0.08687257 -0.0045221373 0.087178536
-0.06851243 0.053618338 0.13040738 -0.11307656 0.028433042 -0.04011301 -0.10626037 -0.012026545
-0.0674056 -0.014618556 -0.08026958 0.02671104 -0.021741001 -0.16454169 0.09023595 0.06951999
-0.15617278 0.027571036 -0.106375284 0.08999415 -0.08476201 0.107438624 -0.12353173 -0.01385875
0.054978885 0.08474797 -0.029003961 0.05946409 0.027654301 0.16459048 -0.0013987847 0.023385014
0.053117864 0.07198188 0.07938694 0.14967808 0.1576374 -0.047312383 -0.019813986 -0.21139036
0.052146982 -0.1387992 -0.051599387 -0.14584558 -0.0015735019 0.047078744 0.042421035 0.033780746
0.023782168 0.005415994 0.07059168 0.015262102 -0.0094730435 -0.01562689 0.06370488 -0.11724379
0.043018512 0.03203376 -0.028245654 0.065734364 -0.007862404 -0.042028762 0.015293938 -0.1274739
0.012604553 0.07939565 -0.016800268 0.15621008 0.02358362 0.06833779 0.003148383 0.08911256
0.046576288 -0.013850846 0.043827277 0.11901835 -0.089882635 -0.07743254 -0.012741267 -0.0439123
0.23934035 0.08106706 -0.17252664 0.011158358 -0.15430753 0.010430864 -0.103305824 -0.028680388
0.10926702 0.009765762 0.15308714 -0.0578669 -0.004252527 0.02217981 0.021339312 -0.15612935
-0.061144583 -0.11676471 -0.011300531 0.040729966 0.09009414 0.0066021057 -0.07983988 -0.22740822
0.06975799 -0.0070289676 -0.15355866 -0.025514368 -0.008750356 -0.052184667 0.06329112 -0.04041522
0.005386535 0.15504831 -0.04632353 0.0025638377 -0.05703553 -0.07263558 -0.11026511 0.041594602
-0.018643389 0.023536185 0.026567066 0.034522146 -0.106128484 -0.046968095 -0.026509281 -0.18728483

bias f4 [32]
00000000: 66cc e63b 0970 80bc 2d0f e43d 74d5 3dbe
00000010: 3568 b33d 1d02 a83d 89b1 c73c c804 763d
00000020: e257 9f3b 1d51 8a3d 5bb9 96bd f706 43bd
00000030: 6d8b 7fbd c634 4c3e 1769 e4bd 25d2 f7bd
00000040: 6145 0abe 8ceb 40bc 773c f13c fe92 c13b
00000050: 150e 52bc ed82 8b3d 4d2c 023b 941f 363d
00000060: 9dcd 093e 373a c1bd 194b 91bd 9f42 963d
00000070: 656b a3bd 4548 5e3d 5828 a3bd fc93 083e
0.007043409 -0.015678423 0.11135707 -0.18538457 0.0876011 0.08203528 0.024376648 0.060063154
0.0048627714 0.067537524 -0.073595725 -0.047614064 -0.062388826 0.19942006 -0.11152857 -0.12100629
-0.13503028 -0.011774909 0.029447777 0.0059074154 -0.01282074 0.068120815 0.001986283 0.04446371
0.13457341 -0.09434932 -0.07094402 0.07336926 -0.07979468 0.05426814 -0.07966679 0.13337702

weight f4 [75, 32]
00000000: 0151 fe3d cb6a a0bd 837e da3d d350 cdbd
00000010: 0851 2b3c 907f 4ebc 4066 be3d 9555 92bd
00000020: b0a1 223e 6b5c d53c 192b bbbd fa8d a9bd
00000030: 66a1 74be 967b be3d a5ee df3d bc1c 2cbe
00000040: 3582 aabd d91a 0e3e e74f 0c3e a6d5 f73d
00000050: c4e2 0a3e bf01 e0bd 3559 263e 931f 4dbe
00000060: 0109 2cbe 0a7e eb3d e67e 85bc e49f 0a3c
00000070: 1410 92bd 8809 c13d 9494 d73d 0aa1 733d
00000080: 5801 55bd 4fe0 6e3b 1910 f6bd 1a54 0cbe
00000090: 0880 a7bd 4c53 953d 4d2a 8b3d 2ad9 a33d
000000a0: 560d d53d e64b 9ebd 301b 813c e6fc 633e
000000b0: a65e 923c 2ee8 fa3d 2fef ca3d c64e 33be
000000c0: fc84 ffbd 6213 4d3d 57de 88be 5355 203d
000000d0: 098a 153e 502c 983d eaf1 383e 9ce6 c9bb
000000e0: 4126 b43d 310f 13be c918 5abe 0557 91bd
000000f0: a4e7 043e b191 4fbe b1c1 5cbe ad0d 81be
00000100: 823c 81be 219e 7c3d e8a5 203e 7966 ea3d
00000110: 3f72 56bd 19a1 3d3e 6157 abbe beca 4dbe
00000120: 70da 8b3d 7d81 b7be 5979 903d 68bb 6b3e
00000130: 09a4 2d3d 9de7 d9bd 72fe 24bd 9db0 0ebd
00000140: 9fd4 0a3e 6e7f 8abd aa85 413d db1b f7bc
00000150: 73d9 81bd c0a0 123e eeaf 4bbe f215 d53d
00000160: 440b 29bd 2ec7 f5be 7d5d 6dbe a23d dabd
00000170: 1e50 c7bd 1cfd 0ebe eb72 d6bd 1123 5b3d
00000180: cae1 debd 8b4d 49bd 1e50 0a3e aca4 be3d
00000190: bce3 443e 58cc a9bd fc11 ffbd 41b3 443d
000001a0: 4579 75bd 0f9e d8bb 4b7e 303d 913c b43c
000001b0: 7afe c33d 9632 07bc 7b3a 913c b88c 57bd
000001c0: 4be4 573a f1f3 26be 3057 86bd c9c7 763d
000001d0: bf6d 9abd 7fbc b83d 4a7f 753d 4551 0a3d
000001e0: ede0 443d fc08 30be 309d b53d 8117 9b3c
000001f0: 6e5d 693e 8c42 0bbe bda8 bfbc 49f7 a53d
00000200: 744e 42bd 5074 2abd 3378 79bc 2b62 633d
00000210: 2211 56bd d3a1 2d3e ef94 603d 3547 da3d
00000220: c2c0 7b3d d2d6 c5bd f005 b43c cb48 a33c
00000230: e5e7 5dbd 4185 1cbe 9a68 34be ccce 6c3d
00000240: a221 813d d66c 073e 1f13 393e 0f3b a5bd
00000250: c371 76bb 88d7 653c 1769 773a 7244 253e
00000260: 2ac6 f5bd 013c 5fbd 5f81 92bc 4753 e2bd
00000270: 63fd c53d 52fa 35be e1e1 13be a36b 3cbe
00000280: f62f 793d 87c9 1bbe a84a 3f3d 1dc8 f4ba
00000290: e726 d63d f02e 13bc 81ff 0f3b 82e6 b63d
000002a0: 8768 aa3c bab9 073e a853 0abe 5da9 f6bc
000002b0: 228b 41bd 8b65 febd 8d01 19be 373e 08be
000002c0: 2002 6d3c 624f 9c3c 5b00 20be b379 0bbe
000002d0: 53a8 d73d 5c01 4f3c ca05 1bbe 8a47 dcbb
000002e0: fa73 a93d 402c 403e 844b 93bc c857 3d3e
000002f0: df43 c9bd 69dd 123e c15e 4abe 3980 6dbd
00000300: 74f1 19be 09bb a9bd 58b5 3c3d 02d9 883d
00000310: b13d ca3d c5f1 0b3e 5b9d 94bd 83c8 fdbd
00000320: 31ef a83c 120b 1cbe 8502 c9bd 0211 6abd
00000330: 5335 38be ec81 6ebd 6ea5 4c3c 72a9 88bd
00000340: 4052 c8bd 62c2 f1bb 5a86 d0bd f354 c1bd
00000350: 9073 01be 03e2 a3bd f797 0bbb d51d d6bd
00000360: 842c 03be b080 13be e9e9 3bbe a14f 673c
00000370: 9923 41bd 45f1 eb3c 199e a0bd 4705 363d
00000380: 9642 183e 9d43 403c f2d7 c73d aff4 273e
00000390: b749 3b3d 7eb2 a73d 5dcc 20bd 62c5 27be
000003a0: d4d8 13bd ddec d13d e15e 9e3d 64c5 623d
000003b0: 45fa 38bb 463d d2bd 2206 393c cf46 fdba
000003c0: 3864 143d f1b2 8d3d 5df6 673b 4c7b bf3d
000003d0: 883d 59be fd8d 11be 5817 3abe eee1 ae3d
000003e0: c7b2 bfbd 11dd d9bd 08d2 df3d 61c9 89bd
000003f0: 6ee3 953d 3f21 de3d c687 de3d 8760 78bc
0.12417794 -0.07832869 0.106686614 -0.100251816 0.010456331 -0.012603655 0.092968464 -0.0714523
0.15881991 0.026045045 -0.091390796 -0.08279033 -0.23889694 0.09300916 0.1093419 -0.16807836
-0.08325616 0.13877429 0.13702355 0.12101297 0.13563067 -0.10937833 0.16244967 -0.20031576
-0.1680031 0.114986494 -0.016295861 0.008460972 -0.07131973 0.09425646 0.10526386 0.05947975
-0.052003235 0.0036449616 -0.12014789 -0.13703957 -0.08178717 0.07291278 0.067951776 0.08000405
0.10402934 -0.0772932 0.015760034 0.22264442 0.017867398 0.12251316 0.09908902 -0.17510518
-0.12476537 0.050067313 -0.26732132 0.03914387 0.14603437 0.07430327 0.18061033 -0.006161524
0.08796359 -0.14361264 -0.21298517 -0.07096676 0.12978989 -0.2027042 -0.21558262 -0.25205746
-0.25241476 0.06167424 0.15688288 0.11445326 -0.052355047 0.18518485 -0.33465102 -0.20096871
0.06828773 -0.3584098 0.07054395 0.23020709 0.042392764 -0.1063988 -0.04028172 -0.0348364
0.13557671 -0.067625865 0.047246613 -0.03016465 -0.06340303 0.14319134 -0.1989133 0.10404576
-0.04127051 -0.48003525 -0.23180194 -0.10656287 -0.09732078 -0.13963741 -0.104711376 0.05350024
-0.108829096 -0.049146216 0.13507125 0.093087524 0.19227499 -0.082909286 -0.12454602 0.048022512
-0.059930105 -0.006610639 0.043089192 0.022001537 0.09570022 -0.008251807 0.017728081 -0.052624434
0.00082356174 -0.16303994 -0.065595984 0.060249124 -0.07540464 0.09020328 0.059935845 0.03376891
0.04806607 -0.17190927 0.08867872 0.018932106 0.22789547 -0.13599604 -0.02339589 0.081038065
-0.0474381 -0.04161483 -0.015226412 0.055513542 -0.052262433 0.16956262 0.054829534 0.10658113
0.061463125 -0.09660114 0.021975487 0.019932171 -0.05417623 -0.15285207 -0.17618027 0.057814404
0.06305243 0.13225111 0.180737 -0.08067905 -0.0037604428 0.014028437 0.0009437962 0.16139391
-0.120006874 -0.054500584 -0.017883955 -0.1105104 0.0966747 -0.17771271 -0.14441635 -0.18400435
0.060836755 -0.15213595 0.046702057 -0.0018675361 0.10456639 -0.008983359 0.002197236 0.089306846
0.020801796 0.13254443 -0.13508475 -0.030110056 -0.047251828 -0.124217115 -0.14941998 -0.13304983
0.014465839 0.019080821 -0.15625136 -0.13620643 0.10530152 0.012634601 -0.15138927 -0.0067223953
0.08274074 0.1876688 -0.017980345 0.18490517 -0.098273985 0.14342274 -0.19762708 -0.05798361
-0.15033513 -0.08287627 0.04607138 0.06682016 0.09875048 0.13666447 -0.07256576 -0.1239176
0.020621868 -0.15238598 -0.09814934 -0.057145126 -0.17989092 -0.058229372 0.012490613 -0.06672944
-0.09781313 -0.0073779086 -0.101818755 -0.09440031 -0.1264174 -0.08002093 -0.0021300295 -0.10454909
-0.1280995 -0.14404559 -0.18350948 0.014118106 -0.04715309 0.02880157 -0.07842655 0.044438627
0.1486915 0.01173487 0.09757985 0.16401933 0.045724597 0.081883416 -0.039257396 -0.1638389
-0.036095455 0.10250256 0.077329405 0.055364028 -0.0028225344 -0.10265593 0.011292966 -0.0019323471
0.03622839 0.06918896 0.0035394647 0.09349689 -0.21214879 -0.1421432 -0.18172967 0.085391864
-0.09360271 -0.10637868 0.10928732 -0.06727863 0.073187694 0.10846185 0.108657405 -0.015159733

bias f4 [75]
00000000: a5fb d7bd 226c fa3d 343c b03c 1828 49bd
00000010: 1e4d b0bd 9007 e73d 54d5 1a3e 371b e03b
00000020: b7bd 68be 8639 a7bd 199b 193e bc6a b13d
00000030: a27f fb3d 5be8 ec3d 8253 96bd 4142 0d3d
00000040: 7e53 fcbd 6889 9ebd c6d1 a9bd 6018 1e3c
00000050: db31 e73c 9f6c 183e 99f2 2a3e 5dc0 2bbe
00000060: 5aa3 32bd c59f b2bc 50f9 8b3d 5a8b 8e3d
00000070: 35a6 5e3e c619 173e 7b2a 0b3e 6e8f 1bbe
00000080: 8139 0cbe b5c8 f1bd f4d4 bfbd c2ac 87bd
00000090: 6168 093e 029e 8dbd 2f6c 0b3e 21d0 1a3e
000000a0: 1fbf 9a3e b28f d13d 94cc f9bc 13e5 e13d
000000b0: 2e77 e3bd aea0 de3d c317 303e 67e3 563e
000000c0: ec82 05be 0377 62bc 926e 143e 971e 57bd
000000d0: 5da6 6b3d e717 efbd a1c8 ba3d 51d2 86bc
000000e0: a2f5 4abd b01c dc3d a2a7 42be e30c ab3d
000000f0: 6291 2c3c 07d9 95bd d0d2 babc 3703 7dbe
00000100: 9dcf 063e 6360 bfbd 7bcf 90bd 6ea9 0f3d
00000110: bf21 463d f3e5 113e ef8c e03d 7f0a fbbc
00000120: 5308 9f3d 821e 143e 7839 ee3d
-0.10546044 0.12227656 0.021513082 -0.049110502 -0.08608459 0.11280739 0.1512044 0.0068391818
-0.2272862 -0.081652686 0.15000571 0.08662936 0.122802034 0.11567756 -0.073401466 0.034487013
-0.12320612 -0.07741052 -0.08291964 0.009649366 0.028222015 0.14885186 0.16694106 -0.167726
-0.043612815 -0.0218047 0.06834662 0.06960173 0.2174309 0.14755926 0.13590424 -0.15191433
-0.13693811 -0.1180586 -0.093667895 -0.06624748 0.13418724 -0.06914903 0.13615488 0.15118457
0.3022394 0.10232486 -0.030493058 0.110300206 -0.11106716 0.10870491 0.17196564 0.20985185
-0.13038224 -0.01382232 0.14495304 -0.052519407 0.057531703 -0.11674481 0.09120298 -0.016457709
-0.04955066 0.10747659 -0.1900926 0.08352067 0.010532709 -0.07316785 -0.022805601 -0.24708258
0.13165136 -0.09344556 -0.07070824 0.03507369 0.048372027 0.14247875 0.10964381 -0.030644653
0.077652596 0.14464763 0.11632055

weight f4 [32, 75]
00000000: 2892 9c3d 19bd 02bd 8e24 71bd 55fc 5c3c
00000010: 6f45 363b 1e2b a1bd 3de7 f73c d86c 633d
00000020: 80ff 01bd e1dd cbbd 983f 563d 2c84 dd3d
00000030: ab66 b53d 56c0 a73d fc18 6cbd eab8 2cbe
00000040: d50e c53d d19a 443e 5828 d7bd a939 7c3c
00000050: 77a1 0f3d 383d a8bd e194 163d 5c09 823d
00000060: a3b7 02bc 4388 bd3b eefc 353d 32f8 6c3d
00000070: 1dd2 9dbc a528 1d3e 4a88 4abd 2b57 f93d
00000080: 3d35 4e3d 377d bd3d 2b94 f13d f719 213d
00000090: 5f44 fdbc 2376 f1bd c7a8 c33d f86c 703d
000000a0: 277c 96bd 96ca ac3d 4277 053d 8065 27bd
000000b0: e020 16bd b827 b3bd 8345 94bd d4ee 4c3c
000000c0: 5e86 cdbc bce6 0abc 86b6 f03d 0754 ca3d
000000d0: a0cf ca3d f3a6 bf3b cbd2 91bd f15a 7dbe
000000e0: 0791 8cbd 554c ac3c 247f 90bd 42c2 fb3c
000000f0: 4822 b83c 013a 7a3e a80c a93d eec9 853c
00000100: 7605 8ebe 39d9 8f3c 5254 b93d 3d11 b33c
00000110: edff 963d f766 e23d b4c0 1b3e 36ee fdbd
00000120: 5fbe cd3d f97c c73d f8d0 8fbd 7485 00be
00000130: 60c8 4d3c 35ed a9bd 8afa 733d 645c 03be
00000140: b6e0 c73d 2953 a03c af11 083c faa6 53bd
00000150: c91e d13d bcaf d03c db6c cebd 6f9d 163d
00000160: 5ad2 3a3c c563 6b3c a53b 0cbc 3d69 aa3d
00000170: 7e37 bb3d 967c 9d3a 3848 2d3c c7a5 b1bd
00000180: fa2d 8bbd 53cc b33d 1410 a53d 941c ec3d
00000190: ec2c 26bd 53f5 8abd 2760 49bc 69c7 b1bc
000001a0: 38c3 88bd 1df9 673c 6103 b43d d0d2 e0bd
000001b0: dce9 adbd 8ac6 06be f393 893d 170d bc3d
000001c0: dd4d 883d f7dc c8bc 794e 313b d68d 9cbd
000001d0: fca6 0cbe c0e1 47bc 8704 193d 6c09 78bc
000001e0: a30a b9bd cdd3 ac3b 9a5c 153e 42f5 94bd
000001f0: fb23 b73c b5e3 7fbd e96d 9d3d 1c9f 00bd
00000200: 0a90 8abd 6d9e b2bd c052 293d 66da 8bbd
00000210: 3fee 36bd 8fb7 6fbe 13b1 e83d 1700 6b3d
00000220: a12c 90be 32ff 1fbd 3a9c f03d 32ff 1e3d
00000230: 8b46 8a3d 702b 763d 3d67 493d b903 063e
00000240: 61dc 58be fcda 0e3e 0663 5e3e 0993 e9bd
00000250: cbbc 2f3d afee e3bd 8d36 403e a1cc dfbd
00000260: f0ca 3a3e c517 7cbd 6519 003d 0227 763e
00000270: cb25 debc 8452 5abd 7dd0 943d 19f0 923d
00000280: 1ac5 6b3c 54c9 1a3d 614f 11be 5b8d 443e
00000290: 25bb f83c dc5b 833d 2c1a 533d 2743 7a3d
000002a0: 0ada 3f3d 3bc1 0b3d 6ebb 973c e9b0 4bbd
000002b0: 8d44 5a3c 82e5 db3c f641 d63d 7457 41be
000002c0: 1212 703d 458b 2e3d 6d04 223d 9aab debc
000002d0: a3da dabb 1df1 d1bd 6aa1 a43d 52b4 4c3e
000002e0: 0eb6 a23c c69b 0e3e 69af 26bd 3b75 013b
000002f0: cdc4 4d3d 7e59 2bbd ae20 d33c 6634 aa3c
00000300: fa4f 40bd 24b7 b93c 1212 5d3d 9e1f d23d
00000310: 42d5 e13d b37d 80bd 59d0 fabc e37c 163c
00000320: a76c adbd bd9a 283c 1360 cc3d 8cce 31bd
00000330: 6142 59bd b81a a8bd f759 a9ba 3a2c 75bd
00000340: 8d0a f6bd 286d 13be 4755 a2bc 04ff 86be
00000350: 63a6 b23c 3872 5abd 573a 373e dba7 d4bd
00000360: f8f9 a93d b331 cdbd 5948 c23d 81aa a4bc
00000370: 1720 88be 7604 d63c 0dcb 023e 3a43 1bbe
00000380: 09df 1bbd fa9a 57be 4d7e 2e3e 592a 2a3d
00000390: 8581 99bd fd96 9abc 8fb9 f83d 7514 ee3d
000003a0: 64ad 953c c4bd 683d 9177 b83d 6379 a53c
000003b0: 561d 87bd 502f 26b8 7e99 f63b 411a babd
000003c0: eb5d 833d 2f80 b93c 6ae2 433d 8fa5 cb3d
000003d0: c19a 0f3e 3b5f 993c 700b f53b b10d a5bd
000003e0: 2c6b 53bd 0789 023e 82f7 173d 04cc 1bbe
000003f0: d148 31bb feaf 22bc 898d d7bd 6de4 1b3d
0.076450646 -0.03191862 -0.058872752 0.013487895 0.0027812382 -0.07869552 0.03026163 0.055523723
-0.031737804 -0.099544294 0.05230674 0.108162254 0.08857473 0.08190982 -0.057641014 -0.16867414
0.096219696 0.19199683 -0.10505742 0.015394607 0.035066094 -0.082148015 0.036763076 0.063494414
-0.007978353 0.005784066 0.044430666 0.057853885 -0.019265229 0.15347536 -0.04944638 0.12174829
0.05034374 0.092523985 0.11795839 0.039331403 -0.030916391 -0.11790111 0.09553676 0.05869767
-0.07347899 0.08437078 0.032584436 -0.040868282 -0.036652446 -0.0874781 -0.07239821 0.012508113
-0.025088485 -0.008477863 0.117535636 0.09879308 0.099028826 0.0058487593 -0.07120284 -0.24741723
-0.06863599 0.021032492 -0.070555 0.030732278 0.022477284 0.24436189 0.08254367 0.01633164
-0.2773854 0.017559635 0.09049286 0.021858806 0.07373033 0.11054795 0.15210229 -0.12398951
0.10046076 0.097406335 -0.070222795 -0.12550908 0.01255998 -0.08297197 0.059565105 -0.12828213
0.09759657 0.019570904 0.008304997 -0.051672913 0.1021095 0.025474422 -0.10079356 0.036771234
0.011402691 0.014367049 -0.008559142 0.08320854 0.09141444 0.0012015279 0.0105763 -0.08674198
-0.06795879 0.08779206 0.08059707 0.11528888 -0.040570185 -0.06785073 -0.012290991 -0.021701531
-0.0667786 0.014158514 0.08789707 -0.10977709 -0.08491871 -0.13161674 0.06717672 0.09182184
0.06655476 -0.024519427 0.002705483 -0.076442406 -0.13735574 -0.012199819 0.037357833 -0.015138965
-0.09035232 0.005274272 0.14586106 -0.07273342 0.022356024 -0.062473018 0.07686979 -0.03140174
-0.067657545 -0.087216236 0.041338682 -0.068287656 -0.044660803 -0.23409866 0.11361899 0.057373133
-0.2815905 -0.039061733 0.11748548 0.038817592 0.06751736 0.06010002 0.04917072 0.13087358
-0.21177818 0.13950723 0.21717462 -0.11404998 0.042904656 -0.1112951 0.1877081 -0.10927702
0.18241477 -0.061546106 0.031274218 0.24038318 -0.02711763 -0.05330135 0.072663285 0.07174701
0.014390254 0.037789658 -0.14190437 0.19194548 0.030362675 0.06414005 0.05153863 0.061099198
0.046838798 0.034119826 0.01852199 -0.04972926 0.013322008 0.026842836 0.104618 -0.18881017
0.058610983 0.042613287 0.039555002 -0.027181435 -0.0066788956 -0.10251067 0.080386 0.19990662
0.019862201 0.1392661 -0.040694628 0.0019753713 0.050236512 -0.041833393 0.025772419 0.020776939
-0.04695127 0.022670336 0.05397231 0.10259937 0.11027004 -0.06273975 -0.030616926 0.009185049
-0.084679894 0.010290799 0.09979262 -0.04340987 -0.05304182 -0.08208221 -0.0012920488 -0.05985663
-0.12013731 -0.14397109 -0.019816054 -0.26366436 0.021807855 -0.053331584 0.17893349 -0.103835784
0.08299631 -0.10019245 0.094864555 -0.020100834 -0.26586983 0.026125174 0.1277277 -0.15162364
-0.0380545 -0.21055213 0.17040367 0.041544292 -0.07495407 -0.018870825 0.121447675 0.116249956
0.018271156 0.0568216 0.090071805 0.020199483 -0.06597392 -3.9621547e-05 0.007525622 -0.09087039
0.06414398 0.02264413 0.047823347 0.09943687 0.14023878 0.018722167 0.00747817 -0.08059252
-0.05161588 0.12747584 0.037101276 -0.15214545 -0.0027051459 -0.009929655 -0.105250426 0.03805964

bias f4 [32]
00000000: 14be 423c bc8e b83d b5a3 bdbd 0808 89bc
00000010: 3d40 883d 2c34 f53d 6c32 10bd 3dd1 8a3d
00000020: 2447 283d 78e9 d03c ce1d 5fbb 201a 5c3d
00000030: 128e 603d 2c1a efbd fd9a 41bd c2f6 07bd
00000040: 0ee3 e5bc 89ab e83c 75ba 923d 48b1 e13c
00000050: fe13 353d fc9a c8ba bea1 3b3d e0cb dabd
00000060: edba 5fbd 8329 0dbd 6720 85bc dd49 953d
00000070: 11cc c63d 945d 923d d8ef 5c3c 6021 61bd
0.0118861385 0.090115994 -0.0925974 -0.016727462 0.066528775 0.119728416 -0.035204336 0.0677819
0.04108347 0.025501952 -0.0034044865 0.053735852 0.05482299 -0.11674914 -0.04726695 -0.03319431
-0.02806237 0.028402107 0.0716447 0.027550355 0.04420852 -0.0015304978 0.045808546 -0.10683417
-0.054621626 -0.034463417 -0.016250802 0.07289479 0.09706891 0.07146755 0.013484918 -0.05496347

weight f4 [32]
00000000: 9aa5 883f 9285 883f 9f4c 753f 39a1 803f
00000010: 0e8c 773f e249 843f 917e 843f 547e 6b3f
00000020: 9a1b 863f 76ac 813f 4b03 7d3f 8a50 853f
00000030: ba28 903f ff0d 7d3f 7242 853f 0387 843f
00000040: 1d95 823f a803 843f d9c1 7e3f 949b 6d3f
00000050: 6e20 813f 5b62 873f 1c80 883f d3ab 763f
00000060: 58cf 833f cb50 7c3f 97b6 853f c52c 853f
00000070: c570 8a3f a564 893f c3ff 7e3f 81c2 843f
1.0675538 1.0665762 0.9582004 1.0049201 0.9669808 1.0335047 1.0351125 0.91989636
1.0477173 1.0130756 0.9883315 1.0415204 1.1262429 0.9884948 1.0410903 1.0353702
1.0201756 1.0313616 0.9951454 0.9281552 1.0088022 1.0576891 1.0664096 0.9635593
1.0297651 0.9856078 1.0446347 1.0404288 1.0815665 1.0733839 0.9960901 1.0371858

bias f4 [32]
00000000: ee69 55bd 0206 f7bd 2d9c 88bd 64f8 61bd
00000010: 3148 6bbc b64d c33a e0d2 203d 0634 9abd
00000020: cea5 0b3d 1583 95bd ca7f d8bd d90e 1cbb
00000030: 33dc b03c 8659 c9bc acd0 b8bc faa0 59bd
00000040: bf8f aa3c 813c cdbd 1651 e8bb 81ae f8bc
00000050: cb8e 88bd 06ac 34bd 32f2 12bd 52fd 25bd
00000060: beb7 ad3c f55f 00bd 5261 c3bd c03e b2bc
00000070: 374f 0b3d 27fa 063d 0da3 d93a f87b 0cbc
-0.052102976 -0.12061693 -0.06670413 -0.055168524 -0.0143604735 0.0014900479 0.039263606 -0.07529454
0.03409367 -0.073003925 -0.10571249 -0.002381256 0.021589374 -0.02457882 -0.02256044 -0.053132035
0.020820497 -0.10021306 -0.0070897443 -0.030356647 -0.066678606 -0.044109367 -0.035875507 -0.04052479
0.02120578 -0.03134151 -0.09540047 -0.021758437 0.034011092 0.032953408 0.0016604379 -0.008574478

running_mean f4 [32]
00000000: b22c 543d 4eac 6a3c ccd4 8e3e 5928 acbe
00000010: 7166 6c3d e277 dbbc bfc6 1bbe c765 0c3f
00000020: ceab 873e a2f8 c5bd 177b 6fbc c630 e8bd
00000030: 57b1 a8be 2dca 143f c152 ed3d addc 863d
00000040: bf28 4a3e 2b2d 073e f85b 03be 2ec0 e1be
00000050: 09e8 083e 7112 b3bd 599c a9be 3ac8 7f3e
00000060: ff89 70bd 857c aabe 4bc6 80bd 35ab d1bd
00000070: 10d9 a6be 9d1d fa3c be66 923d 67d0 5a3e
0.051800437 0.014323307 0.27896726 -0.33624533 0.057714883 -0.026790563 -0.15212534 0.548428
0.26498264 -0.096665636 -0.014616749 -0.11337428 -0.329478 0.58120996 0.1158805 0.06585059
0.19742106 0.13200824 -0.12828052 -0.44091934 0.13369764 -0.08743752 -0.33127096 0.24978724
-0.058725353 -0.33298126 -0.062878214 -0.10237733 -0.3258748 0.030531699 0.07148503 0.21368562

running_var f4 [32]
00000000: 217e 5f3c 9503 903c 0c4a 013d 818c 3c3c
00000010: c385 013c 3043 e33c 0885 bd3c 00eb 393d
00000020: e1d6 883c b6c0 353c 8570 0b3c c623 b13c
00000030: b460 8e3c 3705 c73c c885 df3c 201a 843c
00000040: bb20 8f3c e8d2 213c 6dc2 813c 578c 1a3d
00000050: 2dd7 c73c 9c70 303d b59e 123d f90e 113c
00000060: bbb3 2b3c 96eb 063d c2b2 0d3c a021 7b3c
00000070: 128b e03c 8f5d 913c 5484 003c 3e21 023c
0.013640911 0.017579833 0.031564757 0.011508108 0.007905426 0.027741998 0.023134723 0.04539013
0.016704025 0.011093309 0.008510713 0.021623503 0.017380096 0.024294479 0.027285472 0.016125739
0.017471662 0.009876944 0.01583978 0.037731495 0.024394596 0.043076143 0.035795886 0.008853667
0.010479863 0.032939516 0.008648576 0.015327841 0.027410064 0.017744808 0.0078440495 0.007942496

weight f4 [32]
00000000: 9b58 943f 837a 9f3f f52b b53f 9fe6 8f3f
00000010: 64fb 953f 4de3 973f c73e 913f 89e9 a63f
00000020: cb12 903f 6d52 963f c857 8e3f ef67 913f
00000030: 7669 9c3f 420c 8b3f f1c9 933f 41da a43f
00000040: f97b 913f 800e 9e3f d6f9 b33f efc6 a23f
00000050: b3cb 943f 0295 8f3f d004 b23f 2085 923f
00000060: a564 a23f 742f 973f c0ac 943f 49e6 a93f
00000070: 82d4 943f ac68 973f 2af8 9b3f 268b 9f3f
1.158954 1.2459263 1.415404 1.1242255 1.1717343 1.1866242 1.1347283 1.3040019
1.1255735 1.1743904 1.1120539 1.1359843 1.2219684 1.0863116 1.1546003 1.2879106
1.1365958 1.2348175 1.4060619 1.271696 1.1624664 1.1217349 1.3907719 1.1446877
1.2686964 1.1811357 1.1615219 1.3273402 1.1627352 1.1828818 1.2185109 1.246434

bias f4 [32]
00000000: 5eed 603d 3b6e 503c 1172 1d3d 334b 993c
00000010: d4b6 32be e377 c73c 725b fabb 2f9d 33bd
00000020: 6573 c23c 45f0 173d 1689 8f3d 4683 c33d
00000030: 8046 f43b 9c81 a03c 776d 02bc 14fb b6bc
00000040: 8f5b 4a3d d0e5 da3c 53c1 c93d fe0e bfbd
00000050: b169 683d 7c46 cc3d 96ea a83c 6843 d53d
00000060: 7a56 443d d3dd 703d a879 c43d 90b9 76bc
00000070: c50c f03d ee62 42bc 3ab9 093e 9364 0c3e
0.05491387 0.0127215935 0.03843886 0.018712616 -0.17452556 0.024349159 -0.0076402957 -0.043851074
0.023736665 0.037094373 0.07008569 0.09546523 0.0074546933 0.019593053 -0.007960669 -0.02233652
0.049403723 0.026720911 0.09851327 -0.093290314 0.05674142 0.09974381 0.020619672 0.10413247
0.047934033 0.058805298 0.095935166 -0.01505889 0.117211856 -0.011864407 0.13449565 0.13710241

running_mean f4 [32]
00000000: cc88 c63d 8850 9bbc 782d e1bd 7e24 c2bb
00000010: ae0e aabd 86d2 c2bc 2cff b1bd 443a 3d3e
00000020: 8cf9 c6bd 71f8 903c f9f0 adbe 8b75 ce3c
00000030: e504 433e bcef a23d 69f0 833d d710 83bd
00000040: 36e2 6b3e 6477 833d cadc 8a3e 03de 10bc
00000050: 7665 8b3d 9842 183e 0f31 403e fa9f e1bd
00000060: 51c0 2a3d 8ce9 85bd a975 533e da03 60bd
00000070: 00ce 2f3e 89d8 93bd ec2f 5e3e 0927 c5bc
0.09694061 -0.018959299 -0.109950006 -0.0059247604 -0.08303581 -0.023782026 -0.08691248 0.18479258
-0.09715566 0.017696591 -0.3397291 0.025202533 0.19044836 0.07955882 0.06442339 -0.06399696
0.23035511 0.06419256 0.27121574 -0.008841994 0.068064615 0.14869153 0.18768714 -0.11016841
0.041687313 -0.06538686 0.20650353 -0.054691173 0.17168427 -0.07219035 0.21697968 -0.024066465

running_var f4 [32]
00000000: 1bd0 1b3d 09ae e33c 1858 003d c5ee 793d
00000010: 7f9c 913c 59aa de3c c17b 153d 4569 393d
00000020: cef5 463d 7889 bf3c e420 6b3d 9b0f 2e3d
00000030: 3467 143d b633 7b3d 0238 803d 52a2 bf3c
00000040: 56d3 123d 2b09 0d3d 93b9 d33c 4424 c13c
00000050: a025 353d 0427 383d 4139 b13c ffc3 d43d
00000060: 6dfc 9f3c 622e 253d ef00 813d c2ac dc3c
00000070: fee2 2d3d 90f8 373d 40f0 053d 897e ff3c
0.03804026 0.027792947 0.031334013 0.061018724 0.017774818 0.027180837 0.036494974 0.04526641
0.04857426 0.02338098 0.057404414 0.04249535 0.036231235 0.061328612 0.06260683 0.02339283
0.035846077 0.03443257 0.025845325 0.023576863 0.044225335 0.044959083 0.021633746 0.10388946
0.019529546 0.040327437 0.06299006 0.026937846 0.042452805 0.044914782 0.032699823 0.031188266
