param/gnns/vg_net.pt (torch, 180223 bytes, 15 tensors)

weight f4 [8, 3, 3, 3]
0	0x3d922870	0.07136619
1	0x3caea285	0.02131773
2	0x3ce05b3b	0.027387252
3	0xbd9c835d	-0.07642243
4	0x3ded6ae4	0.115926534
5	0x3e1c7eb9	0.15282716
6	0x3de1a3e8	0.11017591
7	0xbe47d0b9	-0.19513215
8	0xbe44c219	-0.19214667
9	0x3de7078a	0.11280735
10	0x3d1e02e8	0.03857699
11	0xbdefdd00	-0.11712074
12	0xbdc6741a	-0.09690113
13	0x3c03228d	0.008003843
14	0x3e3297c2	0.17440704
15	0xbda24fd6	-0.07925384
16	0xbe0f0fea	-0.13970914
17	0x3c9e016a	0.019287784
18	0x3e04e590	0.12978196
19	0xbd03fdd3	-0.032224488
20	0x3e3d2f35	0.1847504
21	0xbd0d0b3a	-0.034434535
22	0xbe412ca4	-0.18864685
23	0x3dcf0734	0.10108796
24	0x3e41b274	0.1891573
25	0xbdb5451c	-0.08851072
26	0xbe3766d6	-0.17910323
27	0x3dc0caf9	0.09413714
28	0xbe062549	-0.1310016
29	0x3e3fd887	0.18734942
30	0x3ccc5efb	0.024947634
31	0xbe3b52ec	-0.18293351
32	0x3d9eb53d	0.07749412
33	0xbe1fc37d	-0.15601917
34	0xbd3a90cb	-0.04554824
35	0x3d98af4a	0.07455309
36	0xbe16e9ea	-0.14737669
37	0x3e2b81de	0.16748759
38	0xbd998187	-0.074954085
39	0x3becbe01	0.0072247987
40	0x3e42f181	0.19037439
41	0x3d884c0d	0.066551305
42	0xbd17c2bc	-0.037050948
43	0x3dbe32c8	0.092870295
44	0xbda2c17f	-0.07947063
45	0xbdc28f08	-0.09499937
46	0xbe165ab0	-0.14683032
47	0xbb5601bf	-0.003265485
48	0x3e45f89c	0.19333118
49	0xbdd9f066	-0.106415555
50	0xbdc9fb9b	-0.09862443
51	0x3e4e3849	0.20138659
52	0xbd35733e	-0.044299357
53	0xbd7ef5d6	-0.062246166
54	0x3d5a6bbf	0.05332541
55	0xbdca8de6	-0.09890346
56	0xbd715894	-0.058922365
57	0x3dbd0822	0.09230067
58	0x3db58efd	0.088651635
59	0x3ccf6657	0.025317354
60	0xbe58d06d	-0.21173258
61	0xbdc658cf	-0.09684908
62	0x3d9973a8	0.07492763
63	0x3df10ad1	0.11769641
64	0xbd91e8b2	-0.07124461
65	0x3dd022eb	0.1016291
66	0x3e198bc2	0.1499472
67	0x3e29d57c	0.16585344
68	0xbd12da90	-0.03585297
69	0x3d9d6852	0.07685913
70	0x3e09b828	0.13449156
71	0xbcf51f75	-0.029922226
72	0x3cdc7cc9	0.026914971
73	0x3df48ddb	0.11941119
74	0x3d812f9a	0.063079074
75	0xbe28a767	-0.16470109
76	0xbd7b712f	-0.061387237
77	0xbcb9e8ab	-0.022693953
78	0x3d2c536c	0.042071745
79	0xbda83f52	-0.082152024
80	0xbe06d017	-0.13165317
81	0xbe3206f5	-0.17385466
82	0xbdff7b79	-0.124747224
83	0xbdab6bbf	-0.0837016
84	0xbe302017	-0.17199741
85	0xbdfc4c83	-0.12319281
86	0x3d3c0966	0.0459074
87	0xbdb668c3	-0.089067005
88	0x3dc7e0a2	0.09759642
89	0xbbcbea22	-0.006222979
90	0x3e116ae2	0.14200929
91	0x3da3e438	0.08002514
92	0x3e3d09df	0.18460797
93	0x3ce8fae8	0.028439954
94	0xbd83fb17	-0.06444376
95	0xbe0f50da	-0.13995686
96	0xbd570861	-0.052498225
97	0xbe1ef7f6	-0.15524277
98	0x3d8861cc	0.06659278
99	0xbe1252b1	-0.14289357
100	0x3c448957	0.011995635
101	0x3d9c71e9	0.07638914
102	0x3c8bf595	0.017084876
103	0x3da3e75a	0.08003111
104	0x3e288699	0.16457595
105	0x3c59ac31	0.013285683
106	0x3e15dc0a	0.1463472
107	0xbe06b2c7	-0.13154136
108	0x3d71f1ba	0.05906842
109	0xbbe53213	-0.0069944947
110	0xbd41e74a	-0.047339715
111	0xbdd88cc7	-0.10573726
112	0x3e1baf03	0.1520348
113	0xbdd57cef	-0.1042422
114	0x3e2d2ab7	0.16910826
115	0x3e02aca7	0.12761174
116	0xbd9324a6	-0.071847245
117	0x3dfce018	0.1234743
118	0x3d268b1e	0.040660016
119	0x3d10a001	0.03530884
120	0x3e034eee	0.12823078
121	0x3de97b65	0.11400489
122	0xbd165d9a	-0.03671036
123	0x3dbb7f5c	0.09155151
124	0xbd9a2f10	-0.07528508
125	0x3ba95705	0.0051678442
126	0xbe45512a	-0.19269243
127	0xbe051e96	-0.12999949
128	0xbc80107f	-0.015632866
129	0xbd806135	-0.06268541
130	0xbdd4cac4	-0.10390237
131	0xbe2d7f11	-0.16943003
132	0x3dc3e413	0.09564986
133	0xbe1b44c9	-0.15162958
134	0x3dcf8dc3	0.10134461
135	0x3e3ef4db	0.18648092
136	0xbc32ff49	-0.010925123
137	0x3e06a4d1	0.1314881
138	0xbdf55cfa	-0.119806245
139	0x3d3594c8	0.044331342
140	0x3e0581ba	0.13037768
141	0x3d8bc9d7	0.06825607
142	0xbd43c01e	-0.04779064
143	0xbe398bec	-0.18119782
144	0x3df3611c	0.118837565
145	0xbdcf6e78	-0.10128492
146	0x3e0b7ee8	0.1362263
147	0xbe34064c	-0.17580527
148	0xbdc1871b	-0.094495974
149	0xbd9006cc	-0.070325464
150	0x3e200da7	0.15630208
151	0x3e3c319b	0.18378298
152	0xbe116ccd	-0.1420166
153	0x39a598f2	0.00031585206
154	0xbe100972	-0.14066103
155	0x3cef59fa	0.029217709
156	0x3dfd259b	0.12360688
157	0xbdef47ff	-0.11683654
158	0xbd92f836	-0.07176249
159	0xbd464160	-0.04840219
160	0x3d2f5a0e	0.042810492
161	0x3cd19828	0.025585249
162	0x3e456222	0.19275716
163	0x3d6363a0	0.05551493
164	0xbde6c157	-0.112673454
165	0xbdc472c3	-0.095922016
166	0xbd5b19b3	-0.053491306
167	0xbe0a8425	-0.13526972
168	0x3de92912	0.11384787
169	0xbd93ddcd	-0.072200395
170	0xbe4a79bf	-0.19773005
171	0xbe24a63c	-0.16079038
172	0x3e1de85b	0.15420668
173	0x3dd4a2b7	0.10382598
174	0x3cc598b7	0.024120672
175	0x3e0e11e9	0.1387402
176	0xbe21c0c2	-0.15796188
177	0xbe0f31dc	-0.13983864
178	0xbc070119	-0.008240008
179	0x3d491cc6	0.049099706
180	0xbd481bf3	-0.04885478
181	0x3d9dc24b	0.07703074
182	0x3de812a2	0.11331679
183	0x3e0b7db8	0.13622177
184	0x3dbf4843	0.09339955
185	0xbd9d0169	-0.076662846
186	0xbd85438d	-0.06507025
187	0xbd92ecda	-0.07174082
188	0x3d2eb74b	0.04265527
189	0x3d5938c4	0.05303265
190	0xbe215441	-0.15754797
191	0x3e0e4a22	0.13895467
192	0xbe1c5ef8	-0.15270603
193	0x3e2bfbf0	0.16795325
194	0x3d17e00c	0.037078902
195	0xbe366f89	-0.17815985
196	0x3e1d2f44	0.15350062
197	0x3a3689de	0.0006963293
198	0xbd1562d5	-0.036471207
199	0xbe4cc357	-0.19996391
200	0x3e22ed91	0.15910937
201	0x3e216bc3	0.15763764
202	0xbe35a671	-0.17739274
203	0x3e0f60d7	0.14001785
204	0xbe29697c	-0.16544145
205	0xbd9e8e29	-0.07741959
206	0x3dbea4a8	0.093087494
207	0xbdc78d79	-0.09743781
208	0x3e00ac94	0.12565833
209	0x3ddbeabc	0.107381314
210	0xbce32462	-0.02772731
211	0x3d4b7603	0.04967309
212	0xbda6afcf	-0.081390016
213	0x3e195e1a	0.14977303
214	0x3e2bd501	0.16780473
215	0xbd043127	-0.032273438

bias f4 [8]
0	0x3d005b6d	0.03133719
1	0x3e47fa0e	0.19528982
2	0x3dcc8e8f	0.099881284
3	0xbdbad67a	-0.091229394
4	0xbd0d65bd	-0.034520853
5	0x3e109d55	0.14122517
6	0x3dc004f5	0.093759455
7	0xbe421161	-0.18951942

weight f4 [5, 8, 5, 5]
0	0x3c0223fb	0.007943149
1	0x3d44afa7	0.048019078
2	0x3d54ce59	0.0519546
3	0xbc93974b	-0.018016478
4	0x3d42adac	0.047528908
5	0x3c6fced1	0.014636711
6	0x3c84c103	0.016205316
7	0x3d51c8c6	0.051216863
8	0x3cb4b22a	0.022057611
9	0xbcff8d18	-0.031195208
10	0x3d9b052d	0.075693466
11	0xbcc1014b	-0.023560187
12	0x3d506b7b	0.05088375
13	0xbd515198	-0.051103204
14	0x3c43cec0	0.0119511485
15	0xbd107e02	-0.03527642
16	0x3c6b1507	0.014348275
17	0x3bf83881	0.007575095
18	0x3d64547c	0.055744633
19	0xba4f1b60	-0.00079005025
20	0x3d29f4b7	0.041493144
21	0x3d93e2d0	0.072209954
22	0x3da8df9f	0.08245777
23	0x3da9c80f	0.08290111
24	0xbd613c88	-0.054989368
25	0x3dbf227a	0.09332748
26	0xbcccd951	-0.025005968
27	0x3cf70884	0.030155428
28	0x3d675ebb	0.056486826
29	0x3d368239	0.044557784
30	0x3c4213b5	0.011845519
31	0x3d30bc92	0.043148585
32	0x3d840aeb	0.06447395
33	0x3db70647	0.08936744
34	0x3d94e3bf	0.072700016
35	0x3d6b5184	0.057450786
36	0x3d8120ad	0.063050605
37	0x3d5020d6	0.050812565
38	0x3c50d8b1	0.012746976
39	0x3d8108a3	0.063004754
40	0xbce84617	-0.028353734
41	0xbd667259	-0.056261394
42	0x3c74981c	0.014928844
43	0xbc0dbce4	-0.008650992
44	0xbb0fdf08	-0.0021953005
45	0x3d84e0b2	0.0648817
46	0x3c88d806	0.01670457
47	0xbcb7885a	-0.022403885
48	0x3c8ba527	0.017046524
49	0x3c4299dd	0.011877504
50	0x3d903815	0.07041947
51	0xbd356422	-0.044284947
52	0x3d982afd	0.07430074
53	0xbd0460a0	-0.03231871
54	0x3c644a30	0.013933703
55	0x3c8b1f97	0.016982837
56	0x3cc7a8c4	0.024372466
57	0x3d83aeac	0.064298004
58	0x3d0525d8	0.032506794
59	0xbce9d5c7	-0.02854432
60	0x3cd161bc	0.025559299
61	0x3d700796	0.058600985
62	0xbd5d4057	-0.054016437
63	0x3d030ebf	0.031996485
64	0x3c4ce90f	0.012506737
65	0xbd1c5728	-0.038169056
66	0xbb22b54f	-0.0024827307
67	0x3cccaf0f	0.024985818
68	0xbc27cfa5	-0.010242377
69	0x3caf8465	0.021425435
70	0x3b829993	0.0039855926
71	0xbc1c90ed	-0.009556037
72	0xbc957248	-0.01824297
73	0x3d735ff8	0.059417695
74	0x3cbddecc	0.023177527
75	0xbe0ff029	-0.14056458
76	0xbc91793f	-0.01775801
77	0xbcee1e08	-0.029067054
78	0xbd44c314	-0.048037603
79	0x3c7fc460	0.015610784
80	0xbe1c8181	-0.15283777
81	0xbd927bf3	-0.07152548
82	0xbe02228c	-0.12708491
83	0xbcd23005	-0.025657663
84	0xbd904602	-0.07044603
85	0xbe0e34b9	-0.138873
86	0xbcf635d5	-0.030054966
87	0xbdee14a1	-0.116250284
88	0xbd194941	-0.037423376
89	0xbc74e1e8	-0.014946438
90	0xbe29a3ee	-0.1656644
91	0xbe10356c	-0.14082879
92	0xbd841c35	-0.064506926
93	0xbd6a643b	-0.057224493
94	0xbd9b1d17	-0.07573908
95	0xbd84f22d	-0.06491504
96	0xbe166428	-0.14686644
97	0xbd013635	-0.031545836
98	0xbd468903	-0.04847051
99	0xbd8d1c63	-0.0689018
100	0xbc87a19a	-0.01655655
101	0x3d855aa4	0.06511429
102	0xbcb2be51	-0.021819266
103	0x3c6b082f	0.014345213
104	0xbd6974ec	-0.05699627
105	0xbd197fd3	-0.03747542
106	0xbc18c794	-0.009324927
107	0xbd53ea55	-0.05173715
108	0x3d29f5bb	0.041494112
109	0x3d390ee7	0.045180228
110	0x3d86c765	0.06581
111	0x3cd4561e	0.02591997
112	0x3cf405a1	0.02978784
113	0xbc990d9d	-0.01868325
114	0x3d14a674	0.036291555
115	0x3ce5e110	0.02806142
116	0xbca68a40	-0.020329595
117	0x3c91d53f	0.017801879
118	0x3b182b57	0.0023219192
119	0x3b9b4644	0.004738601
120	0x3ccdc039	0.025116073
121	0xbcf03e46	-0.02932657
122	0x3d3f61f5	0.04672428
123	0x3c43c8fd	0.011949775
124	0x3d9a541c	0.07535574
125	0xbd4d406c	-0.050110266
126	0x3c96ce45	0.018408904
127	0xbd57ddb1	-0.052701656
128	0x3d3af655	0.045645077
129	0xbcf8b5a4	-0.03036005
130	0x3ab1e10e	0.00135711
131	0xbcd049ee	-0.025425877
132	0x3d462c20	0.048381925
133	0xbd5410e9	-0.05177394
134	0xbc1d398f	-0.009596243
135	0xbd0bd3ba	-0.034137465
136	0xbd25df31	-0.040496055
137	0xbcb9f61e	-0.022700366
138	0xbbd9d9ec	-0.0066482928
139	0x3d84a4e4	0.06476763
140	0xbd8f7d9c	-0.0700638
141	0x3bb6d783	0.00557989
142	0x3d266aa9	0.040629063
143	0xbd653187	-0.055955436
144	0x3a2a2eef	0.0006491979
145	0xbc539efd	-0.012916324
146	0x3d3fbd77	0.046811547
147	0xbd3ce2a0	-0.046114564
148	0x3c1aab24	0.009440217
149	0x3d8f9051	0.07009948
150	0xbd02ae6a	-0.031904615
151	0xbd9161d3	-0.070987366
152	0xbc152843	-0.009103837
153	0xbcc64a1a	-0.024205256
154	0xbda4903f	-0.08035325
155	0xbb4dec32	-0.00314213
156	0xbd2b00f2	-0.04174895
157	0xbdcb7eea	-0.09936316
158	0xbc9837f3	-0.018581366
159	0xbdf4a13d	-0.11944816
160	0xbcf7c2dc	-0.030244283
161	0xbcb17658	-0.021662876
162	0xbd109cc6	-0.03530576
163	0x3c54f2cb	0.0129973395
164	0xbd50d3c1	-0.050983194
165	0xbd0c78ed	-0.03429501
166	0x3d156590	0.03647381
167	0xbda4a74d	-0.080397226
168	0xbcaf838d	-0.021425033
169	0x3ba49b73	0.005023414
170	0xbd9f2fee	-0.07772814
171	0xbbb4eae4	-0.005521165
172	0xbc0fbf8f	-0.0087736985
173	0xbd970d79	-0.073756166
174	0xbd88e2da	-0.066838935
175	0x3ced5cac	0.028974853
176	0x3c5db6b1	0.013532327
177	0x3d7cfd61	0.06176508
178	0xbd6edeac	-0.058317825
179	0x3ced4101	0.02896166
180	0xbca8f94e	-0.02062669
181	0xbd84aad6	-0.06477897
182	0xbd4917a9	-0.04909483
183	0x3c7b0d3c	0.01532298
184	0x3c55e6c4	0.013055507
185	0x3d32e5af	0.043676075
186	0x3d04b233	0.032396507
187	0x3d30ba5b	0.043146472
188	0xbd70a202	-0.058748253
189	0xbd1f2bb4	-0.038860038
190	0xbc6ccba9	-0.014452853
191	0x3d059fe0	0.03262317
192	0xbd3f3785	-0.046683807
193	0x3c964c4c	0.018346928
194	0xbda02f98	-0.07821578
195	0xbcf354e0	-0.029703557
196	0xbd982eb8	-0.07430786
197	0xbd12fa4d	-0.035883237
198	0xbcf59562	-0.029978458
199	0x3c5cbf49	0.01347334
200	0x3bff4642	0.007790358
201	0x3cf92a99	0.03041582
202	0xbb1da960	-0.0024057254
203	0xbc43197b	-0.0119079305
204	0xbd5f080c	-0.054451033
205	0x3d2991c5	0.041398782
206	0xbd647c91	-0.05578286
207	0xbc994e5f	-0.018714128
208	0xbd0de775	-0.034644563
209	0x3c2e92bd	0.010655102
210	0x3d4505ec	0.04810135
211	0xbcd3da26	-0.025860857
212	0xbd841cf9	-0.064508386
213	0xbca25429	-0.019815521
214	0x3cb655bc	0.022257678
215	0xbd961556	-0.07328288
216	0x3d46c024	0.048523083
217	0xbc898c28	-0.016790465
218	0xbd75ddf1	-0.060026113
219	0xbd12ed5a	-0.035870887
220	0xbde017b3	-0.1094202
221	0x3c50c06a	0.012741188
222	0xbbb681f1	-0.0055696894
223	0xbdcfe731	-0.10151518
224	0xbd788f99	-0.06068382
225	0x3d4bcfa9	0.049758587
226	0xbc40f6d7	-0.011777601
227	0x3d05990c	0.03261666
228	0x3df57227	0.119846635
229	0x3d99290e	0.07478534
230	0xbcfb612c	-0.030685984
231	0x3ddf5979	0.109057374
232	0x3d499e31	0.04922313
233	0x3df12b97	0.11775892
234	0x3dfa8b5a	0.122336105
235	0x3d096aad	0.033549
236	0x3dfc5950	0.123217225
237	0x3d6705c2	0.056401975
238	0x3d2ea5bc	0.042638525
239	0x3cd71467	0.026254846
240	0x3d65b688	0.05608228
241	0x3d16eecc	0.03684883
242	0xbc3f450e	-0.011674179
243	0xbcc012b4	-0.023446418
244	0x3d332dbc	0.043744788
245	0x3cf1ead0	0.029530913
246	0x3db1354f	0.08652746
247	0xbd3df365	-0.046374697
248	0x3d676756	0.056495033
249	0x3d5315af	0.05153435
250	0xbd677ee1	-0.056517486
251	0xbd0066ea	-0.031348146
252	0x3cfded2f	0.030996887
253	0xbd151b31	-0.036402885
254	0x3d8e7914	0.069566876
255	0xbc0fe787	-0.008783228

bias f4 [5]
0	0x3d912652	0.07087387
1	0x3bfded07	0.007749203
2	0xbd51b117	-0.051194277
3	0x3d08e47c	0.033421025
4	0xbcff5d7d	-0.031172508

weight f4 [128, 245]
0	0x3cbee334	0.023301698
1	0x3c973d07	0.018461717
2	0x3a3a22e3	0.00071005354
3	0xbcb40bac	-0.021978222
4	0x3d65a242	0.056062944
5	0x3bc35d55	0.005962054
6	0x3d3be37b	0.04587124
7	0xbc89cf76	-0.016822558
8	0x3cc20545	0.023684153
9	0xbb036acc	-0.002005267
10	0xbd3bb4e8	-0.045826823
11	0x3c2b51fb	0.010456557
12	0x3d4b0dd0	0.04957372
13	0x3d19c433	0.037540626
14	0x3d4b6316	0.049655043
15	0x3da6c88e	0.081437215
16	0xbd73020c	-0.059328124
17	0x3c8bc457	0.017061396
18	0x3d802998	0.062579334
19	0x3c08f0a7	0.008358157
20	0x3cc4e4f9	0.024034964
21	0x3da98266	0.08276825
22	0x3d4b2a41	0.049600843
23	0xba162b5e	-0.0005728508
24	0xbce316ee	-0.027720895
25	0xbcd8a284	-0.026444681
26	0xbcb3c792	-0.021945748
27	0xbc6a9b9f	-0.0143193295
28	0x3d025997	0.03182372
29	0xbd203136	-0.03910943
30	0x3aba5293	0.0014215283
31	0x3cff48c9	0.031162636
32	0xbc8dc702	-0.017306808
33	0x3d9fee17	0.07809084
34	0x3d892996	0.06697385
35	0xbb38bfa2	-0.0028190394
36	0x3b91fd81	0.004455269
37	0xbc747487	-0.01492036
38	0x3d13912f	0.03602713
39	0x3d99d210	0.07510769
40	0xbcc45526	-0.023966383
41	0x3c143939	0.009046846
42	0x3cc92b02	0.02455664
43	0x3d4139fb	0.047174435
44	0x3d0912bd	0.033465136
45	0xbc923cc8	-0.017851248
46	0xbb806f75	-0.0039195367
47	0xbd2b3175	-0.041795213
48	0x3b451da8	0.003007749
49	0xbd455dbd	-0.0481851
50	0xbcd38ac3	-0.025823003
51	0x3da5ac7a	0.08089538
52	0xbcdb51d9	-0.026772426
53	0xbd4872ca	-0.048937596
54	0xbb9a326d	-0.0047057183
55	0x3cce9236	0.025216203
56	0x3d9252b2	0.07144679
57	0xbcdbd419	-0.026834534
58	0xbd2e420f	-0.042543467
59	0xbd1c42e3	-0.038149726
60	0xbd7cb93e	-0.0617001
61	0xbd2f70be	-0.04283213
62	0x3d9cad39	0.07650227
63	0xbc7eceeb	-0.015552263
64	0xbbd8c553	-0.0066153198
65	0xbd2adc59	-0.041714046
66	0xbcc387c3	-0.023868447
67	0xbd8bc0e9	-0.06823904
68	0x3d68984f	0.056785878
69	0xbd5284de	-0.051396243
70	0xbc48db0a	-0.012259254
71	0x3d1817f0	0.037132204
72	0x3ae81439	0.0017706222
73	0xbd411bea	-0.04714576
74	0x3cff25e8	0.031146005
75	0xbd3ec8f3	-0.04657836
76	0xbcaec60d	-0.021334672
77	0x3d8f22a2	0.069890276
78	0x3cc74613	0.024325406
79	0xbc09357e	-0.00837457
80	0xbd3ff5f0	-0.046865404
81	0x3cc6037a	0.02417158
82	0xbd3ce955	-0.04612096
83	0xbc622c1d	-0.013804463
84	0xbd8190a0	-0.06326413
85	0x3d5bb5ae	0.05364006
86	0x3c7cade8	0.015422322
87	0xbcf069ff	-0.029347418
88	0xbd1941fc	-0.037416443
89	0xbcea36e5	-0.028590629
90	0xbda5b606	-0.08091359
91	0x3bfe9b0f	0.0077699493
92	0x3c211b8e	0.00983323
93	0xbb00ae96	-0.0019635311
94	0x3b65a3f9	0.0035040362
95	0x3d7a616d	0.06112807
96	0xbc80be8d	-0.015715862
97	0xbc57f9f0	-0.013182148
98	0xbc19ac92	-0.009379523
99	0x3adaabee	0.0016683319
100	0xbd35dec0	-0.044401884
101	0xbd44c8cf	-0.04804307
102	0xbc405c1f	-0.011740713
103	0xbd1cacd2	-0.03825075
104	0xbb23b344	-0.0024978677
105	0xbcb4e34c	-0.02208104
106	0x3d719082	0.058975704
107	0x3d600431	0.054691497
108	0xbd80f4aa	-0.06296666
109	0xbb297c73	-0.002586153
110	0xbd281f0d	-0.041045237
111	0x3d2e7242	0.042589433
112	0x3cf2c505	0.029634962
113	0x3d89e58c	0.06733236
114	0x3d68e698	0.056860536
115	0x3c5bfdb1	0.013427184
116	0xbd67d48a	-0.056599177
117	0x3b915713	0.004435429
118	0xbcc583a5	-0.024110625
119	0xbb8cd98b	-0.004298394
120	0x3c45131f	0.012028485
121	0x3c2b0180	0.010437369
122	0xbd111912	-0.0354243
123	0x3d07674c	0.033057496
124	0xbcf332b6	-0.029687267
125	0x3d3be821	0.045875672
126	0x3bebe88e	0.0071993535
127	0x3b9762e5	0.0046199434
128	0x3cc49d08	0.02400066
129	0xbd2805f4	-0.041021302
130	0x3d2a7a5b	0.041620594
131	0x3ba5a6a8	0.0050552674
132	0x3d3195af	0.04335564
133	0xbc0517ea	-0.008123377
134	0x3c326cd2	0.010890203
135	0x3b82a023	0.003986375
136	0x3d212d4b	0.039349835
137	0x3d030e65	0.03199615
138	0xbd0e3019	-0.03471384
139	0x3be25d0d	0.006908065
140	0x3d9955bf	0.07487058
141	0x3d7fb4b8	0.062428206
142	0xbd77c759	-0.060492847
143	0x3ba6025b	0.0050661988
144	0xbd31e438	-0.043430537
145	0xbd7dcc6c	-0.06196253
146	0xbd7eb8e3	-0.06218804
147	0x3cc4c632	0.024020288
148	0xbc088a3e	-0.008333741
149	0x3c592ee9	0.013255813
150	0x3d15fba0	0.03661692
151	0xbb40d07b	-0.002942114
152	0xbdb0e7b4	-0.08637944
153	0xbd347d0b	-0.044064563
154	0xbd0ff80f	-0.035148676
155	0xbb8b8430	-0.0042577013
156	0xbd31676b	-0.043311518
157	0xbd85bb69	-0.06529886
158	0xbb7d95ed	-0.00386941
159	0x3cac8184	0.021057852
160	0xbd87d973	-0.06633272
161	0x3d5ce158	0.053925842
162	0xbc7d601a	-0.015464807
163	0xbd950415	-0.07276169
164	0xbd4ae816	-0.04953774
165	0x3c677785	0.014127617
166	0xbc27eafc	-0.010248896
167	0xbd673044	-0.056442514
168	0x3c00ac0f	0.007853522
169	0x3d360bd0	0.04444486
170	0x3d2909f4	0.041269258
171	0x3d1d81b6	0.03845378
172	0x3d5f8b3b	0.05457614
173	0xbcdb5c1e	-0.026777323
174	0xbd6c2317	-0.05765065
175	0x3b45e056	0.003019353
176	0xbd771d83	-0.06033088
177	0x3d306143	0.043061506
178	0xbcc746d4	-0.024325766
179	0xbd30c68e	-0.043158107
180	0x3bd82818	0.0065965764
181	0xbcf34524	-0.029696055
182	0x3d3d3067	0.04618874
183	0x3d3dd1b8	0.04634258
184	0xbd291eaf	-0.041289028
185	0x3c0e3deb	0.008681755
186	0x3d4a2acd	0.049357224
187	0xbb31ef36	-0.0027150637
188	0xbd16de7c	-0.03683327
189	0xbcd8e7ee	-0.02647778
190	0x3ce296f2	0.027659867
191	0xbc331db7	-0.010932378
192	0x3c3d8e1c	0.011569526
193	0xbd9fa00f	-0.07794201
194	0xbc387750	-0.011258915
195	0x3c87924a	0.016549248
196	0x3d9ac5c9	0.07557256
197	0xbd21946c	-0.039448187
198	0x3b1ad7fe	0.0023627277
199	0xbd0b811f	-0.034058686
200	0x3d9df406	0.077125594
201	0xbd1c8f1b	-0.038222414
202	0x3ccf0f06	0.025275718
203	0x3d0e5814	0.034751967
204	0xbd208ef8	-0.039198846
205	0x3b64cf09	0.0034913442
206	0xbd331294	-0.04371889
207	0xbd70700c	-0.058700606
208	0x3c8af670	0.016963214
209	0xbcfe51cd	-0.031044865
210	0x3c4e97e9	0.01260946
211	0x3d67c7a6	0.056586884
212	0xbd3df84c	-0.046379372
213	0xbcaceacc	-0.021108054
214	0x3c83e03d	0.016098136
215	0xbc6f688d	-0.014612329
216	0x3d138616	0.036016546
217	0xbc6fba4a	-0.014631817
218	0xbcfc40bc	-0.030792587
219	0xbd9b8579	-0.07593817
220	0xbde6a0e5	-0.11261157
221	0xbd82351e	-0.063577875
222	0x3c780f83	0.015140417
223	0x3d8b1a99	0.067921825
224	0x3c848cd8	0.01618044
225	0xbd367d06	-0.044552825
226	0xbd1dcc18	-0.038524717
227	0xbd11dd1f	-0.035611268
228	0x3d0277b2	0.03185243
229	0xbdbb779a	-0.091536716
230	0x3d90b2e2	0.07065369
231	0x3d49421c	0.049135312
232	0x3d2b82e2	0.041872866
233	0x3d8ce1f5	0.068790354
234	0x3c217fb8	0.009857111
235	0xbca8870d	-0.02057221
236	0xbd9ed7e8	-0.077560246
237	0x3ce44e56	0.027869385
238	0x3d818932	0.06324996
239	0x3da757a2	0.081710115
240	0xbbed8fb5	-0.007249797
241	0x3d3a8082	0.04553271
242	0xbd4f8778	-0.050666302
243	0x3d3ac87d	0.045601357
244	0x3d1540cd	0.036438752
245	0x3c99725f	0.018731294
246	0xbc76656b	-0.015038828
247	0xbd3352fb	-0.04378031
248	0xbd4e6caf	-0.050396618
249	0x3d556bee	0.052104883
250	0x3c566f07	0.013087994
251	0xbcb9df55	-0.0226895
252	0xbd163fd8	-0.03668198
253	0xbbdc3f9d	-0.0067214505
254	0x3d020c0a	0.031749763
255	0xbdc9fd8d	-0.09862814

bias f4 [128]
0	0x3cd56789	0.026050346
1	0x3e141529	0.14461197
2	0x3e093e55	0.13402684
3	0xbb7509f8	-0.0037389975
4	0x3d3d90b6	0.046280585
5	0xbcf09647	-0.029368533
6	0xbbb50f2e	-0.005525491
7	0xbe06dc58	-0.13169992
8	0x3d6dd252	0.058061905
9	0x3d402409	0.046909366
10	0xbc84813c	-0.016174905
11	0x3ddf1e63	0.10894468
12	0x3d658ad9	0.05604062
13	0x3e04c771	0.12966706
14	0x3ddf2dcf	0.10897409
15	0x3c0f2d35	0.008738806
16	0xbc1bed64	-0.009517048
17	0x3d6b858b	0.057500403
18	0x3d61220a	0.054964103
19	0x3a396f6a	0.0007073792
20	0x3e10d1fa	0.141426
21	0x3d6c90c5	0.05775525
22	0x3d6bbd84	0.057553783
23	0x3d60441b	0.05475245
24	0x3cf8ca02	0.030369762
25	0x39ab6367	0.00032689722
26	0x3d2ab2db	0.041674476
27	0x3d8084d0	0.06275332
28	0xbbc92f18	-0.006139647
29	0x3d5fe948	0.054665834
30	0xbd4d5a36	-0.05013486
31	0x3c724077	0.014785877
32	0x3d8ea088	0.06964213
33	0xbc022ce2	-0.007945271
34	0x3c0380c2	0.008026304
35	0x3e09d55d	0.13460298
36	0x3dd8d7da	0.105880454
37	0x3d8de1c6	0.069278285
38	0x3c933816	0.01797108
39	0xbb3437a7	-0.0027498992
40	0x3e0162f2	0.12635401
41	0xbbbb2782	-0.005711497
42	0xbce74669	-0.028231816
43	0x3e3a3ed7	0.18188034
44	0x3d36379b	0.044486623
45	0xbc403490	-0.011731282
46	0x3d575557	0.05257162
47	0x3da693b6	0.081336424
48	0x3d62f774	0.05541177
49	0xbd6a5cc2	-0.057217367
50	0x3d60859b	0.054814916
51	0x3d09607a	0.033539273
52	0x3d99e15f	0.07513689
53	0x3dca0f5d	0.098662116
54	0xbbab3639	-0.0052249697
55	0x3cc9058b	0.024538776
56	0x3db80f8b	0.089873396
57	0x3def262e	0.11677204
58	0x3df2cf0e	0.11855899
59	0x3d8923bc	0.06696269
60	0x3d04a612	0.03238494
61	0xbd960e1e	-0.073269114
62	0x3c959a6b	0.018262109
63	0xbc7577fc	-0.01498222
64	0x3d58a54e	0.05289202
65	0x3c4f0052	0.012634354
66	0x3b90af56	0.004415433
67	0x3dc3e33f	0.09564828
68	0xbcbc8a7f	-0.023015259
69	0x3dbd1a91	0.09233583
70	0xbd783a0b	-0.06060223
71	0x3d18bd26	0.03728976
72	0xbd0f6dd1	-0.03501684
73	0x3da8ff4e	0.082518205
74	0xbc5d2ccd	-0.013499451
75	0x3d1923b9	0.037387583
76	0xbdc0297a	-0.09382911
77	0x3cbca32f	0.02302703
78	0x3caac475	0.020845631
79	0x3dba6284	0.091008216
80	0xbdba1e03	-0.090877555
81	0x3d9ea057	0.07745426
82	0xbc913838	-0.017727003
83	0x3cf4aec1	0.029868485
84	0x3c9ac58b	0.018893024
85	0x3e2b1709	0.16708006
86	0x3d06d00d	0.032913256
87	0x3e15166c	0.14559335
88	0x3d1afd70	0.037839353
89	0x3d093059	0.033493374
90	0xbd8a8451	-0.067635186
91	0xbcffe33b	-0.031236282
92	0x3e0e6551	0.13905837
93	0x3da1fdc6	0.079097316
94	0x3dbf56cf	0.09342729
95	0xbd18df80	-0.03732252
96	0x3e2cc6ef	0.16872762
97	0x3d7d2597	0.061803427
98	0x3df5be9a	0.11999245
99	0xbd58e594	-0.052953318
100	0x3c9676cc	0.018367194
101	0x3cab5bf1	0.020917865
102	0x3e012683	0.12612347
103	0x3dc562c8	0.09637982
104	0x3e0bd9b2	0.13657263
105	0x3dbaae58	0.09115285
106	0x3c3b8904	0.011446241
107	0x3bb1429a	0.005409551
108	0xbccbc382	-0.024873499
109	0xbb9f690e	-0.0048648184
110	0x3e33b357	0.17548881
111	0xbd135c2c	-0.035976574
112	0x3e0fe119	0.14050712
113	0x3d5c1f4c	0.053740785
114	0x3d673b3e	0.056452982
115	0x3afc1660	0.0019232742
116	0xbce8da84	-0.028424509
117	0x3d623c75	0.055233438
118	0x3d8cd02c	0.06875643
119	0x3e43a2a4	0.19105011
120	0xbc983ba2	-0.018583123
121	0x3db9a10b	0.0906392
122	0x3dc289d6	0.09498946
123	0x3d297cf0	0.041378915
124	0x3cece567	0.028917981
125	0x3e2d08cc	0.16897887
126	0x3d029bb9	0.03188679
127	0x3d70128d	0.05861144

weight f4 [128]
0	0x3f8b8766	1.0900695
1	0x3f987fe0	1.1914024
2	0x3f8ea4ae	1.1144006
3	0x3f8b4213	1.0879539
4	0x3f92f20c	1.1480117
5	0x3f90f5e9	1.1325046
6	0x3f994449	1.1973964
7	0x3f83632d	1.0264641
8	0x3f8cb63e	1.0993116
9	0x3f93c31b	1.1543916
10	0x3f980595	1.1876704
11	0x3f99ccff	1.2015685
12	0x3f9230c1	1.1421129
13	0x3f9b1f32	1.2118895
14	0x3f9ae6cf	1.2101687
15	0x3f9900c5	1.195336
16	0x3f8e23ac	1.1104636
17	0x3f9b61cb	1.2139219
18	0x3f8c9ebe	1.0985944
19	0x3f9bdd36	1.2176883
20	0x3f8a8a8e	1.0823534
21	0x3f9a7a88	1.2068644
22	0x3f8f4abf	1.1194686
23	0x3f9c1119	1.2192718
24	0x3f8c251d	1.0948826
25	0x3f908528	1.1290636
26	0x3f88d95f	1.0691336
27	0x3f882914	1.0637536
28	0x3f9c3d6e	1.2206247
29	0x3f91d49f	1.1393012
30	0x3f919a6f	1.1375254
31	0x3f9def34	1.2338624
32	0x3f8c6319	1.0967742
33	0x3f9a7d74	1.2069535
34	0x3f9e0687	1.2345742
35	0x3f952d7d	1.1654507
36	0x3f97e107	1.1865548
37	0x3f9690ce	1.1762941
38	0x3f8a421d	1.0801426
39	0x3f952996	1.1653316
40	0x3f8a6f17	1.0815152
41	0x3f93e0b3	1.1552948
42	0x3f9c59cc	1.2214904
43	0x3f90b6eb	1.1305822
44	0x3f91f666	1.140332
45	0x3f8fce60	1.1234856
46	0x3f8b76be	1.0895612
47	0x3f89db42	1.0770037
48	0x3f8bb9aa	1.0916035
49	0x3f897133	1.0737671
50	0x3f84b6ab	1.0368246
51	0x3f94d11c	1.1626315
52	0x3f96cd9b	1.1781496
53	0x3f9d225f	1.2276114
54	0x3f9431dd	1.1577717
55	0x3f9071f3	1.1284775
56	0x3f8df630	1.1090755
57	0x3f922702	1.1418154
58	0x3f97a399	1.1846801
59	0x3f8e557d	1.1119839
60	0x3f8a143a	1.0787423
61	0x3f9417dc	1.1569781
62	0x3f925c2c	1.1434379
63	0x3f8a81e5	1.0820891
64	0x3f8a2c80	1.079483
65	0x3f94528e	1.1587694
66	0x3f974c45	1.1820151
67	0x3f8e4110	1.1113605
68	0x3f9177b1	1.1364652
69	0x3f8c66c3	1.096886
70	0x3f7c2be4	0.9850447
71	0x3f97566a	1.1823246
72	0x3f8e4045	1.1113364
73	0x3f98b390	1.1929798
74	0x3f91fe04	1.1405644
75	0x3f976eea	1.1830723
76	0x3f8a380a	1.0798352
77	0x3f8c3353	1.0953163
78	0x3f995281	1.1978303
79	0x3f95dbd9	1.1707717
80	0x3f9497cc	1.1608825
81	0x3f907496	1.1285579
82	0x3f9be494	1.2179132
83	0x3f897296	1.0738094
84	0x3f8bc959	1.0920821
85	0x3f88ef0c	1.0697951
86	0x3f8c2a2a	1.0950367
87	0x3f9660d1	1.1748296
88	0x3f88ecf5	1.0697314
89	0x3f95ef5f	1.1713675
90	0x3f95f644	1.1715779
91	0x3f932087	1.1494302
92	0x3f8afd42	1.0858538
93	0x3f861d2b	1.0477651
94	0x3f8c58b9	1.0964576
95	0x3f8c3cba	1.0956032
96	0x3f97f133	1.1870483
97	0x3f8e9ef3	1.1142257
98	0x3f93b972	1.1540968
99	0x3f9102ee	1.1329019
100	0x3f929fa7	1.1454972
101	0x3f8a5d54	1.0809731
102	0x3f90680f	1.1281756
103	0x3f8b573f	1.0886
104	0x3f90cffa	1.131347
105	0x3f949570	1.1608105
106	0x3f91edd4	1.1400704
107	0x3f8fc20e	1.1231096
108	0x3f886598	1.0656004
109	0x3f975e63	1.182568
110	0x3f950566	1.1642272
111	0x3f931047	1.1489342
112	0x3f957955	1.1677653
113	0x3f9dff48	1.2343531
114	0x3f8bb0d8	1.0913343
115	0x3f968423	1.1759075
116	0x3f988606	1.1915901
117	0x3f92010d	1.1406571
118	0x3f8efab2	1.1170256
119	0x3f8f3b73	1.1190017
120	0x3f8fb52f	1.1227168
121	0x3f88c0e9	1.0683872
122	0x3f8a4c31	1.0804502
123	0x3f8c1151	1.0942785
124	0x3f9684f8	1.1759329
125	0x3f911ac5	1.1336294
126	0x3f84f61d	1.0387608
127	0x3f9c1488	1.2193766

bias f4 [128]
0	0xbdb95f27	-0.09051352
1	0x3d73b60f	0.059499796
2	0xbdbf1640	-0.09330416
3	0xbc913c48	-0.01772894
4	0xbd3ff2ba	-0.04686234
5	0xbd7cc539	-0.061711524
6	0x3d0a8ce1	0.03382576
7	0xbe1a9255	-0.15094884
8	0xb9e6c278	-0.0004401391
9	0x3d728669	0.059210215
10	0xbe025e6b	-0.1273133
11	0xbd505b39	-0.050868247
12	0x3c53b2bf	0.012921034
13	0xbdb23056	-0.087006256
14	0x3d369771	0.04457802
15	0xbd6b464f	-0.0574401
16	0x3d16c1fa	0.036806084
17	0xbb2154c6	-0.002461718
18	0xbddbd38e	-0.1073371
19	0x3d45271c	0.048133
20	0xbdba2e24	-0.09090832
21	0xbd8b17b3	-0.0679163
22	0xbd93906f	-0.07205283
23	0xbda88cdf	-0.08229994
24	0x3d5e5262	0.054277785
25	0xbdc57230	-0.0964092
26	0xbcd6b6a4	-0.026210137
27	0xbd93ca6f	-0.072163455
28	0xbddfffe2	-0.10937478
29	0xbdc809ea	-0.09767516
30	0x3ce82e43	0.028342372
31	0xbd860d80	-0.06545544
32	0xbdf7d733	-0.12101593
33	0xbd1cb9f9	-0.038263295
34	0xbde3031e	-0.11084579
35	0x3d80a837	0.062820844
36	0x3cb7c56b	0.022433003
37	0x3da1d2da	0.07901545
38	0x3db07f45	0.08618025
39	0xbcb6c59b	-0.022311023
40	0xbdc4fa18	-0.09618014
41	0x3d784096	0.06060847
42	0xbe10191c	-0.14072078
43	0xbd44eff8	-0.048080415
44	0xbd51da9d	-0.051233876
45	0xbdd86ceb	-0.105676495
46	0x3da56d71	0.08077515
47	0xbda96bdc	-0.08272526
48	0xbdd25c85	-0.10271553
49	0x3d9023cc	0.07038078
50	0x3e757887	0.23971759
51	0xbdb4620e	-0.08807765
52	0x3cd43acb	0.02590694
53	0x3d1c5b1e	0.038172834
54	0xbdab4890	-0.083634496
55	0xbd39bccb	-0.045346063
56	0x3c43129b	0.011906291
57	0x3c718102	0.0147402305
58	0x3d604174	0.05474992
59	0x3cd87d28	0.026426867
60	0xbc17b2f3	-0.009258973
61	0xbd8829b7	-0.066485815
62	0xbdcfba6e	-0.101429805
63	0xbc464a70	-0.012102708
64	0xbdee57fd	-0.11637876
65	0x3c82357e	0.015894648
66	0x3d519d6d	0.051175524
67	0xbddbfde8	-0.10741788
68	0xba577690	-0.00082192663
69	0x3c763590	0.015027419
70	0x3e248ca5	0.16069277
71	0xbdaee166	-0.08539085
72	0xbd39e4a0	-0.04538405
73	0xbd2c8c24	-0.042125836
74	0xbe01a92b	-0.12662189
75	0xbd179a9c	-0.03701268
76	0xbd53075b	-0.051520687
77	0xba9a522c	-0.0011773757
78	0xbc988c8e	-0.01862171
79	0xbd80307a	-0.06259246
80	0xbd263f61	-0.040587787
81	0x3cd4d27a	0.02597927
82	0x3cb5f91b	0.02221351
83	0xbd85c67e	-0.06532
84	0x3d51a5a5	0.05118336
85	0x3d28b33a	0.04118655
86	0x3cca5a40	0.024701238
87	0x3d492caa	0.04911486
88	0x3d0c6e79	0.034285042
89	0x3d9cad53	0.076502465
90	0xbce78829	-0.028263168
91	0x3d25eab1	0.040507022
92	0xbccd0d70	-0.025030822
93	0x3c6eb155	0.014568646
94	0xbd88412f	-0.06653058
95	0xbdcc5a1e	-0.09978126
96	0xbdf5a03b	-0.11993452
97	0xbd8b6a09	-0.06807334
98	0xbdc9164b	-0.09818705
99	0x3d00799e	0.031365983
100	0xbdf0772f	-0.117414825
101	0x3d2af4a7	0.041737225
102	0xba4f70ac	-0.0007913213
103	0x3d261e6f	0.040556367
104	0xbdf5a2e5	-0.1199396
105	0x3cac497e	0.021031138
106	0xbd281b4f	-0.04104167
107	0xbd335503	-0.043782245
108	0x3cb08ddd	0.02155202
109	0xbde180ee	-0.110109195
110	0xbd61e555	-0.05515035
111	0xbbc64d7a	-0.0060517164
112	0xbd7e0d95	-0.06202467
113	0xbda0d166	-0.078524396
114	0xbdbbacf0	-0.091638446
115	0xbd79b996	-0.060968004
116	0xbe1509e7	-0.14554559
117	0xbdca335e	-0.09873079
118	0x3a82c4ff	0.0009976922
119	0xbda98e82	-0.08279134
120	0xbe0dd0d5	-0.13849194
121	0xbd84a47f	-0.06476688
122	0xbc776d6b	-0.015101771
123	0xbc928526	-0.017885756
124	0xbdddb200	-0.108249664
125	0xbe17e2a3	-0.14832549
126	0x3db31e23	0.087459825
127	0xbda41166	-0.08011131

running_mean f4 [128]
0	0x4007863a	2.1175675
1	0x3e5fc949	0.21854128
2	0x3eecd09d	0.4625291
3	0x403543ed	2.8322709
4	0x3ed716b5	0.42009512
5	0x3e95c40f	0.29251143
6	0x3de52970	0.11189544
7	0x4102c3b8	8.172783
8	0x3f7fef99	0.9997497
9	0x3f24824f	0.64261335
10	0x3e3ac105	0.18237694
11	0x3eda819d	0.42677012
12	0x3f197c1f	0.5995502
13	0x3db2b06a	0.087250546
14	0x3d714252	0.05890114
15	0x3e8c8bf6	0.27450532
16	0x404e4e0a	3.2235131
17	0x3c114e66	0.008868789
18	0x3eff669b	0.4988297
19	0x3d2b07a8	0.04175535
20	0x3fc18219	1.5117828
21	0x3e68977b	0.22714035
22	0x3ec61cbd	0.386938
23	0x3e7c6d0e	0.24650976
24	0x3fa65a34	1.2996278
25	0x3da471ff	0.080295555
26	0x41727eac	15.155926
27	0x4024d334	2.5753908
28	0x3c7ce99e	0.015436558
29	0x3f9c437c	1.2208095
30	0x3d819b06	0.063283965
31	0x3d04dd1c	0.03243743
32	0x3f3398d3	0.70155066
33	0x3d7dad93	0.06193311
34	0x3d4a8245	0.04944064
35	0x3ec5e966	0.3865463
36	0x3e650b3f	0.22367571
37	0x3e59354c	0.21211737
38	0x3fd14fba	1.6352456
39	0x3f2a7f1e	0.66600215
40	0x3f804555	1.0021158
41	0x3d450c46	0.048107408
42	0x3e20be8e	0.15697691
43	0x3f97c674	1.1857438
44	0x3fadebd0	1.3587589
45	0x3fbd66e9	1.4797031
46	0x40d65099	6.6973386
47	0x3ff023d7	1.8760937
48	0x3f0de405	0.55426055
49	0x413c2061	11.757905
50	0x36b95ea7	5.5244486e-06
51	0x3c709310	0.0146835
52	0x3e281a83	0.16416363
53	0x3d97e23f	0.074162
54	0x3ebb78f1	0.36615708
55	0x3f63587a	0.8880688
56	0x3f370aa6	0.71500623
57	0x3e984b86	0.2974512
58	0x3e9c8bb3	0.30575332
59	0x402cda6f	2.7008321
60	0x4009015c	2.140708
61	0x3f492a3b	0.78580064
62	0x3e6137cd	0.21993943
63	0x417a6f01	15.652101
64	0x4026e1e6	2.6075377
65	0x3d0edf5b	0.034880977
66	0x3bdbd407	0.0067086252
67	0x3f2f9d2d	0.68599206
68	0x3cfa3cd3	0.030546581
69	0x3f90a3ca	1.1299984
70	0x00000004	6e-45
71	0x3f206358	0.62651587
72	0x3f86ab8c	1.0521102
73	0x3df6da18	0.12053317
74	0x3f5a5ffb	0.85302705
75	0x3cb363c0	0.02189815
76	0x40936c25	4.606951
77	0x3fb2b2b7	1.396079
78	0x3e0d6d4c	0.13811225
79	0x3e4f9b37	0.20274054
80	0x3d7dc4b1	0.061955158
81	0x3e512631	0.20424725
82	0x3b46c48f	0.003032956
83	0x3cd9c870	0.026584834
84	0x404522e5	3.0802548
85	0x3fbda734	1.4816651
86	0x403e4c24	2.9733973
87	0x3e913396	0.2835967
88	0x3e94c39c	0.29055488
89	0x3cd0a1ad	0.025467718
90	0x3dda0f27	0.10647421
91	0x3f42d26e	0.7610234
92	0x3f156fed	0.5837391
93	0x4027d16a	2.6221566
94	0x3f435abf	0.7631034
95	0x3efb28c0	0.49054527
96	0x3e768a52	0.24076203
97	0x3f9a08a3	1.2033886
98	0x3e459718	0.19295919
99	0x3ef5b51d	0.4798974
100	0x3e633aee	0.22190449
101	0x40259064	2.586938
102	0x3fda77a6	1.7067764
103	0x3fe5e033	1.7959045
104	0x3e384530	0.17995143
105	0x3ea881f6	0.32911652
106	0x3f0b7acc	0.5448425
107	0x3f1cdeee	0.61277664
108	0x418e32b6	17.774761
109	0x3f0bfc6e	0.5468205
110	0x3e9c4771	0.30523255
111	0x39b4713f	0.0003441665
112	0x3ee63f81	0.44970325
113	0x3d9c16a6	0.07621507
114	0x3f468152	0.7754108
115	0x3ea7e4cb	0.32791743
116	0x3e4a1db9	0.19737901
117	0x3f18ea23	0.59732264
118	0x3f3db2bf	0.7410087
119	0x40062600	2.0960693
120	0x3e2e9717	0.17049824
121	0x40085e4f	2.1307561
122	0x3f5b2de3	0.8561689
123	0x3e7ef60a	0.24898544
124	0x3e30adfa	0.17253867
125	0x3f38b0bb	0.7214467
126	0x3e939efc	0.28832233
127	0x3d549f6a	0.05190984

running_var f4 [128]
0	0x412bedee	10.745588
1	0x3f879573	1.0592483
2	0x3fc137f8	1.5095205
3	0x41376513	11.462176
4	0x3faafd0e	1.3358476
5	0x3f92916e	1.1450632
6	0x3eb21e0c	0.3478855
7	0x41bebc6c	23.842003
8	0x4087ca23	4.243425
9	0x40299104	2.649476
10	0x3f1bac73	0.6081001
11	0x3fc425d3	1.5324043
12	0x401d755b	2.4602878
13	0x3e8b2e6d	0.27183858
14	0x3e2ca9fa	0.16861716
15	0x3f907fd4	1.128901
16	0x4165c034	14.359425
17	0x3ca70a3e	0.020390626
18	0x3fe49518	1.7858
19	0x3ddddf6d	0.10833631
20	0x40a6dc41	5.2143865
21	0x3f3f9b3b	0.7484624
22	0x3fbaa6aa	1.4582112
23	0x3f617993	0.8807613
24	0x408a606b	4.32427
25	0x3eb61440	0.35562325
26	0x42091521	34.270634
27	0x41688535	14.532521
28	0x3d181ecb	0.03713874
29	0x40b33c8c	5.601141
30	0x3e5bbac3	0.21457963
31	0x3dc7a349	0.09747941
32	0x40354f4f	2.8329656
33	0x3e440a1f	0.19144486
34	0x3e01aa6c	0.12662667
35	0x3fc8c269	1.5684329
36	0x3f4410b3	0.7658798
37	0x3f1c921d	0.6116045
38	0x40d84b4b	6.759191
39	0x40294d4d	2.645343
40	0x4076703e	3.8506007
41	0x3e20987e	0.15683171
42	0x3f1653e1	0.5872174
43	0x40889939	4.268704
44	0x40968696	4.703929
45	0x40a7a7f3	5.2392516
46	0x421803b0	38.0036
47	0x41241027	10.253943
48	0x4001a108	2.0254536
49	0x420a487b	34.57078
50	0x36871e4a	4.0268396e-06
51	0x3d18f47b	0.03734253
52	0x3f0ae0bc	0.5424917
53	0x3e57bdc6	0.21068487
54	0x3fb754e5	1.4322783
55	0x40790d4e	3.891437
56	0x4042d817	3.044439
57	0x3f7ba595	0.98299533
58	0x3f9563d7	1.1671094
59	0x415694a6	13.411291
60	0x412eda85	10.9283495
61	0x400fd593	2.2474105
62	0x3f4117ba	0.7542683
63	0x42241002	41.015633
64	0x414d00ae	12.812666
65	0x3ddd267c	0.10798356
66	0x3c85ce38	0.016333684
67	0x40035e54	2.0526323
68	0x3da4953b	0.08036276
69	0x408e2ca8	4.442951
70	0x00000004	6e-45
71	0x402b1a41	2.6734774
72	0x40b62ece	5.6932135
73	0x3ecdede4	0.4022056
74	0x40821f87	4.0663486
75	0x3d7d017e	0.061769
76	0x419c4691	19.534456
77	0x409fe4b7	4.9966693
78	0x3edbb1f7	0.42909214
79	0x3f497ac4	0.7870295
80	0x3e41f3c4	0.18940645
81	0x3f0848ae	0.532359
82	0x3bb441d4	0.0055010114
83	0x3d91a0e3	0.07110765
84	0x418c292d	17.520105
85	0x40c07814	6.014658
86	0x4156ce5f	13.425384
87	0x3f7ccf8a	0.9875418
88	0x3f8660e1	1.0498315
89	0x3d9ced7a	0.076624826
90	0x3eaa32f3	0.33241996
91	0x4051f8fd	3.280822
92	0x40303b7c	2.7536306
93	0x416e6498	14.899559
94	0x402bb391	2.6828349
95	0x400c08a6	2.1880279
96	0x3f323ef5	0.69627315
97	0x40b9d300	5.807007
98	0x3f1f3d43	0.6220285
99	0x3fde9b2a	1.7391102
100	0x3f63e4c8	0.8902097
101	0x411f7df8	9.968254
102	0x40c7e2ff	6.2464595
103	0x40ec0bad	7.3764253
104	0x3f1e0c54	0.6173756
105	0x3f848e66	1.0355957
106	0x3ff2fd58	1.8983564
107	0x402f7115	2.741277
108	0x425a0767	54.50723
109	0x4002eec6	2.0458236
110	0x3f8f6f6b	1.1205877
111	0x3a334a11	0.0006839345
112	0x3fddf98c	1.7341781
113	0x3e74ae73	0.23894672
114	0x404600b7	3.0937936
115	0x3fa785b0	1.3087673
116	0x3f4ab873	0.791877
117	0x40165b83	2.3493354
118	0x40439db6	3.056501
119	0x4106d5d7	8.427207
120	0x3f89172b	1.0710195
121	0x40ea51a5	7.3224664
122	0x407816eb	3.8763988
123	0x3f5bf48b	0.8592002
124	0x3f0beadb	0.54655236
125	0x402b69c2	2.67833
126	0x3fb65418	1.4244413
127	0x3e0d3e2c	0.13793248

weight f4 [64, 128]
0	0xbcfa9f48	-0.03059353
1	0xbd5a6aaa	-0.05332438
2	0xbcf45cb9	-0.02982937
3	0xbd4330bc	-0.0476539
4	0x3d33b071	0.04386944
5	0xbc263256	-0.010143837
6	0x3b4a3dbc	0.003085955
7	0xbdc43a5b	-0.09581443
8	0xbdf123b3	-0.11774387
9	0x3e014bc5	0.1262656
10	0xbd6e5c84	-0.0581937
11	0x3dd3c93c	0.10341117
12	0x3e01c353	0.12672167
13	0x3d12847d	0.035770882
14	0x3cf1daef	0.029523341
15	0x3e157e7f	0.14599036
16	0xbd6cd936	-0.057824336
17	0x3def3ced	0.116815425
18	0xbcec67e3	-0.02885813
19	0x3e1883d0	0.14894032
20	0x3e081967	0.1329094
21	0xbcd50989	-0.026005523
22	0xbd27d1e7	-0.040971663
23	0x3d7f777e	0.062369816
24	0xbd160d2e	-0.036633663
25	0xbdd1ca32	-0.10243644
26	0xbdf923a0	-0.12164998
27	0x3d670e85	0.05641033
28	0xbd4a9376	-0.049457036
29	0xbdd368cb	-0.10322722
30	0xbddd3738	-0.10801548
31	0xbddda374	-0.10822192
32	0x3d8321e9	0.06402952
33	0x3e13689b	0.14395373
34	0x3cc62f12	0.024192367
35	0xbe06037f	-0.13087271
36	0xbcc085ee	-0.023501363
37	0x3de480ff	0.111574166
38	0xbd934dfd	-0.071926095
39	0x3dbdd45b	0.09269019
40	0x3da1aff6	0.0789489
41	0x3d3308d5	0.043709595
42	0xbdef2caa	-0.11678441
43	0x3b810bf3	0.003938192
44	0x3cf3ea85	0.029774914
45	0xbc0f3913	-0.008741635
46	0xbd8d36be	-0.06895207
47	0xbd4b41f7	-0.049623456
48	0x3db91205	0.0903664
49	0x3c8e4fc9	0.017372029
50	0xbaa83a3c	-0.0012834738
51	0x3cfdbbff	0.030973433
52	0xbc28bf84	-0.010299567
53	0x3dfcdf9f	0.1234734
54	0xbd850c73	-0.06496515
55	0x3c8c6c2d	0.017141426
56	0xbdda2991	-0.106524594
57	0x3e1e5bbd	0.15464683
58	0x3be39af4	0.006945962
59	0xbd51b9c0	-0.051202536
60	0x3cc40403	0.023927694
61	0xbe1f54ad	-0.15559645
62	0xbe32c7f0	-0.17459083
63	0xbd889f4f	-0.06671011
64	0x3d8a06d2	0.06739582
65	0x3c539546	0.0129140075
66	0x3d633f67	0.055480387
67	0x3db85036	0.08999674
68	0x3d882490	0.06647599
69	0xbd9d23cc	-0.07672843
70	0xbcb38b9b	-0.021917155
71	0xbe081896	-0.13290629
72	0xbdc9a250	-0.09845412
73	0x3cd65fd8	0.026168749
74	0x3cf7c075	0.030243138
75	0xbcfae0f9	-0.030624853
76	0x3d48300f	0.048873957
77	0x3cbb3825	0.02285392
78	0xbdd190d1	-0.102327
79	0x3e0618f6	0.1309546
80	0xbde55fc3	-0.11199906
81	0xbd17e071	-0.03707928
82	0xbd38abfd	-0.045085896
83	0x3d3f594d	0.046716023
84	0xbd7c91a9	-0.06166235
85	0x3d6280d3	0.055298638
86	0x3da8f616	0.08250062
87	0xbe0a1f36	-0.13488469
88	0x3d3138b1	0.043266956
89	0xbdeb3327	-0.11484366
90	0x3a3d88b7	0.000723015
91	0xbd02926a	-0.031877913
92	0x3d96c6b4	0.07362118
93	0x3d657b9e	0.056026094
94	0x3da77f5f	0.08178591
95	0x3d1e12cc	0.038592145
96	0x3da3b58d	0.079936124
97	0xbe1390bf	-0.14410685
98	0xbe31110e	-0.17291662
99	0xbcfab40d	-0.030603433
100	0xbd039878	-0.032127827
101	0xbd84ca6e	-0.06483923
102	0x3d92d418	0.0716936
103	0x3cb9fc80	0.02270341
104	0xbddfc2c9	-0.10925824
105	0xbd0ee098	-0.034882158
106	0xbde3035a	-0.11084624
107	0xbde34190	-0.110964894
108	0xbcf302cf	-0.029664425
109	0x3cb01256	0.021493118
110	0xbe0b0618	-0.13576543
111	0xbe1da2b5	-0.15394099
112	0x3decbb7b	0.115591966
113	0x3e35c03b	0.17749111
114	0x3cf5c05d	0.029998953
115	0x3cea6563	0.028612798
116	0x3d4a2079	0.049347375
117	0xbbea79c6	-0.00715563
118	0xbdb6584a	-0.089035586
119	0x3cd3bd71	0.025847169
120	0xba5ac6bf	-0.00083456555
121	0x3c1e9a34	0.00968032
122	0x3d1142f5	0.035464246
123	0x3c92672b	0.01787146
124	0xbcb7bb0e	-0.022428062
125	0x3d4193aa	0.047259964
126	0xbce9a0de	-0.02851909
127	0xbdff65de	-0.124706015
128	0x3c81baea	0.015836198
129	0xbe08568a	-0.13314262
130	0x3d81b904	0.06334117
131	0x3d588235	0.05285855
132	0x3d69cf62	0.05708254
133	0x3da9d438	0.08292431
134	0xbd8ccbdc	-0.068748206
135	0x3d92fc73	0.07177057
136	0x3dc043a7	0.09387904
137	0x3d80171d	0.062544085
138	0x3e1c6cc6	0.15275869
139	0x3deffbb0	0.117179275
140	0x3d99eb62	0.07515599
141	0x3d051cb4	0.032498077
142	0x3d940b36	0.07228701
143	0x3e074f24	0.13213784
144	0xb7d9724d	-2.5921641e-05
145	0x3bfb6239	0.007671621
146	0x3d814a2b	0.063129745
147	0xbdaa5147	-0.08316284
148	0x3d8b90a8	0.068147
149	0x3e0fe57c	0.14052385
150	0x3dab7283	0.08371451
151	0x3e1a3af5	0.15061553
152	0xbcddef62	-0.027091686
153	0x3ced7561	0.028986635
154	0xbe1ea4a9	-0.154925
155	0x3da84f23	0.08218219
156	0xbd1590c8	-0.036515027
157	0xbe36f517	-0.17866932
158	0xbda9465e	-0.082653746
159	0xbe111b26	-0.14170513
160	0x3cd35f15	0.025802175
161	0x3d790ef0	0.06080526
162	0xbd77329a	-0.06035099
163	0xbdc65e28	-0.09685928
164	0xbddaaeb7	-0.106778555
165	0xbe2aab19	-0.16666831
166	0xbd9b0ec0	-0.07571173
167	0x3d4b8e0d	0.049696017
168	0xbc5ed21c	-0.013599899
169	0xbd8782fe	-0.06616782
170	0xbda232b1	-0.07919825
171	0xbca4abcd	-0.020101452
172	0x3de0c7c4	0.10975602
173	0xbdbe4437	-0.09290355
174	0xbdcfb283	-0.1014147
175	0xba8a07d8	-0.0010530902
176	0xbd49cb6e	-0.04926627
177	0xbde32b03	-0.11092188
178	0x3e450333	0.19239502
179	0xbca7ae64	-0.020468898
180	0xbda91226	-0.08255415
181	0x3d975183	0.07388594
182	0x3dafb0a4	0.085786134
183	0x3d6cd938	0.057824343
184	0x3c5bd4e3	0.013417455
185	0x3e1168dd	0.14200158
186	0xbe424a82	-0.18973735
187	0xbe0e49ae	-0.13895294
188	0xbdf3a806	-0.11897282
189	0xbdb5ae53	-0.0887114
190	0x3c3bef38	0.011470608
191	0xbd59512f	-0.05305594
192	0x3de8d1ab	0.11368116
193	0xbccc6edb	-0.024955204
194	0xbe0984c1	-0.13429548
195	0xbc67a0c3	-0.01413745
196	0x3c357680	0.011075616
197	0x3e1567b9	0.14590348
198	0x3d592c0f	0.053020533
199	0xbdcc0bec	-0.099632114
200	0xbd7e3cce	-0.062069707
201	0xbd8e50a7	-0.06948977
202	0x3c4dab74	0.012553085
203	0xbdebe079	-0.11517424
204	0xbd85ebaf	-0.06539094
205	0xbe34f294	-0.17670661
206	0xbe03504b	-0.12823598
207	0x3e181b27	0.14854108
208	0xbe11392e	-0.14181969
209	0x3dd8f315	0.10593239
210	0xbdcc1dac	-0.09966597
211	0xbd166a2f	-0.03672236
212	0x3bf83195	0.00757427
213	0x3db937b6	0.09043829
214	0xbde2ac5c	-0.11068031
215	0xbd3b893e	-0.04578518
216	0x3d85b071	0.06527794
217	0xbd2be73a	-0.04196856
218	0xbd97c4f3	-0.07410612
219	0x3d66067c	0.056158528
220	0xbd73397e	-0.059381
221	0x3ddcbd0b	0.107782446
222	0xbcf6a7ea	-0.030109365
223	0xbdc28961	-0.09498859
224	0x3d8b3f15	0.06799141
225	0xbd03c127	-0.032166626
226	0xbdab4f06	-0.08364682
227	0xbdb35b5d	-0.087576605
228	0x3d48432a	0.048892178
229	0x3ca37afb	0.019956103
230	0xbcd47bcb	-0.025937935
231	0x38d6cf61	0.000102429425
232	0x3c1ec09e	0.009689478
233	0x3b0a1f91	0.0021075944
234	0xbe02a52c	-0.1275832
235	0xbda89946	-0.082323596
236	0xbd2da650	-0.042394936
237	0x3d8a1e5e	0.06744073
238	0xbd76330e	-0.060107283
239	0xbd1fadf1	-0.038984243
240	0x3cf5833b	0.029969802
241	0x3e0b58a5	0.13608034
242	0x3d81b53b	0.06333395
243	0x3d8e1b36	0.06938784
244	0x3dae1abd	0.08501194
245	0x3d06f213	0.032945704
246	0xbdb22967	-0.08699303
247	0x3d25cb2e	0.04047697
248	0x3b8634dd	0.0040956573
249	0x3ddfbd70	0.10924804
250	0x3cb6598b	0.022259494
251	0xbcfc1c09	-0.030775087
252	0xbd9af0da	-0.0756547
253	0xbd68bdc7	-0.05682161
254	0xbccf1a0a	-0.025280971
255	0xbe501b90	-0.20323014

bias f4 [64]
0	0x3dc041c2	0.09387542
1	0x3cd8b1ca	0.026451964
2	0x3ddf7c36	0.10912363
3	0x3e0ebc88	0.13939106
4	0x3df35f78	0.118834436
5	0x3d07d23d	0.033159483
6	0x3dab81c4	0.0837436
7	0x3db4b526	0.08823614
8	0x3da1522e	0.07877003
9	0xbb574fd7	-0.0032853985
10	0x3d6d49e3	0.057931792
11	0x3e324bdd	0.17411752
12	0x3dd5751d	0.10422728
13	0x3d9f737c	0.07785699
14	0x3dc5863d	0.096447445
15	0x3d31736e	0.043322973
16	0x3e1c8e76	0.1528872
17	0x3bdf6bc2	0.0068182657
18	0x3d4382c8	0.047732145
19	0x3e0193da	0.12654057
20	0x3dac8a9a	0.08424874
21	0x3d83dd22	0.06438662
22	0x3cfd4e45	0.03092111
23	0x3dd7f4a5	0.10544709
24	0x3e08bda6	0.13353595
25	0xbcd14bb8	-0.0255488
26	0x3dfae3b5	0.12250463
27	0x3d3eebde	0.04661166
28	0x3dd54338	0.104132116
29	0x3e0681fd	0.13135524
30	0x3d9c0b15	0.07619301
31	0x3d88ba83	0.06676199
32	0x3dc4b00a	0.09603889
33	0x3e546d61	0.2074485
34	0x3d87f65e	0.06638788
35	0x3dd84d3c	0.10561606
36	0x3dd987a8	0.106215775
37	0x3c382553	0.011239368
38	0x3e01ea44	0.12687021
39	0xbaff3a64	-0.0019472358
40	0x3db278b5	0.08714429
41	0x3d8d011b	0.068849765
42	0x3e0ec7a3	0.13943343
43	0x3c92d97b	0.017925968
44	0x3e0257c9	0.127288
45	0xbadd645d	-0.0016890873
46	0x3d54e277	0.051973786
47	0x3d7e5caf	0.06210011
48	0x3d8797c5	0.066207446
49	0x3da34691	0.07972444
50	0xbd0673c4	-0.032825246
51	0x3daef18a	0.08542164
52	0x3da8621d	0.082218386
53	0x3cc34cad	0.023840273
54	0x3dc3ce83	0.09560873
55	0x3dd2fbf3	0.10301962
56	0x3d871337	0.06595462
57	0x3deac9c6	0.114642665
58	0x3d985853	0.074387215
59	0x3de6c56c	0.11268124
60	0x3df9e1e3	0.122012876
61	0x3e084c30	0.13310313
62	0x3d9a50c7	0.07534938
63	0x3e1546f3	0.14577846
